data/LorentzNet_model_wReweighting_2023Mar08.pt (torch, 947588 bytes, 117 tensors)

embedding.weight f4 [72, 2]
00000000: 59fe 93be 5398 303d d522 393e 82c9 47be
00000010: 9202 023d e822 bcbe f6c7 97be 37ff 62be
00000020: bab8 b53c a08d 4c3e f3c5 bbbe c00c 9d3e
00000030: b3b3 4ebe 901b b2be 643a 92be d309 d63c
00000040: 6cf8 5f3c 9d10 30bd 5884 ebbb 6f59 773c
00000050: 4bf8 86be 2c40 b1be f16e b3be 2d9b ce3e
00000060: 87b9 97be 06d8 b3be b6e8 503c a983 db3a
00000070: ca73 ecbc 0208 8e3d ab2f 84bc 8567 5c3c
00000080: 2ee8 9dbd c5c5 97be e30d 4fbc 6d52 6a3d
00000090: 51e3 b2bd 9433 e0bd e572 6d3b ab26 85bc
000000a0: 1b81 cf3e 35ae 653e 83c6 d83c 2773 773e
000000b0: 0009 233e 7215 cdbc 87aa febc a21f 23bd
000000c0: e9a9 9cbd 9066 953c 1d38 32bd 8a8e 9e3e
000000d0: 6a1b e93e a44d 773e ee6d 19be 7457 743e
000000e0: b845 c53b 8844 93bb c8e4 afbe eac4 9f3e
000000f0: 9615 14be f3e1 6bbc 7010 af3c c700 8ebe
00000100: c216 d13d 3526 5a3e 30c8 e5bb ddfd 4e3e
00000110: 170f 2ebc 3f75 b03d d1c3 c7be 4f86 8abe
00000120: 8130 95be e743 26be b764 a43a 0c94 9fbc
00000130: a06c b33e 5885 dbbe 370d 88be e567 2b3e
00000140: a081 12bc 5f56 24bc ba3a 25be 09af 16be
00000150: 35f4 85ba ba5a e33a af55 523b a045 f73d
00000160: 547d 8f3d 8f4e b13c aee3 aa3d 13a0 90be
00000170: a139 8a3e 4140 193e f4e2 e0ba f05b 5936
00000180: d8c9 cfbe 877b 2dbe 66c6 35bd 48e0 7ebe
00000190: ca92 a7bb 9d5c 05be 8bd9 d5bd 3896 903d
000001a0: e7f2 6cbe 6493 2dbe 1a71 bfba ede1 cabb
000001b0: 4d9b 87be 6888 3b3e 6f33 b63d 6113 8d3e
000001c0: 3c49 813a 5203 553b 371c 953e bcd5 a3be
000001d0: c931 bd3e 999f 093e feab 5dbc 917a 6a3d
000001e0: 0bb8 c9bb 4c1e bebb 70aa f4be c66c 743d
000001f0: 868d 1b3c 5e21 39be ddf9 2abc d852 8abb
00000200: 1fa9 58bc fc9b bebe 30bf 8bbe 1c20 5c3e
00000210: 6050 133e eaf7 643e 1d39 80be a59f b3be
00000220: 709e a1bc 29e9 6cbe 5e74 423c c9a7 883b
00000230: 957e bc39 4c93 a53d d5ad 103e db14 c1be
-0.2890499 0.043114018 0.18079694 -0.19510463 0.031740732 -0.3674538 -0.29644746 -0.22167669
0.022182811 0.199759 -0.3667446 0.3067379 -0.20185737 -0.34786654 -0.28560174 0.026127731
0.013670068 -0.042984594 -0.0071874075 0.015097006 -0.26361308 -0.34619272 -0.3504558 0.40352765
-0.29633734 -0.3512575 0.012750795 0.0016747612 -0.028863806 0.06935121 -0.016136011 0.013452415
-0.077103004 -0.29643074 -0.012637588 0.057207514 -0.087347634 -0.10947338 0.0036231813 -0.01625379
0.40528187 0.22429736 0.026461845 0.24165021 0.15921402 -0.02503464 -0.031087173 -0.03982509
-0.07649595 0.018237382 -0.043510545 0.30968124 0.45528728 0.24150711 -0.14983341 0.23861486
0.006020274 -0.0044942535 -0.34354234 0.3120492 -0.1446136 -0.014397132 0.021370143 -0.27734968
0.10209419 0.21303637 -0.0070123896 0.20214029 -0.010623715 0.08616113 -0.39016584 -0.27055594
-0.29138568 -0.1623684 0.0012542222 -0.019479774 0.35043812 -0.4287517 -0.26572582 0.16738851
-0.008942038 -0.010030358 -0.16135684 -0.14715208 -0.0010219874 0.0017345764 0.0032094528 0.12073827
0.07006326 0.021643905 0.08344208 -0.28247127 0.26997092 0.14965917 -0.0017157481 3.2389034e-06
-0.40583682 -0.16941653 -0.04437866 -0.24890244 -0.005113934 -0.1302361 -0.10441884 0.07059902
-0.23139535 -0.16950756 -0.001460585 -0.0061914832 -0.26485673 0.18313754 0.08896529 0.27553847
0.0009863744 0.00325032 0.2912309 -0.31999004 0.36952046 0.13439788 -0.013529776 0.057245795
-0.006155973 -0.0058019515 -0.47786283 0.059674047 0.009494191 -0.18079135 -0.010435549 -0.0042213015
-0.013223915 -0.37228382 -0.27294302 0.21496624 0.1438613 0.22360197 -0.25043574 -0.35082737
-0.01972887 -0.23135819 0.011868564 0.004170392 0.00035952465 0.08084735 0.14128812 -0.37711224

embedding.bias f4 [72]
00000000: 56a9 84be 24f6 e53d 91f5 983d 72b3 0dbc
00000010: 5bac 72be eb2b ba3d 5e01 74bd 29b4 b0bd
00000020: a19e 48be 4540 a43d fdf7 513e 6bc6 33be
00000030: 0a4b aa3d a10f 3e3e e0db 3a3c 6f44 8e3e
00000040: e00f d13d 13a8 02be 1edf d6bd 1209 32be
00000050: a603 5bbd 0871 28be ea60 e6bd 5f25 793b
00000060: 507e d2bc 982a 4b3d 947e 863d ddbb e9bd
00000070: c955 2b3e e14a 1cbd b947 b83d a4ab ddbd
00000080: 046c 02bd ca38 83bd 16a2 65be f08b dcbd
00000090: 7364 4e3b 5695 383e 36bc 703e d11e 813e
000000a0: 4261 283e 9aa4 09be 04da 51bd a643 ef3d
000000b0: a9d6 cd3d 8ff2 443c 4f7a 273e d86f 20bd
000000c0: 7847 b9bd bd9c f2bd 0ae8 373e 878b 793d
000000d0: d28b 9e3e ecde 6dbe 6c2e 1abe da4a 643e
000000e0: a5bc 973e 5aed 393e ff0b 283e 1730 813d
000000f0: 51e8 47be 51b2 873d 57e2 5d3c 0dc4 2ebe
00000100: af34 40be 3972 073e 6387 38be 116a 8f3e
00000110: 8db2 a7bc 1e72 5bbd 609f bbbd cc0e 32be
-0.25910443 0.11228588 0.07468713 -0.00864874 -0.23698561 0.09090408 -0.059571616 -0.08628113
-0.19591762 0.08020071 0.20504756 -0.17556159 0.08315094 0.1856065 0.011404961 0.27786586
0.10208106 -0.12759428 -0.10491775 -0.17386273 -0.053470276 -0.16449368 -0.11248954 0.003801666
-0.025694996 0.049601167 0.065671116 -0.11412785 0.16731943 -0.038157348 0.08998055 -0.108237535
-0.031841293 -0.06407316 -0.22425112 -0.107688785 0.0031492978 0.18025717 0.23509297 0.25218824
0.16443351 -0.13441697 -0.051233307 0.11682825 0.10050709 0.012020721 0.16355251 -0.039169163
-0.09046835 -0.11846302 0.1795961 0.06092408 0.3096605 -0.23229569 -0.15056771 0.22294179
0.29636112 0.18156949 0.16410826 0.063080005 -0.19522215 0.06625808 0.013542733 -0.17066975
-0.18770097 0.13227166 -0.18020396 0.2801061 -0.020470882 -0.053575628 -0.09161258 -0.17388457

LGEBs.0.phi_e.0.weight f4 [72, 146]
00000000: b41c d1bc a4f1 5fbc 366d 1b3d 6bc9 c7bd
00000010: 7e1c 49bd 28c2 34bd 5bcc 80bd bd79 59bd
00000020: c669 253d b333 9c3d 275c 4ebd 2e03 65bd
00000030: 3447 95bd d185 433c 2609 02bd 0411 8d3d
00000040: b731 5fbd 6d67 6dbb 1ebc 39bd 7c88 533d
00000050: 90a9 6e3d b131 bc3c 5fd6 053d 4eb1 0f3d
00000060: 8fd5 9a3c 5c11 e03c 5d33 8d3d 5a30 4f3c
00000070: 07b4 123c b7f2 f7bc a6b9 87bc 3d2a 80bc
00000080: c5f2 143c 8d40 f2ba 0b65 293c e88e 32bd
00000090: 838e 8abd cdad 15bd 5256 313d 03f0 24bd
000000a0: ccca ebbc efcd 59bd 0e36 2dbd 4e30 45bd
000000b0: d6e5 4cbc d16b 87bd e83a 1a3d 10d7 433d
000000c0: 51a8 96bd e18c 1dbd 25c8 9bbb 2b57 c33c
000000d0: 7582 4cbd 82f4 053c eb5c 52bc 80db 8f3c
000000e0: 5b27 56bd 0fd5 6b3d 412c 213d c34f edbb
000000f0: 3f74 16bc a1d9 d0bc d400 713d ae65 853d
00000100: 3d62 1cbb 52d6 7cbd d8ab be3c 677e 8fbd
00000110: 025f b43b c691 ceba e781 4dbc 0e82 7fbc
00000120: 3595 d23e d89f 50bf dfb6 4ebf 61ec f9be
00000130: bc64 313f c716 523f 0629 23bf b714 c03e
00000140: 157d 1cbf 82c3 813e 735e 1ebf f161 563f
00000150: 1d09 1ebf 9eb9 05be 81d6 263f 7268 18bd
00000160: 6586 2dbf 5f33 143f a3c8 05bf 2917 a7be
00000170: 0195 d23e ac2a 2d3f f317 cfbe cfd9 3cbe
00000180: 509a 0a3f 0187 463f 6e2c c03e 34eb 4d3f
00000190: bd03 1dbe 8396 523f 0cde 173e 46b4 38bf
000001a0: 4cc2 1d3f 8d51 333f 496f 2d3f 2834 e1be
000001b0: e640 d1be 5b18 56bc c8aa 58bf 40f2 483f
000001c0: e69c b8bd 8141 0bbf e86b b83d 7ff8 313f
000001d0: af33 0cbe 7aab 56bf e6d7 b73e 8f70 753d
000001e0: ab83 a5be 8efa 2dbf 6d48 21bf 2695 2b3f
000001f0: f546 c9be 6750 023e 6067 473f d065 323f
00000200: 468f 673e cf53 53bf e043 813e babc 223f
00000210: 5662 2e3e d7cc d53e f450 3cbf fd53 6d3d
00000220: 77a2 4abf 5d79 513f a0dc 0e3f b8b1 1dbf
00000230: e681 31bf c236 89bd 4991 213f 2ff2 54bf
00000240: 10d6 aa3d ac52 99bd fc4e 2b3e 5281 0cbe
00000250: 107e 663c fd94 6d3e 18a0 01be 9349 463e
00000260: d179 593e 8357 3d3e d3cb 563d 5334 b43a
00000270: b559 6f3e 134c 423e 8f87 803e 755c 043d
00000280: 3d39 41bd dbe2 d33d 91e6 493e 2b59 ebbd
00000290: 1e6c 293e 6e0d f53c 8bc9 84be aca9 1dbe
000002a0: 263d 36be db25 e33d 08c2 dc3d c9d0 a8bc
000002b0: 4991 6abe 48b8 173e fce1 f6bc db4f 4b3e
000002c0: 98f8 393e 4930 f23d 14f9 25be 4ac4 15be
000002d0: 502e c7bd 3cc1 663e 46cf 523e 170d 6cbd
000002e0: 84b7 3bbe 8a0b 553e 2b16 07be c7c8 753e
000002f0: 8df5 523c c3b7 c5bd c444 01be f0b8 3bbd
00000300: 0752 5dbe 5129 a5bd c106 663e 4d43 463e
00000310: 9d33 fd3d 5be5 173e 6820 443e 5e1e bebb
00000320: 36ae 2e3e 71fa 27be 2ec9 9fbc e0ce 3bbe
00000330: a2a7 79be c99b ecb9 f3ef 473d 592f 703e
00000340: 9800 e33c 8602 b13c f302 033e 35fc 293e
00000350: 649f 3ebe 19b9 5b3e 0058 0c3e 930a 6d3d
00000360: fbfc c7bd bce0 e6bd 0da9 c7bd 7671 2c3d
00000370: 5ce6 57bd 54e2 26be 801e ce3d d676 8abc
00000380: 3b28 15be 2778 cfbd 2093 97bc 2ac1 84bd
00000390: 1791 27be 14df 023d 060a 11be 0de4 91bc
000003a0: 1cff 893c aed8 95bd da7e f3bd eff6 493d
000003b0: a035 0bbe b67e 363d 6534 1f3e dc6a ff3d
000003c0: 4bee fe3d 4efc 12be 1d95 f3bd 17f9 ac3d
000003d0: a967 253e d9d9 7b3c 1b2f 573d ae39 d2bb
000003e0: 83a0 1dbe 86b4 b1bd 1b7b eb3d 4ddb 8c3d
000003f0: 0546 843d bb40 0cbe 6e04 32be 3386 8e3d
-0.025526382 -0.013668451 0.03794595 -0.09755214 -0.049099438 -0.044130474 -0.06288978 -0.053094614
0.040384077 0.07627048 -0.050380852 -0.055911236 -0.072889715 0.01193376 -0.031747006 0.06888011
-0.05449077 -0.0036224977 -0.04534542 0.051643834 0.058267176 0.022972913 0.032675143 0.0350812
0.01890066 0.027352028 0.068945624 0.012645805 0.008954055 -0.030267103 -0.016568016 -0.01564514
0.009091084 -0.0018482372 0.010339032 -0.043593317 -0.06765463 -0.036542702 0.043295212 -0.040267956
-0.028783225 -0.05317491 -0.04228788 -0.04814177 -0.012505969 -0.06612361 0.037653834 0.04781252
-0.073563226 -0.03846443 -0.0047540837 0.023845276 -0.0499291 0.008175971 -0.012839536 0.01756072
-0.052283626 0.057576235 0.039348844 -0.0072421744 -0.009182989 -0.025494399 0.05883868 0.065135345
-0.0023862266 -0.06172783 0.0232753 -0.07006531 0.00550449 -0.0015759997 -0.012543178 -0.015594972
0.4112946 -0.814939 -0.8074779 -0.48813155 0.69294333 0.82066005 -0.6373447 0.37515804
-0.6112836 0.25344473 -0.6186287 0.83743197 -0.61732656 -0.13059089 0.65171057 -0.03720898
-0.67783195 0.57890886 -0.5225927 -0.32634857 0.41129306 0.6764324 -0.4044796 -0.18442462
0.5414171 0.7754975 0.37533897 0.80437016 -0.15333457 0.8226091 0.14830798 -0.72150075
0.616246 0.7004631 0.6774793 -0.43985105 -0.40869826 -0.01306733 -0.8463559 0.78494644
-0.09014301 -0.54396826 0.090049565 0.695198 -0.1369159 -0.838554 0.35906905 0.059921797
-0.32327017 -0.6796044 -0.6300114 0.6702446 -0.39311948 0.12725984 0.7789211 0.69686604
0.22613248 -0.82549757 0.25247097 0.63569224 0.170297 0.41757843 -0.73561025 0.057941426
-0.7915415 0.8182581 0.558054 -0.615993 -0.69338834 -0.06699897 0.6311231 -0.8318204
0.083416104 -0.074864715 0.16729349 -0.13721207 0.014068142 0.23201366 -0.12658727 0.19364004
0.21237876 0.18490414 0.052440476 0.0013748504 0.23374064 0.18974333 0.25103423 0.032314736
-0.047173727 0.103460036 0.1971686 -0.11491617 0.1654515 0.02991363 -0.25935015 -0.15396756
-0.17796764 0.11091205 0.10779196 -0.020607369 -0.22906984 0.14816391 -0.030137055 0.19854681
0.18161237 0.11825616 -0.16208297 -0.1462566 -0.0972563 0.2253465 0.20586881 -0.05762967
-0.18331724 0.20805183 -0.1319205 0.24002372 0.012875927 -0.096541904 -0.12623888 -0.045830667
-0.21613322 -0.08064521 0.22463514 0.1936161 0.1236336 0.14833586 0.19152987 -0.00580196
0.17058644 -0.1640413 -0.01950511 -0.18340635 -0.24380353 -0.00045129497 0.048812818 0.23455562
0.027710244 0.021607649 0.12794094 0.16600116 -0.1861549 0.21457328 0.13705444 0.057871412
-0.09765049 -0.112733334 -0.09749041 0.042100392 -0.052709922 -0.16297275 0.10064411 -0.016902369
-0.14566128 -0.10130339 -0.018502772 -0.064821556 -0.16363941 0.031951025 -0.1416398 -0.017808938
0.016845278 -0.07316719 -0.118894294 0.04930776 -0.13594675 0.044554435 0.1554733 0.12471554
0.124477945 -0.14354059 -0.118936755 0.084459476 0.16152824 0.015371763 0.052535158 -0.0064155674
-0.15393262 -0.0867701 0.1149809 0.06877766 0.06458668 -0.13696568 -0.17384502 0.0695919

LGEBs.0.phi_e.1.weight f4 [72]
00000000: d7db 073f ee4e cb3e 261a 723e 2837 0d3f
00000010: 2b7d f23e 56b6 823e 9ec7 253f 5db1 603e
00000020: af64 2c3f 0592 1b3f e811 cf3e 38a1 153f
00000030: 8c28 b83e a8f3 193f 92c0 a93e 1c1c 1b3f
00000040: 9261 103d 3c4c e53e 98ad ff3e 6229 003f
00000050: 247e 3a3e 7389 c23e ad2e 003f fcb4 0b3f
00000060: 1147 d43e 83a1 033f b542 073f 9001 d03e
00000070: 811a 463e 3613 d03e 0afb 0f3f bc15 733e
00000080: 9061 e43e 7803 fa3e 5cdc 093e 8e27 033f
00000090: 68e5 5d3e e2f0 4a3f 8011 ae3e 4431 b73e
000000a0: d8f1 513e e7d0 0c3f 61e5 f93e d12e 103f
000000b0: cb06 023f eab6 9e3e b587 c53e bb00 583e
000000c0: 47c0 093e afa6 9e3e 0fd9 d53e 2332 ac3e
000000d0: 13bf 403e d23b e83e eb9a d93e 34e0 b63e
000000e0: 3044 213f 9eab 093f 906d da3e 3367 b03e
000000f0: ae41 ce3c d308 ef3e 2a0e 5c3e 1655 603e
00000100: ac1a c63e 5cf7 fb3e 8382 c73e 64a9 823e
00000110: 24ba 2c3f 942c f93e 566a 0c3f ca3e b03d
0.53069824 0.39708656 0.23642787 0.55162287 0.4736112 0.25529736 0.64757717 0.21942659
0.6734113 0.60769683 0.4044335 0.58449125 0.35968435 0.60137415 0.33154732 0.60589767
0.0352493 0.44784725 0.4993713 0.50063145 0.18212181 0.3799549 0.5007122 0.54573035
0.4146047 0.5141832 0.5283616 0.40626192 0.19346048 0.40639657 0.5624243 0.2373876
0.44605684 0.4883077 0.13462967 0.5123223 0.21669543 0.7927381 0.33997726 0.35779774
0.20502412 0.5500626 0.48807815 0.56321436 0.50791615 0.30998927 0.385801 0.21094029
0.13452254 0.30986544 0.41767165 0.33632 0.18822889 0.4535814 0.42501006 0.35717928
0.6299467 0.5377749 0.42661715 0.34453735 0.025177803 0.4668642 0.21489778 0.21907458
0.38692224 0.49212158 0.3896676 0.2551986 0.6747153 0.48666823 0.54849756 0.08605726

LGEBs.0.phi_e.1.bias f4 [72]
00000000: 8da6 fabb 43f5 ce3c f470 0ebe 4cf8 0c3e
00000010: 6218 e5be 2dca 39bd 9a2d 563e f21c d4bd
00000020: 8d2d 863d ed3b 173e 1061 a9be d522 5b3d
00000030: be47 0dbe 90a1 53bd abcb 8bbc 64c8 2e3e
00000040: dc3d 1abe 0f56 b9bc 8556 f03d 0fd9 2d3b
00000050: 3ec4 02be a403 13be 04a8 b23d 72ae 123e
00000060: ddf2 d5be b10a efba b971 26bd 6abc a8be
00000070: 20d2 37be 6b6c 1abc b74a 0e3e d9d9 3e3a
00000080: 1036 d73d a5f5 86bc 1267 fcbd 9807 203c
00000090: 4193 ccbd 45c7 083e 9e54 99be 1a17 bebc
000000a0: 2cc6 d03d 3ac5 81bd ddb7 423d d654 c9bc
000000b0: 1196 203d 7423 19be 3562 23be 86ac 68be
000000c0: 156d c23a 654d 7abd 206f cdbe e370 bfbd
000000d0: 0eb5 9fbd d068 e63c bfb5 123d edbc 13be
000000e0: bb82 603e d045 e5bc 0a4e f9bd 6324 7db8
000000f0: 0880 11be 95e8 6abd 63b3 eebd 137a a0bd
00000100: b483 14be fe7a da3d cf34 55bd 7c34 9dbd
00000110: c41f 793d 4558 2abc a8cd f73c 806e 12be
-0.007649249 0.025263434 -0.13910276 0.13766593 -0.44745165 -0.045358825 0.20915833 -0.103570834
0.06551657 0.14768954 -0.33081865 0.053500015 -0.13796899 -0.05166775 -0.01706489 0.1706863
-0.1506266 -0.022624044 0.11735252 0.0026527082 -0.12770173 -0.14356858 0.08723453 0.14324358
-0.41786852 -0.0018237439 -0.040635798 -0.3295625 -0.1795125 -0.009425263 0.13895689 0.00072803866
0.105083585 -0.016474554 -0.123243466 0.0097674355 -0.09989024 0.13357265 -0.2994737 -0.023204375
0.10194048 -0.06336446 0.047538627 -0.024576586 0.039205614 -0.1495493 -0.15955432 -0.22722062
0.0014833534 -0.061108965 -0.40123844 -0.09347703 -0.07798205 0.02812615 0.035817858 -0.14427538
0.2192487 -0.02798739 -0.12173088 -6.035379e-05 -0.14208996 -0.057350714 -0.11655309 -0.07835784
-0.14503366 0.1066799 -0.052052315 -0.07676026 0.06082131 -0.010397022 0.030249432 -0.14299965

LGEBs.0.phi_e.1.running_mean f4 [72]
00000000: 982b 0bbf 2f4d 0fbe de76 c83e d108 a93c
00000010: 0215 ebbd 1d75 883e a61f 3b3e 7d60 61bc
00000020: 31fb a7bc d6e0 763d 1c47 21be a1c9 67bd
00000030: 77d9 ee3e 7acc a3be 1c18 b53e 2388 f33d
00000040: ddac a23e c160 e2be 40e0 9a3e 99a6 07bf
00000050: ece2 26bd 0fc2 9fbe 1f6b d0bd ea3c a2be
00000060: 2fd2 67bb 68a5 debe f704 933d 6be4 cf3c
00000070: 0df0 e63e 09d0 933e 5aad b1bd 9124 6c3e
00000080: efbc 3abe ff18 17bd d257 99bd b9d1 febe
00000090: 4e02 c23e b6b6 b83d 0fb2 1abd 7e1f debe
000000a0: b84b 12be c232 d2bd 7a8e 803d 496f e2be
000000b0: 2bc4 463e 0365 a53b 23df 6abe a258 0bbe
000000c0: 998f cbbe 453f d8be b365 49bd d2bf 3d3e
000000d0: 2d2b edbc 9dac f33d 8c5a b9bd 59ea 8abe
000000e0: cfe9 bdbe c9ff dfbe 4019 4bbe 5d0d a0be
000000f0: cb54 e53d fcdb 8e3d 3a33 073b 96d7 45bc
00000100: 889c 06be 76f2 3fbe 3adc 02bc 51d1 ce3d
00000110: 32c7 9b3d 981c e33a 16ae ebbe 1f25 60bd
-0.54363394 -0.13994287 0.39153188 0.020634087 -0.11478616 0.2665185 0.18273792 -0.013755915
-0.02050552 0.060273014 -0.15749782 -0.056588773 0.46650288 -0.3199194 0.35369956 0.118912004
0.3177251 -0.44214442 0.30249214 -0.5298858 -0.040743753 -0.31202742 -0.10176682 -0.316871
-0.0035373082 -0.4348557 0.07178681 0.025377473 0.4510502 0.28869656 -0.08675642 0.23060824
-0.18236135 -0.036889073 -0.074874535 -0.4976938 0.37892383 0.09019224 -0.037767466 -0.43383402
-0.14286697 -0.102635875 0.06277175 -0.4422553 0.1941077 0.005047442 -0.22936682 -0.1360803
-0.39757994 -0.4223577 -0.049169254 0.18530205 -0.028951252 0.11898158 -0.090504736 -0.27131918
-0.37092444 -0.43749836 -0.19833851 -0.31260195 0.111978136 0.069755524 0.0020629899 -0.0120753255
-0.1314565 -0.18744835 -0.007987076 0.10098518 0.07606353 0.0017327247 -0.46031255 -0.0547229

LGEBs.0.phi_e.1.running_var f4 [72]
00000000: add5 863f 6a48 043e 52ed a53e 742e a53e
00000010: 877a 983e 6d8b 223e 68b4 f93d 76fc ef3c
00000020: 398e 9d3e 02ee a93e b353 d53d 0c18 9b3e
00000030: 5ada 753e 7832 9a3e e2a5 2e3e a4a3 a03e
00000040: 7c55 213e 7b34 653e 6bb2 173e 7dcc 6b3f
00000050: 1872 973c 8692 fa3e c004 b63e 6f42 b03e
00000060: 1488 aa3e df00 5e3f 390f 6e3e 467d 013e
00000070: aae6 283e f2c2 f43d 10cb 233f ddda 9f3e
00000080: 80ad a03e b11f a43e a4bc df3c f385 763f
00000090: 7344 203e 886f f23d e684 023e c068 4a3f
000000a0: 3d2f 983e 78b1 8d3e 70f3 1b3e 3c77 633f
000000b0: 0215 0a3e de14 0d3e 39da a53e e6e7 3b3e
000000c0: a281 b13e 7f89 4e3e 99eb 9b3e fa1b a13e
000000d0: 92ae 263d 24bd 563e 8d93 8b3e 229e 843e
000000e0: 9ac3 0b3f 975c 5a3f 851d f03d cab5 7a3f
000000f0: edfb 643e e6a1 633e 280e 523c a61d 3c3d
00000100: ea70 f23e b2ce 363e ca86 273e c20e 7e3e
00000110: 017a d63e 9cc3 b33e 16cc 6a3f 09a1 913d
1.0533959 0.12918249 0.32407624 0.32262003 0.2978098 0.15873499 0.12192613 0.029295187
0.3077257 0.33189398 0.10416355 0.30291784 0.24009076 0.3011663 0.17055467 0.31374848
0.15755266 0.22383301 0.14814155 0.921089 0.018487021 0.48939914 0.355505 0.34425685
0.33306944 0.8672008 0.23247994 0.12645444 0.16494241 0.11951245 0.63981724 0.31221667
0.3138237 0.3205543 0.02731163 0.9629814 0.15651111 0.11837679 0.12746009 0.79066086
0.2972354 0.2767446 0.15229583 0.8885381 0.13484576 0.13777491 0.32393053 0.18350181
0.34669214 0.20169638 0.30453184 0.31466657 0.040693827 0.20970589 0.2726101 0.25901896
0.5459534 0.8529753 0.117243804 0.9793364 0.22361727 0.22229728 0.012820758 0.045926712
0.47351772 0.17852286 0.16360012 0.24810317 0.41889957 0.35110176 0.9171766 0.07110793

LGEBs.0.phi_e.3.weight f4 [72, 72]
00000000: 41e9 8dbe 26e6 763d a89b 74be 8191 15bf
00000010: 73b4 3e3e 8ab3 c43d 7424 0dbd d650 b9bc
00000020: f050 8bbf 7176 03bf 1c0a 083e e4a1 84bf
00000030: f22f 6f3e 0cda 6a3e 293b 403d ba58 e8be
00000040: 914e 933d db29 abbb b4ae a13d 1eb1 9abe
00000050: 3dc8 9b3d 0745 d23d 077f dabe 56b4 853d
00000060: c762 5b3e c2ef 8abe 9ea7 dabe 87c8 c73d
00000070: 2c8a 3d3e ad5d c43d 4c4d 92be fcf0 803d
00000080: 17b2 573d bfc1 adbe ad2b e0bc f802 94be
00000090: 5c58 bc3d 4e45 8cbc 3094 e23d 83fd 97be
000000a0: a35a dbbd fce4 c6be 1fd9 c5be 25d7 aabe
000000b0: e1a6 10bd 7e0f b9be f24f 4f3e 2c21 8cbe
000000c0: 20f7 87bd 6b5c 58bd 4376 803e acb3 343e
000000d0: 5450 02bc e732 13bd 5de4 a5bd 722d 893e
000000e0: 5d4c e43d 9c1a acbe 3eaf d13c 98ea 7ebe
000000f0: f44d 273e 37c1 cdbe 5c1d 063c 3ab0 6dbd
00000100: 2f64 f33d bb1a 92bd 02ed a03d ccf9 053e
00000110: c792 eb3d 78bc 9dbe 774f 98be 595e bc3c
00000120: d7e8 913d 89e0 dcbe d654 8d3d ac2a f4bd
00000130: ef6b 8d3b c691 98be 17f8 91be ebda a73c
00000140: d52e bcbe 3322 1abe 33ee d2bd 5d31 a2be
00000150: 6a75 af3d 25fe 38bd f983 96be a883 cabd
00000160: 74ed 0bbe 8ef7 a2be cdc6 de3e 0e50 703d
00000170: cdee 02bc eaab 913d fd03 9dbe 992a 08be
00000180: b968 f1bc 422e ce3d 41ab 90bd 02aa f6bd
00000190: 289e f6be 6db4 16be 784f 09be c35e c4be
000001a0: 5ba0 27be e1d4 81be 606e 233c eea4 3c3d
000001b0: d542 6cbe a2d9 0ebd c1b1 26bd a75d cf3d
000001c0: 5183 a23d bbde 0abe 4828 c7be 8a55 db3d
000001d0: ee20 d5be 393b d9bc 9c1a 06bd 532a e1bd
000001e0: 111f 4c3e 6009 98be 323c 17bc c7c3 95be
000001f0: 27f4 24bc ab41 92be 07cd 2dbd de2f 703b
00000200: 809f 5ebe e30b e53d e049 babe 2021 7a3d
00000210: 910d c6be 4909 3e3d 3ec6 7dbc 129c 8dbc
00000220: 0d84 893d 9eee a6bd b425 63bd a07e cdbe
00000230: a7e3 d9be af63 96be 0f8b 343d fbed d9bd
00000240: e73e bebc 01f7 43bd 3940 113d 3647 e9bc
00000250: f624 213c c0dc 87bd bc4f 423c f9a5 bf3c
00000260: 7028 853c 9efa 94bb 9ffa 1abd f240 373c
00000270: 67da f9bc 4250 e8bc 6580 fe3a c755 2bbd
00000280: 33d5 253b ff06 013c b8de 0dbd d396 9c3c
00000290: 3798 acbc 0dee dfbc c923 f53c 7161 3d3c
000002a0: 2489 fbbc d0ed 223c b6c5 8b3c 5e1f fdbc
000002b0: 61e2 29bd 49ff 40bb 9af8 f43b ec0d c9ba
000002c0: 9bfb 21bd 9261 bfba be02 aa3c c25b 0a3d
000002d0: e995 91bd 85c8 0abd 2cf2 b0bc 817c ed3c
000002e0: c7f4 51bc 6194 47bc 08ac f1bc 6abd 0dbd
000002f0: 7a5a 0bbd 2d2e df3b 0e9a 803c c2fc 02bd
00000300: 669f 4abc c75e 7abc c15d b4bc 7137 21bc
00000310: 66ab ceba 2539 56bc 485b a3bc 0312 1fbd
00000320: 0580 d2bc 4888 f6bc 5aa2 77bc 6019 15bd
00000330: 2977 67bd d0d5 cf3c 724e 74bc 6f37 8ebb
00000340: 1340 24bd 9cf7 243c edc3 20bd 3fdb 09bd
00000350: 14f6 d1bc 4c91 af3c 6f8c 12bd 57a1 eb3c
00000360: 865e 23be 0f8c a1be cbf7 a1be 35e9 ac3d
00000370: f74f afbe 06b5 a83d fccd 913e 12a6 10bd
00000380: eef8 59bd 6516 963d 766d aa3c f60e 71bd
00000390: dfa1 023e 8c91 12be 06ed 803e 4f26 3e3e
000003a0: 5f33 39be 1375 6fbd a6db 423e 8664 61be
000003b0: 44d4 44bd a103 edbd 3a95 cabe 8e4b c5be
000003c0: 1469 b7be 8fe9 9abe 5c89 70bd 9829 80bd
000003d0: e500 4abe 7047 7b3e ed18 a63c 9dee 543e
000003e0: 673a bebe 80fd 31bd ac4b fd39 0955 47be
000003f0: 2204 1ebd 4978 a93e 7268 89bd 5a41 39be
-0.2771702 0.06027808 -0.23887503 -0.58425146 0.18623523 0.09604557 -0.034458593 -0.022621553
-1.0884075 -0.513526 0.13285106 -1.0361905 0.23358133 0.22934741 0.04693142 -0.45380193
0.0719272 -0.0052234954 0.0789465 -0.30213255 0.07606552 0.10267072 -0.4267504 0.06528537
0.214244 -0.27136046 -0.42706007 0.097550444 0.1850974 0.0958818 -0.28574598 0.06295964
0.052660074 -0.3393688 -0.027364576 -0.28908515 0.09196541 -0.01712289 0.11063421 -0.29685602
-0.10710647 -0.38846576 -0.38642213 -0.33367267 -0.035315398 -0.36144632 0.2024534 -0.27369058
-0.06638932 -0.05282251 0.25090227 0.17646664 -0.007953722 -0.035937216 -0.081001975 0.26792485
0.11147378 -0.3361405 0.025596257 -0.24894178 0.1633833 -0.40186474 0.008185711 -0.05802939
0.11884343 -0.07134005 0.07857706 0.13083571 0.11502605 -0.30807853 -0.29748127 0.022994207
0.07124489 -0.43140057 0.06900947 -0.119222015 0.004315845 -0.29798716 -0.2850959 0.02049013
-0.3675448 -0.15052108 -0.10299339 -0.31678286 0.08567317 -0.045164246 -0.29397562 -0.09888393
-0.136648 -0.31829494 0.43511048 0.058670096 -0.007991505 0.07112868 -0.30667105 -0.132975
-0.029468881 0.10067417 -0.07063914 -0.12044145 -0.4816754 -0.14717264 -0.13409221 -0.38353547
-0.16369765 -0.25357726 0.009975046 0.046055727 -0.2307237 -0.03487552 -0.040696863 0.10125285
0.07935203 -0.13561527 -0.3889792 0.10709675 -0.41626686 -0.026517497 -0.03274022 -0.10994401
0.19933726 -0.29694653 -0.00923066 -0.2925093 -0.010067976 -0.28565726 -0.042431857 0.0036649625
-0.21740532 0.11183908 -0.36384487 0.061066747 -0.38682225 0.046395574 -0.015489159 -0.017286334
0.0671464 -0.08150981 -0.05545588 -0.4013567 -0.42556497 -0.29372928 0.04407793 -0.10641094
-0.023223354 -0.047842983 0.035461638 -0.028476339 0.009835472 -0.066339016 0.0118598305 0.023394572
0.016254634 -0.0045464775 -0.037836667 0.011184918 -0.03049965 -0.028358582 0.0019416927 -0.04182985
0.0025304079 0.007875203 -0.03463623 0.019114887 -0.021068675 -0.027335191 0.02992429 0.011558876
-0.030705042 0.009944394 0.01706205 -0.030898746 -0.041475657 -0.0029449037 0.0074759247 -0.0015339232
-0.03954659 -0.0014601222 0.02075326 0.033778913 -0.07108671 -0.033882637 -0.021599852 0.028990032
-0.012814707 -0.012181372 -0.029500976 -0.034604467 -0.034021832 0.0068109245 0.015698459 -0.03197933
-0.012367105 -0.015281386 -0.022017362 -0.009839878 -0.0015767633 -0.013075148 -0.019940987 -0.038835537
-0.02569581 -0.03009428 -0.015114391 -0.036401153 -0.056510124 0.025370508 -0.014911281 -0.0043401043
-0.04010017 0.0100688 -0.03924935 -0.033656355 -0.025630035 0.021431588 -0.03577846 0.028763456
-0.15954027 -0.3155217 -0.31634364 0.08442918 -0.34240696 0.082376525 0.28477466 -0.035314627
-0.053215913 0.0732849 0.020804148 -0.05885216 0.12757061 -0.14313334 0.25180835 0.18569301
-0.18086003 -0.05846126 0.19029102 -0.22011003 -0.048053995 -0.11572958 -0.39566976 -0.38534206
-0.35822356 -0.30256316 -0.058724746 -0.062579334 -0.19726904 0.2453897 0.020275557 0.20794149
-0.37153932 -0.043454647 0.000483123 -0.19466032 -0.03857816 0.33099583 -0.067093745 -0.18091336

LGEBs.0.phi_e.3.bias f4 [72]
00000000: a438 fdbe 9cf6 9fbd d1d2 29bd 4be6 8f3e
00000010: aa6a 33bd 6555 28bd 1deb a1bd 3c15 51be
00000020: ef22 48bd 6a65 76bd 5ad5 dfbc 9458 953d
00000030: cb73 823a 27ce 69bc a142 75bd 403d 9abe
00000040: 60be 23be a548 cfbd 14a5 983e 42ea 693e
00000050: cec5 ebbb 55f3 48be 5063 563e a7f0 903c
00000060: 528c 00bc 9a2d 31bd 2fd8 b8bc 0d09 e1bd
00000070: 3349 973e 7f0f 18bd cf7b 23bd f7d2 5cbd
00000080: 92b1 ab3e ee73 a2bd e25b cdbb d098 9bbe
00000090: 3e6c 07bb ffc0 c93d ce5d b93b 053c c6bd
000000a0: 54b4 de3d d2a8 97be 91ba 7c3e fbec 70bc
000000b0: c6da dc3d c605 343e 7ed8 8dbd 2020 32bd
000000c0: 437b bdbd 794b b8bb a924 17bc d3cb 2db9
000000d0: 31a6 bc3d 9f2a 343e 7ef9 4dbc e8f6 25bd
000000e0: 306b f8bd bbca 03bd 9f4c a9bc 239b 84be
000000f0: 8a57 913e abc0 48bc d4b3 cdbd 826f e83d
00000100: 2a7c 6fbd 96a8 fe3d cdd2 9eba 48ad babc
00000110: 6bc7 6c3e f3d3 d9bc 22d8 eebb 6b9e 89bc
-0.49457276 -0.07810709 -0.041460816 0.28105387 -0.043802895 -0.041097064 -0.079061724 -0.20418257
-0.04886144 -0.06015531 -0.027323414 0.072922856 0.0009952722 -0.014270342 -0.059877995 -0.30124855
-0.15990591 -0.10121278 0.29813445 0.22843269 -0.007195211 -0.19624074 0.20936322 0.017692877
-0.007845955 -0.04325638 -0.022564022 -0.109880544 0.29548034 -0.037124153 -0.039912995 -0.05391213
0.33533913 -0.07932268 -0.006267057 -0.30390024 -0.0020663883 0.09851264 0.0056569343 -0.096794166
0.108742386 -0.29620987 0.24680544 -0.014704938 0.10783915 0.17580327 -0.06926058 -0.043487668
-0.09252026 -0.0056242314 -0.009225049 -0.00016574496 0.09211386 0.17594384 -0.012571691 -0.04051867
-0.121298194 -0.03217576 -0.020666419 -0.2589961 0.283871 -0.012252967 -0.10044065 0.113493934
-0.05846802 0.12434499 -0.0012117267 -0.022787705 0.23122947 -0.026590323 -0.0072889486 -0.016799172

LGEBs.0.phi_h.0.weight f4 [72, 146]
00000000: 22ec 1ebd 1cd1 493d 22c0 923d 86f9 26bd
00000010: ab8d d83d bac0 aabd aa50 03bd b2cb b4bc
00000020: c8b1 883a 773f 323e ed0a 23bc f602 39bd
00000030: 5460 aebc 78ff 133e ea00 1bbe 6357 22be
00000040: 319f 62bc 6a76 33bd 1db3 f1bd 73d1 d2bd
00000050: 753c 6d3d f6d1 433d 378e bb3c ae8f 18bd
00000060: 933c 10bd a5a9 9abd 642b ae3c 3878 56bd
00000070: 7e00 ccbd a4a6 83bd d8f5 5ebc 815e 213d
00000080: a62a d03d db4b 1b3d 13dc e6bd 25a5 d0bc
00000090: 1ed1 0dbd 54ed 0b3e f5ed 383d 9104 5ebd
000000a0: 008a 79bb af5f 6bbd 4c43 a13e dca3 243e
000000b0: 1f0d 473d 4316 bb3d f325 563c 6707 f43d
000000c0: 80b9 55bd 651e 6aba 40fb 54bd c3c8 4cbd
000000d0: d0e5 9bbc f885 2ebe 7256 74bd 255d 2c3d
000000e0: fbfe a0bc 0047 853d 7a1d 5f3b 23e7 6e3d
000000f0: 4262 b3ba ae9d 95bc 9888 3b3d 4af5 11bd
00000100: 389c 1c3a c9ce 0ebd 8b96 343d dc7b 18bc
00000110: 7a62 93bd 99fe 563e ba0c 2e3e 7baf 053e
00000120: 1ed1 97be f154 14be 6783 a03c bd2a 46bd
00000130: 3b2b 9dbd e1ab bcbd c142 783c 10da ca3d
00000140: 7d58 393c a349 ba3c c551 92b9 05ab 9e3d
00000150: 05f3 ccbc 693d f43c 757c d43a a656 1ebf
00000160: c614 24bd 5ab0 f13b c449 27be 8ab5 d2be
00000170: 35b9 d8ba 83ed a0be b496 2bbe 56a9 fb3c
00000180: 8ec1 c0bd ba8b e2bb 413a 033c b56b 84ba
00000190: 06cd cebe e0be f33c 983d 103c 4650 863c
000001a0: 9130 353c 1691 8a3c 0246 e33b 44f2 da3c
000001b0: df5d 0abc e164 be3b 974b 66bf 0e2f dc3c
000001c0: c55f 603c 5960 87be 8a0b 60bd 53e2 e7bb
000001d0: eb82 e0bd a4d5 cfbc 9d80 b83d f86a fdbc
000001e0: 9ef2 aa3b 978d 0abc 8753 2e3c a274 c2bc
000001f0: 1580 5f3c 8841 55bd cc01 88bc e407 62bb
00000200: c14d d43b 20c2 80bc 3387 c23b 0bd5 1ebf
00000210: b756 a4bc 6e78 92bf 2753 ab3c cacc 9fbf
00000220: 3cb4 e5bc 6235 933d fb3d a53c 21a3 703c
00000230: a7c7 1ebd 4c4e 833c 0653 90bb ab72 1c3b
00000240: 797d 713d 1e12 65be 6b44 e63d ccde 9abd
00000250: 6463 9ebd 5566 223e 8c72 a9bd f6e2 fd3d
00000260: 3276 563e b593 0c3e 35cd 88bd d5ef 123d
00000270: a399 333e 3981 ae3d 968c 473e 4ada a5bd
00000280: 30ba ccbc b0b5 e1bd 0692 163e 1364 443c
00000290: 8a5a d63d 983d 9dbd 75c5 31be 297e f8bd
000002a0: ce2f fdbd ac6d 043e ba8a ef3d bcbc 9e3d
000002b0: e1b1 15be 61c2 d03d cb04 d1bd ed8b c63d
000002c0: 1e9b 043e 811e b23d 1150 14be d140 bebd
000002d0: 6975 ba3c 0f75 343e 5ba1 e43d daf7 49bd
000002e0: e818 a8bd 7781 d23d 7792 393c 9edc 283e
000002f0: 8df1 973e 5333 a23d eaed 17be 83d8 96bd
00000300: 790b 39be 893c e63d 7252 143e 102e 6a3e
00000310: ff84 ee3d f4f1 0b3e e8bb 043e b27e 1cbe
00000320: cf5a d03d 5a58 99bd d474 6f3e ce68 0bbe
00000330: 6d92 07be 324d 6b3d eb44 ce3c 5460 0c3e
00000340: 3fb9 96bd a809 38bd 0a09 9b3d 8bd7 db3d
00000350: 9401 02be bb57 373e c1b5 a33d ddb8 a03e
00000360: 26a7 bebb e952 87bd dec2 57be 46a1 fdbd
00000370: 2716 c83b adc8 b2be 06e6 74bc 8da3 1e3c
00000380: 8074 ff3c 99b7 97bc 44c1 0cbb c9cf 523c
00000390: 8b28 f7bb 2f1b 923d 4e3b bfbc 3d18 f73c
000003a0: c466 d0bb 2e5d debe e941 c3bd 9973 0c3c
000003b0: 3811 98be 2ad1 90bf 2370 efbb 941e 71be
000003c0: c9ab 9dbd 1c6b f93c f828 043d da7b 5f3b
000003d0: ffc1 d13c 110f f43c cbbb 1dbf 6da4 363c
000003e0: 3bdd d4bc ac2e 30bc 23b2 50be f196 7cbc
000003f0: fca7 4c3c 4c3c e6bd dd04 1abd 9f06 303e
-0.038799413 0.049271688 0.07165553 -0.040765308 0.10573896 -0.08337541 -0.03205935 -0.022069786
0.001042896 0.17407022 -0.009951335 -0.04516884 -0.021286167 0.14452922 -0.15137067 -0.15853648
-0.0138318995 -0.0438141 -0.11801741 -0.102938555 0.057918984 0.047807656 0.022894962 -0.0372464
-0.035214018 -0.075518884 0.021260925 -0.052360743 -0.099610314 -0.064282686 -0.013608418 0.039396767
0.101643845 0.03791414 -0.112724446 -0.025469372 -0.034623258 0.13664752 0.04514881 -0.054203574
-0.003807664 -0.057464298 0.31496656 0.16078132 0.048596498 0.091351055 0.013070571 0.119154744
-0.05217886 -0.0008930921 -0.051997423 -0.04999615 -0.019030482 -0.17043293 -0.059652753 0.042081017
-0.019652834 0.06507683 0.003404467 0.058325898 -0.0013685899 -0.018263664 0.045784563 -0.035634317
0.0005974206 -0.034865174 0.04408888 -0.009306874 -0.07196517 0.20995559 0.16997042 0.13055222
-0.2965173 -0.14485528 0.019593908 -0.048380602 -0.07674261 -0.09212471 0.015152634 0.09904873
0.011312601 0.02274019 -0.00027908213 0.07747463 -0.025018224 0.029814439 0.0016211407 -0.61850965
-0.040058874 0.007375759 -0.16336733 -0.41154128 -0.0016534688 -0.31431207 -0.16756707 0.030720394
-0.094119176 -0.0069136294 0.008009494 -0.00101029 -0.40390795 0.029754102 0.008803748 0.0163957
0.011058942 0.016914885 0.006935836 0.02672685 -0.008445232 0.0058103655 -0.8995909 0.026877906
0.013694708 -0.26440695 -0.054698505 -0.0070765405 -0.109624706 -0.025370426 0.09008906 -0.030934796
0.0052169105 -0.008456609 0.010640032 -0.023737255 0.013641377 -0.05206445 -0.01660242 -0.0034489566
0.0064789956 -0.015717566 0.005936527 -0.6204383 -0.02006088 -1.1443002 0.020913674 -1.2484372
-0.028040044 0.07187916 0.020171156 0.01468733 -0.038764622 0.016028546 -0.0044044284 0.0023872058
0.05895755 -0.22370192 0.112435184 -0.075620264 -0.07733801 0.15859349 -0.08273801 0.12396805
0.20943525 0.13728221 -0.06679765 0.035873253 0.17539077 0.08520741 0.19487223 -0.08098276
-0.024991125 -0.11020982 0.14704141 0.01198675 0.10466488 -0.07677764 -0.1736048 -0.12133438
-0.12362634 0.12932462 0.11696382 0.07750842 -0.14618637 0.10193325 -0.10205992 0.096946575
0.12949798 0.086972244 -0.14483668 -0.092897065 0.022761064 0.1762278 0.111635886 -0.049308635
-0.082078755 0.102786 0.011326424 0.16490409 0.29676476 0.079199456 -0.14836851 -0.07365515
-0.18070783 0.11242015 0.14484575 0.22869134 0.11646461 0.13666517 0.12962306 -0.15282705
0.1017357 -0.07487555 0.2338441 -0.13614199 -0.13239451 0.057446666 0.025179347 0.13708621
-0.07359552 -0.044931084 0.075700834 0.10734471 -0.12695915 0.1790456 0.07993651 0.3139104
-0.0058182655 -0.06607611 -0.2107043 -0.12384276 0.0061061564 -0.34918728 -0.01494742 0.009682548
0.031183481 -0.018520163 -0.00214775 0.012866923 -0.007542675 0.07134091 -0.023343708 0.030162925
-0.006359907 -0.43430465 -0.09534056 0.0085724825 -0.29700637 -1.1313832 -0.007307069 -0.23546821
-0.07698781 0.030446582 0.032265633 0.003410092 0.0256052 0.02979234 -0.61614674 0.011147601
-0.025984397 -0.010753315 -0.20380454 -0.015416847 0.0124912225 -0.112419695 -0.037602294 0.17190026

LGEBs.0.phi_h.0.bias f4 [72]
00000000: 33fa 63bc 93af d13c 28ec 9abc a41e 90bb
00000010: 10af 8abc 2e09 71bc 837a b33c acca abbc
00000020: ee93 cabc 3c4a dc3c 9b84 4ebc 72c1 8ebc
00000030: 8dd4 85bb 6e32 403c 4493 17bc e8e5 c93c
00000040: 3fa5 8ebc 12ac d7bc 7e10 61bc 981d 4abc
00000050: 8666 9f3b a8ad a53b 2a06 dd3c c3da f9b7
00000060: e349 a8bc caa4 ccbc 38cc d1bb ec9e 273b
00000070: 5dc8 cb3c 0e98 3fbc c0a9 743c f2a9 a0bb
00000080: 894f bdbc 56fe 453c 9e6b 393c 6fa3 b7bb
00000090: c5d9 cd3c b51a 0f3c 4133 3e3c 619e 0f3d
000000a0: bd8d d43c 4a68 f4bc 66cd f63c 1678 7fbc
000000b0: 3a44 10bc eeab 26bc be78 a6bb 0aae 00bc
000000c0: 3c72 483b 0222 a63c 90d2 a1bc a106 57bd
000000d0: 7fd2 a8bc 94a1 acbb 25b1 7e3c b6d9 80bc
000000e0: b613 a53b 60c2 943c 5c44 b3bc 60fb c4bb
000000f0: 522c 953c ca8f a1bb 5d29 aa3a ef01 bf3b
00000100: f68f debc 0d86 493c eb73 e2bc 6da7 673c
00000110: 443b e63a 66d6 dc3c 80b0 743c 5a3d c8bc
-0.013914633 0.025596416 -0.018911436 -0.004398184 -0.01692918 -0.014711661 0.021909004 -0.020970665
-0.024728741 0.026890866 -0.012604858 -0.017426226 -0.004084176 0.011730773 -0.009251419 0.02464576
-0.01741278 -0.026327167 -0.013736842 -0.012336157 0.0048645167 0.005056102 0.026980478 -2.9784982e-05
-0.020543044 -0.024980921 -0.0064025186 0.0025576903 0.024875814 -0.0116939675 0.01493305 -0.0049030716
-0.023109214 0.012084564 0.011317162 -0.0056041996 0.025128255 0.008734395 0.0116089 0.03506315
0.025946492 -0.029834885 0.030127238 -0.015592596 -0.008805329 -0.010172827 -0.0050803116 -0.007853994
0.0030585667 0.020279888 -0.019753724 -0.052496556 -0.020608185 -0.005268285 0.015545164 -0.015728813
0.00503775 0.018159091 -0.021883182 -0.0060114115 0.01820961 -0.004930471 0.0012982298 0.005829088
-0.027168255 0.012300027 -0.027643165 0.0141390385 0.001756527 0.026957702 0.014934659 -0.024443317

LGEBs.0.phi_h.1.weight f4 [72]
00000000: 2840 083f 30a2 023f 5c78 b63d 66c6 1d3d
00000010: f58e e93d a97e 1b3d 6263 fc3d 1a18 cd3e
00000020: 24ea 293e 729b de3b c819 563e 54d4 423e
00000030: 2bc7 db3e d631 2c3e eeba 503e f0b5 da3e
00000040: 6afd 033e c154 233e 4afa 4d3d 8a5a 6f3e
00000050: cef7 223e d8fd 6e3e a2c3 123f 1517 1c3e
00000060: 31a8 e43e a264 e03d 8411 ab3e ef1f 8e3e
00000070: 3e0b ec3e 71fa 893e 165c b33e 2ed6 f43d
00000080: e519 033f 8570 023e 86d3 a13e cd2c 983d
00000090: 8e2f c33e edd1 6c3e 28de 6d3e 3119 be3e
000000a0: 91c6 bf3e dace 153f 856c 943c 8bcd ed3e
000000b0: 4c96 333e 866a 193e 418e 2a3e 11ae 993e
000000c0: 1a12 0b3e caa6 853e ce22 4b3e 3f52 d73e
000000d0: 70d9 f43d a352 443d 7e82 b93e 8d88 cd3e
000000e0: 020e cc3e cac2 ec3b abbc b43e e907 443e
000000f0: 6c7e c93e 1bf9 cc3d a2cf d93e f9a3 753e
00000100: 2056 c93e 1074 4f3e 1424 963e 5ac7 5c3e
00000110: 9229 3c3e 566b 1f3e d628 b13d 3666 8d3e
0.53222895 0.5102873 0.089096755 0.038519286 0.1140422 0.03796259 0.12323643 0.4005745
0.16593224 0.006793433 0.20908272 0.19026309 0.4292539 0.16815886 0.20383808 0.42716932
0.12889639 0.159503 0.050287522 0.23374382 0.15914842 0.23339021 0.5732976 0.1524318
0.4465957 0.10956694 0.334118 0.27758738 0.46102327 0.26948884 0.35031193 0.11954914
0.51211387 0.12738235 0.31606692 0.0743042 0.3812222 0.23126955 0.23229277 0.37128595
0.37456182 0.58518755 0.018118152 0.4644588 0.17537802 0.14982042 0.16655828 0.30015615
0.13581124 0.26103812 0.19837496 0.42054936 0.119555354 0.04793037 0.3623237 0.40143242
0.39854437 0.007225369 0.35300192 0.19143642 0.39354265 0.100084506 0.42541224 0.23988332
0.3932352 0.20259118 0.293244 0.21560422 0.18375233 0.15568289 0.08650367 0.27617043

LGEBs.0.phi_h.1.bias f4 [72]
00000000: 7b2e 073d 54cb 26bd 8249 80be b4a7 0ebe
00000010: c312 cdbd e3c9 5bbe fed4 f2bd 9cbe 9b3e
00000020: 0eb2 30be 69d9 56be ca58 d8be fa63 f6bd
00000030: a61b 2a3e 8ecf a7be cb3a 4cbe 26c9 8b3d
00000040: 3414 17be e71e fcbd 76f2 07be 14ed a9bd
00000050: e816 1fbe 0224 11be 296d 8ebd 1313 2fbe
00000060: c487 f0bd f1a8 0fbe 9109 833e aab7 68be
00000070: 691d 05be cb54 0a3e 38e1 56bd 27b4 d9be
00000080: 9c4b 79bd d2bd 1cbe 58f2 bb3d c1b7 02be
00000090: a191 4dbc 3345 2fbe 58f9 98be d682 19be
000000a0: a866 bebb 9443 a63d b9f3 b0bc 3d36 5bbd
000000b0: 73ad 72bd 0087 f0bd 816d 04be 4b1a 1abe
000000c0: 04f0 04be 62a1 613e 99fa f8bd 34eb f7bd
000000d0: 5055 20be 7669 b4bd 36b4 0dbe 5811 7abd
000000e0: 7dc1 97bd 53f0 43be a6e4 03be 8f32 eebd
000000f0: b30f 2ebe 4cfb 19be fc21 ccbd c13d 78be
00000100: 1890 81be 7e95 fbbd 9225 05be 85c7 10be
00000110: 0d0e d8be 9177 a23d 549f 01be b100 003c
0.03300331 -0.040721253 -0.25056082 -0.13931161 -0.10013344 -0.21463732 -0.11857031 0.3041886
-0.17255422 -0.20981373 -0.4225524 -0.12030788 0.1661211 -0.3277554 -0.19944303 0.068254754
-0.147538 -0.12310582 -0.13276085 -0.08297172 -0.15536082 -0.14173892 -0.069544144 -0.1709712
-0.11744645 -0.1402929 0.25593236 -0.22726312 -0.129995 0.13508908 -0.05246088 -0.42520258
-0.060863122 -0.15306786 0.09177083 -0.12765409 -0.012546928 -0.17116241 -0.29877734 -0.14991316
-0.0058105774 0.08118358 -0.021600591 -0.053518523 -0.059247445 -0.11744499 -0.12932397 -0.15049092
-0.12982184 0.22034219 -0.12157173 -0.12105408 -0.15657544 -0.088091776 -0.13838276 -0.061051697
-0.07409952 -0.19134645 -0.12880191 -0.11630737 -0.16998176 -0.15037268 -0.099674195 -0.24242307
-0.25305247 -0.12284373 -0.13002613 -0.1413861 -0.4219822 0.07932962 -0.12658435 0.007812665

LGEBs.0.phi_h.1.running_mean f4 [72]
00000000: a7b0 94c0 1983 66c0 60f1 07c1 3190 0ac1
00000010: 6c3a 11c0 b245 a2c0 532c dabe 6244 043e
00000020: 5228 19be 8607 4b40 28d0 1141 7161 e23f
00000030: 0c9e 9f41 8ef3 4841 5cf9 c140 0a2f d9c0
00000040: e457 bfc0 c5ed e63e de65 cd40 8064 c0be
00000050: 3bce 1140 45cf 4fc1 ae27 35c0 599d a73f
00000060: acb8 eebe bc36 51c0 e413 dcc0 8ee5 60c1
00000070: ec1b 6c41 365d 0d41 5d8c 0cc1 ef19 5ac0
00000080: 7aec e5bf 8075 b6c0 f38a 6441 a8e0 0441
00000090: 44d4 16c1 8e93 2541 49e2 71c1 a726 5f40
000000a0: 59d8 81c0 d50d 14c1 9d18 4e3f c0b4 2540
000000b0: db24 d340 6e46 083f 031a fbbf 4526 993f
000000c0: 9aa5 a040 a621 e4c0 25aa e23f e0b0 bfc1
000000d0: 0ad8 eb40 142f 94bf 8f40 6d3e 6515 a3c0
000000e0: fda5 d340 0155 2dbf 7a1a 2e40 8755 da3c
000000f0: de1a da40 d20a 7c40 59ec 3540 98ab 9a40
00000100: 3b3d a141 ed68 143d dd81 19c1 a09f 5cc1
00000110: cf31 a6c0 b1e0 833f 0046 e33f 28e3 5140
-4.646564 -3.6017516 -8.496429 -8.660203 -2.2691908 -5.0710077 -0.42611942 0.12916711
-0.14956787 3.1723342 9.113319 1.7685987 19.952171 12.559462 6.0616894 -6.786992
-5.979479 0.4510328 6.418685 -0.37576675 2.2782123 -12.988103 -2.8305469 1.3094894
-0.46625268 -3.2689657 -6.877428 -14.056044 14.756817 8.835257 -8.784268 -3.4078329
-1.7962792 -5.7018433 14.283923 8.304848 -9.426823 10.348524 -15.117745 3.4867342
-4.0576596 -9.253377 0.80506307 2.589157 6.598249 0.5323247 -1.9617313 1.1964804
5.020215 -7.1291075 1.7708174 -23.961365 7.370122 -1.1576867 0.23169158 -5.0963616
6.6140122 -0.6770783 2.720366 0.02665211 6.8157797 3.9381604 2.8425505 4.8334465
20.154898 0.036232878 -9.594205 -13.788971 -5.19358 1.0302945 1.7755737 3.2794895

LGEBs.0.phi_h.1.running_var f4 [72]
00000000: 2bcb a142 ba8f 8342 49e8 3241 eb14 4941
00000010: f3b9 f13f 92a6 5a40 cf98 2640 7868 0741
00000020: d31e 9840 6b1c 4340 50e9 4d40 e051 933f
00000030: 4d6b 4541 0e4e 0941 d7fa 5741 37ab 0842
00000040: 13e9 9e41 6d9a ce3f 20fa 6941 99b1 5040
00000050: 8040 7041 1fb1 f740 c624 de41 89da 6040
00000060: 9c81 8342 bd31 a840 8b73 0042 e4d2 8040
00000070: 8940 2a42 882c 1241 edbd fe40 c748 0641
00000080: bb69 9242 20b7 6b41 5675 d640 c7b5 1341
00000090: a078 ee41 f26a b441 99ad d340 ecd5 c240
000000a0: 5535 5741 7f47 5642 550c 2641 ed92 7241
000000b0: 5be2 cb40 9094 7f40 b5ef 1a41 1329 ef41
000000c0: 2060 9441 d830 b841 e297 ed3f a7f0 2a41
000000d0: 8be3 6b41 ad8c 8c40 4a21 9640 9860 d240
000000e0: 3808 d440 7634 fb3f 466d 0142 05bb a83f
000000f0: 841d 7141 7acb 8b40 5b2f 3e41 4a3e cc41
00000100: 6c43 0841 6bd0 373f 12cf 2441 467a 4841
00000110: 9687 2841 6ab7 8741 e28d a040 edd8 6641
80.89681 65.780716 11.18171 12.567607 1.8884872 3.4164166 2.6030767 8.463005
4.7537627 3.0486095 3.2173653 1.1509361 12.3386965 8.581556 13.49874 34.167202
19.863806 1.6140877 14.623566 3.2608397 15.015747 7.740371 27.767956 3.5133383
65.75314 5.2560716 32.112835 4.0257435 42.563023 9.135872 7.9606843 8.392768
73.206505 14.732208 6.701823 9.231879 29.808899 22.55222 6.614941 6.0886135
13.4505205 53.56982 10.378011 15.160871 6.3713813 3.9934425 9.683522 29.895056
18.546936 23.02385 1.8561976 10.683753 14.7430525 4.3921723 4.6915636 6.574291
6.6260033 1.9625385 32.356712 1.3182074 15.069706 4.3685884 11.886561 25.530415
8.51646 0.71802396 10.300554 12.529852 10.533102 16.964558 5.0173197 14.42796

LGEBs.0.phi_h.3.weight f4 [72, 72]
00000000: 557c 783a 07df f83b 1162 573e b6a9 9b3d
00000010: c8cf 52bc 522f 383d d346 8b3e afec 113e
00000020: 84dc 00bd f06c e23d 3dd9 703e 9371 cbbb
00000030: 49c1 4d3e d2ca 193e a0a6 3d3e 1d08 1cbe
00000040: 1426 3ebe 59f9 d23c cc60 d9bd 624d 313e
00000050: f0ae d03d c156 11be ee76 9b3e f6c0 b03c
00000060: 7e96 e63d 152e 963b e587 19be c80a 53be
00000070: aedc fb3c 325a 3fbe 5e3c 5dbe 3a7a 5e3e
00000080: d42e a23d eaf2 4b3d 87ff a1be b9fd 523c
00000090: 5521 0abe d04b 7cbc f92c 26bd 6c78 d73d
000000a0: 3696 35be 49f9 64be 279b c23d 8863 a73e
000000b0: 8855 453e 14bd 4e3d 540f 04bd b924 c33b
000000c0: e330 873d db3b 3dbe 212b 18bd 086d 583e
000000d0: 0100 9ebd da4e 093d 0db8 41bc 5259 0abe
000000e0: 2978 5ebe d270 743d 6693 3ebc 450a c93c
000000f0: c627 b03d 3db4 d53c fb5f b3bd 4be9 96bd
00000100: 6896 4abd 87e2 03bd b69f b83e 7a50 febd
00000110: 80df 893e 886f c53d cf94 01bc ab7b d03d
00000120: 0da9 e83d 462f 76be d714 74bd c8a2 82bc
00000130: 8472 3b3d 071f ce3c 3f32 c2bd a3d4 543e
00000140: 3d14 ad3b 2628 a83d db4c a23c 1cf5 ffbc
00000150: 8413 71bd d450 523c eddf 6ebd bf28 1cbe
00000160: 1c96 0b3e fb7d 44bb d0ad b83d 9342 91be
00000170: a8da 80bc 0a64 6f3e 6d17 e6be a399 c6bc
00000180: 7289 54be 247b 9b3d ba31 b03d c384 4bbd
00000190: 3c49 4abe ae31 71bd cd03 af3e 61f1 b63d
000001a0: 497a 04be 2b38 b33c ee39 493c 6139 db3d
000001b0: 5c4d 77bd aee9 e4bc b6b2 14be 7078 f03e
000001c0: 6c08 8b3e 2d0e 2a3d 4c87 353d d84e 333e
000001d0: 34c9 63bd 006b 99bd ba56 653c 52d4 70bd
000001e0: e629 c1bc 8327 813d dddd 23bb a201 97bd
000001f0: 2ea1 a63d 6455 f23c cbc5 59be 1388 1b3e
00000200: 56f5 6c3e 76ea fdbc 38ac f1bd e7c5 2e3d
00000210: cac1 28be 1210 cdbc 1c32 593d ad8f 6bbe
00000220: c52a 213d 2b43 6ebc c89e 29bd f974 b9bd
00000230: a83d 783e d1f5 e13d 63d0 1e3b bcb2 a8bd
00000240: 6bbf 06be 8408 be3b e24f 5abd 8c7b 63bd
00000250: b222 843c 6a2a 403d 1315 7f3d 3921 203e
00000260: 5381 03bc a635 1fbd 315c 1b3e cc57 a2bc
00000270: 169c 37be cf50 393e 378c cfbd 98fd fabd
00000280: 089d 7dbe 9ede 7e3c b3ce 5fbe 7f06 a93e
00000290: a36f ab3d 94f2 79be 56e5 1f3f 6665 983c
000002a0: 6615 b33c d928 71bd 2ca4 21be 6152 1ebf
000002b0: 2625 57be 8c57 aebe 20c5 81be 65c7 9b3e
000002c0: 93a8 87bc f393 a5bd d910 87be f5c7 b9bc
000002d0: 35f6 6abe f8e6 20be 7ab5 bebd 1ce6 c5bd
000002e0: 4436 afbe b5ec 8bbe 188f 363d 341b f33d
000002f0: 32bf f8bb 303b 22bc ce48 5fbd 6b77 263e
00000300: 6a68 dcbd f394 48be fafc 153b 0c7a b73d
00000310: 453e f4bd 0e65 32bc 539a 58bd 3eb3 9dbe
00000320: 999b 22be 2caf d6bc 6fac 023e 6f3f bf3c
00000330: 96fa 013f d9fe 183b 343e 183d b341 fe3d
00000340: cbb4 43be dae0 d9bb d7d8 41bc e9be 87bd
00000350: 12cb 0b3e ddff c53d 74db ce3c 2046 b83c
00000360: 300d 6bbd 7171 4e3d f446 693d 8dc8 b6bd
00000370: 5fe0 0e3c 52f5 f63c 7b30 8b3e c07e 5c3e
00000380: db57 00bc a354 80bc 133a 283e 4aa1 103d
00000390: f729 8d3e c2ac bebc 0e8c eb3d 91fc 7a3d
000003a0: a261 86bd b85c b6bc 3722 00be 8429 0b3e
000003b0: d156 453d 120c 9a3d a397 523e 2695 fc3c
000003c0: 638d 793d 2b9b d3bc 9295 e4bd e51c 603e
000003d0: 2d7d 333d 90a9 ab3e 7c72 b3bd 420e 2ebe
000003e0: 5b26 1abd 52ff 5abc 2289 993e 84b5 01bd
000003f0: c327 b13d 122e 023d 6432 5dbe 6e65 89be
0.0009478976 0.0075949463 0.21033503 0.07600729 -0.012866922 0.044967003 0.27202472 0.14250444
-0.0314603 0.110559344 0.2352037 -0.0062086075 0.20093264 0.15018776 0.18520594 -0.1523747
-0.18569213 0.025753664 -0.10614166 0.17314675 0.10189617 -0.1419325 0.30364174 0.021576386
0.11259173 0.00458313 -0.14993246 -0.20609581 0.030744877 -0.1868675 -0.2160506 0.21726313
0.07919088 0.049792208 -0.31640264 0.012877875 -0.13489278 -0.0153989345 -0.040570233 0.105210155
-0.17733082 -0.2236072 0.09502249 0.32693124 0.19270909 0.050473288 -0.03224118 0.0059553054
0.06601121 -0.18479864 -0.037150506 0.21135342 -0.077148445 0.033522464 -0.011823666 -0.13510635
-0.21725525 0.059677906 -0.011631822 0.02454103 0.08601336 0.02608692 -0.08758541 -0.07368716
-0.049459845 -0.032198455 0.3605935 -0.124176934 0.2692833 0.096404135 -0.007909014 0.10179838
0.11360369 -0.24041471 -0.059590187 -0.01594676 0.045763507 0.02516128 -0.0948224 0.2078424
0.0052819536 0.08210783 0.019812038 -0.031244807 -0.058856502 0.012836654 -0.05831902 -0.15249918
0.13631481 -0.0029982317 0.09017527 -0.28371105 -0.015729263 0.23378006 -0.44939747 -0.024243182
-0.20755556 0.075918466 0.086032346 -0.04968716 -0.19754499 -0.05888527 0.34182587 0.08932758
-0.12937273 0.021877369 0.012281878 0.107043035 -0.06037651 -0.027943458 -0.14521298 0.46966887
0.27154863 0.041517425 0.044318482 0.17510545 -0.055611804 -0.07491112 0.013997728 -0.058796234
-0.023579549 0.063063644 -0.0025004067 -0.07373358 0.08136211 0.029581733 -0.21266858 0.15188627
0.23140463 -0.030995589 -0.11800426 0.042669203 -0.16480175 -0.025032077 0.053026304 -0.23004027
0.03934743 -0.014542381 -0.04141119 -0.09055514 0.2424227 0.11033214 0.0024233095 -0.08237216
-0.13158958 0.005799355 -0.05329884 -0.055537745 0.016129825 0.04691545 0.062275957 0.15637673
-0.008026439 -0.038869523 0.15171887 -0.019817255 -0.17930636 0.18097232 -0.10134166 -0.122554004
-0.24766934 0.015556006 -0.21856193 0.3301277 0.083709024 -0.24408942 0.62459314 0.018603038
0.02186079 -0.058876846 -0.15785283 -0.6184445 -0.21010265 -0.34051168 -0.25345707 0.30425563
-0.016559875 -0.0808486 -0.2638004 -0.022678355 -0.22945483 -0.15713108 -0.09311958 -0.096630305
-0.3422109 -0.2732903 0.04457006 0.11870423 -0.0075911516 -0.009901807 -0.05451279 0.16256492
-0.10762103 -0.1958807 0.0022886381 0.089588255 -0.119259395 -0.010888351 -0.05288155 -0.30800813
-0.15879668 -0.026206575 0.1276109 0.023345677 0.5077299 0.002334526 0.037168697 0.12414875
-0.19111936 -0.006649119 -0.011831484 -0.0662821 0.13651684 0.09667943 0.025251128 0.022494376
-0.057385623 0.050401155 0.05695243 -0.08924971 0.008720486 0.030146275 0.27185425 0.21532726
-0.007833446 -0.015665358 0.16428404 0.035310067 0.2757108 -0.023275737 0.11501323 0.061276022
-0.06561591 -0.022261009 -0.12513052 0.13590056 0.048178498 0.075218335 0.20565657 0.030832838
0.060925853 -0.025830826 -0.11161341 0.21886022 0.04382055 0.33527803 -0.087620705 -0.16997626
-0.037634235 -0.013366537 0.29987437 -0.031667247 0.08650162 0.031782217 -0.21601254 -0.26835197

LGEBs.0.phi_h.3.bias f4 [72]
00000000: aec8 de3c e7a8 e3bb 426c 4b3d ed30 e83c
00000010: e2c1 06bc 3ab9 973b bf03 99bc 2dd3 4e3b
00000020: 517a 9d3d 7b9d 71bd 1c85 17bd 5f32 a4bc
00000030: 338c 24bc ff6b 023c 9fb6 d33c 252f 8b3d
00000040: a619 9cbd b3cb 893d e0de 94bd 66e5 a23d
00000050: 5550 923b c679 05bc 44cd 243d 607e 02bd
00000060: 4f3d debc a912 ce3c 6e5f 81bd 95a0 42bd
00000070: 945f 63bd 3e32 bfbc 30e3 fbbb aa44 593d
00000080: 4c9e a3bc a702 d2bb eef3 013d f149 15bd
00000090: 92c4 8abd 2a92 2cbc 207d dc3c 51cb eb3c
000000a0: e745 c8bd 4fe6 063b fda9 a13d 67f9 b73d
000000b0: 216f db3c 52f2 94bd 7eff 29bd e015 a63c
000000c0: e59e c73b 305b 48bd 6995 83bd 12c1 963c
000000d0: 54e0 c83d 6c88 f03c 8629 333c ff47 873c
000000e0: 2d28 833d a61f 923d e809 673d c18f 64bd
000000f0: c14a c33c 0ac8 abbc de10 093d 3d8a 35bd
00000100: a6b8 6f3d 30c5 cdbd f9ff e03d 598b 0b3d
00000110: 7dea 8bbc 6615 d9bb 7f39 86bc 1ed3 213d
0.0271953 -0.006947625 0.04966379 0.028343642 -0.008224936 0.004630235 -0.018678544 0.0031558976
0.07689346 -0.058988076 -0.036992177 -0.02004355 -0.010043192 0.007960319 0.025843916 0.067961015
-0.076220796 0.06728306 -0.072690725 0.079539105 0.0044651427 -0.008146709 0.04023482 -0.0318588
-0.027128844 0.025155382 -0.0631703 -0.047516424 -0.055511072 -0.023339387 -0.007686995 0.053044
-0.019972943 -0.0064090076 0.03172677 -0.03644747 -0.06775774 -0.010532895 0.026915133 0.028783472
-0.09778958 0.0020584052 0.07893751 0.089831166 0.026786389 -0.072727814 -0.041503422 0.020274103
0.0060919398 -0.04891509 -0.06424982 0.01840261 0.09808412 0.029361926 0.010935193 0.016513823
0.06404147 0.07134943 0.05640593 -0.055801157 0.023839356 -0.02096941 0.03346335 -0.044321287
0.058525704 -0.10047376 0.10986323 0.03406844 -0.017079586 -0.0066248653 -0.016384838 0.039507978
