data/LorentzNet_model_wReweighting_2023Mar24_wPdgId.pt (torch, 960369 bytes, 117 tensors)

embedding.weight f4 [72, 8]
0	0xbe31ce27	-0.17363797
1	0xbca708da	-0.020389963
2	0x3b1ac450	0.0023615547
3	0x3cafd9c8	0.02146615
4	0x3e84cae8	0.25936055
5	0x3c22d3f1	0.009938226
6	0xbd730c6d	-0.059338022
7	0xbe07b20a	-0.1325151
8	0x3d041786	0.032248996
9	0xbe1c767b	-0.15279572
10	0xbb2b3477	-0.00261238
11	0xbcedb581	-0.029017212
12	0x3c9594e8	0.01825948
13	0xbb05ebef	-0.0020434817
14	0xbcd7e637	-0.026354892
15	0x3c413c40	0.01179415
16	0x3d5decdb	0.05418096
17	0x3d904871	0.07045067
18	0x3b2e072f	0.0026554575
19	0xba223b1b	-0.0006188617
20	0x3c852758	0.016254112
21	0xbb3b4440	-0.0028574616
22	0xbb82576b	-0.003977706
23	0xbbf81d12	-0.007571825
24	0x3e78ad99	0.24284972
25	0x3e113f43	0.14184289
26	0xba270210	-0.0006370852
27	0x3d9f569f	0.077801935
28	0x3e7352d9	0.23762073
29	0x3d9676d7	0.07346886
30	0xbe680070	-0.22656417
31	0x3da1dc5f	0.079033606
32	0x3da3fdb5	0.08007375
33	0xbcf1dac7	-0.029523266
34	0xba9856da	-0.0011622563
35	0xbdb3d0a3	-0.08780029
36	0xbcc7a363	-0.024369901
37	0xbddb735a	-0.10715361
38	0x3d716360	0.058932662
39	0xba95da1c	-0.00114328
40	0x3df7ec89	0.121056624
41	0x3da1fe2a	0.07909806
42	0x3b203e5b	0.002445123
43	0xbd07e3a0	-0.033176064
44	0x3e94bef1	0.29051927
45	0xbcc300eb	-0.023804149
46	0xbe885940	-0.26630592
47	0xbdba069b	-0.09083291
48	0xbd09ae29	-0.033613358
49	0x3e9c1da8	0.30491376
50	0x3aaef46a	0.0013347988
51	0xbdb3e6bd	-0.08784244
52	0x3ddfb5e8	0.10923368
53	0x3e2dfd9f	0.1699128
54	0xbee153dc	-0.44009292
55	0x3c2ed3e5	0.010670637
56	0x3c79c42e	0.015244527
57	0x3da89658	0.08231801
58	0x3b1444ec	0.0022624088
59	0xbc088d66	-0.008334493
60	0x3afa0d41	0.0019077436
61	0xb9d59a63	-0.00040741553
62	0xbc03eb42	-0.008051695
63	0x3bfa6417	0.007641326
64	0xbcabae5f	-0.02095717
65	0x3e4a2f2c	0.19744557
66	0xbb074170	-0.002063837
67	0x3d483756	0.048880897
68	0x3d63457f	0.0554862
69	0x3bdb3e83	0.0066908016
70	0x3c3a11ec	0.011356812
71	0x3cbbfb34	0.022946931
72	0x3d3e290c	0.046425864
73	0xbdf24e63	-0.11831357
74	0xba27a99a	-0.0006395817
75	0xbc8b4c30	-0.017004102
76	0x3d106524	0.035252705
77	0xbc58cb6b	-0.013232092
78	0x39d839ea	0.0004124188
79	0x3cceabc1	0.025228383
80	0x3c2028e9	0.009775379
81	0xbeaafcfd	-0.3339614
82	0xba95cca6	-0.0011428788
83	0xbbd71a05	-0.006564381
84	0xbc1f254b	-0.009713481
85	0x3a24b7c3	0.0006283486
86	0xbb9bc883	-0.0047541275
87	0x3c2b3aa6	0.010450995
88	0x3d59b01b	0.053146463
89	0xbdb45216	-0.08804719
90	0xbb11316f	-0.002215471
91	0x3d0b1fc2	0.033965833
92	0xbbf8f333	-0.007597351
93	0x3d1e92c7	0.038714197
94	0x3dc6aa2c	0.097004265
95	0x3bf3146a	0.007418205
96	0x3c2f3eac	0.0106960945
97	0x3c960f94	0.018317975
98	0xb9e234b1	-0.00043145337
99	0x3c949b3d	0.01814043
100	0xbb9a0084	-0.0046997685
101	0x3a5278cb	0.0008028864
102	0x3bfecd13	0.0077759116
103	0x3c22a491	0.009926931
104	0xbadf83c7	-0.0017052823
105	0x3e175619	0.14778937
106	0x3b30469a	0.002689755
107	0x3bdfdf59	0.006832045
108	0x3b9fbeff	0.0048750634
109	0x3cb879d6	0.022519033
110	0x3b96b185	0.0045987987
111	0x3b5a4e4c	0.0033310829
112	0x3cb2ab8c	0.021810316
113	0x3c3e27d0	0.011606172
114	0xba8194fe	-0.0009886322
115	0x3c6a7d33	0.014312076
116	0x3c8dd460	0.017313182
117	0x3b4fa9a3	0.0031686805
118	0x3c8ed357	0.017434759
119	0x3c579bfa	0.013159746
120	0xbd0f10b4	-0.03492804
121	0x3e3c17b6	0.1836842
122	0xbabe8097	-0.0014534172
123	0xbacbdcf1	-0.0015553517
124	0xbc609a21	-0.013708622
125	0x3bb5922d	0.005541107
126	0x3c1ef215	0.009701272
127	0x3bf04e36	0.007333542
128	0x3cf891d9	0.030342983
129	0xbd1d458c	-0.038396403
130	0x39b5877b	0.0003462395
131	0xbca08fd8	-0.01959984
132	0x3e2611f3	0.16217785
133	0xbd509609	-0.050924335
134	0xbcf7fcf1	-0.030271979
135	0xbb5da04e	-0.0033817473
136	0x3c501e97	0.012702606
137	0xbe48fe9f	-0.1962838
138	0xbafa59b4	-0.001910022
139	0x3c96beef	0.018401591
140	0x3c3a3c53	0.0113669215
141	0xbc5e8e2e	-0.013583703
142	0xbcd20114	-0.02563528
143	0x3c216d10	0.009852663
144	0xbda224ea	-0.07917197
145	0x3e57278f	0.21011184
146	0x3a50d6d5	0.0007966583
147	0xbd21901f	-0.039444085
148	0xbddd86ff	-0.10816764
149	0x3de0d85e	0.10978769
150	0xbeb07f76	-0.34472245
151	0x3cd40882	0.025882963
152	0x3db57324	0.08859852
153	0x3ea08244	0.31349385
154	0xbb370696	-0.002792751
155	0x3df96e3e	0.1217923
156	0xbdf6a189	-0.12042529
157	0x3e609c7d	0.21934696
158	0xbe8edd49	-0.27903202
159	0x3db971d1	0.09054912
160	0xbc38863c	-0.011262473
161	0x3cc5486f	0.02408239
162	0xba83bbe3	-0.0010050501
163	0xbbbfe6f2	-0.0058563882
164	0xbcc4ad4a	-0.024008412
165	0x3caffcd0	0.021482855
166	0x3d124107	0.035706546
167	0xbc482abd	-0.012217221
168	0xbc572786	-0.013131982
169	0x3db76099	0.089539714
170	0x3a6ed31c	0.0009110437
171	0xbbcd8547	-0.0062719914
172	0xbcb586d0	-0.02215901
173	0xbc161cbe	-0.009162126
174	0x3b5484d1	0.0032427798
175	0xbc1db160	-0.009624809
176	0x3d698ba9	0.057017956
177	0x3e39c8c9	0.18143
178	0xbae78ca4	-0.0017665816
179	0x39850a00	0.00025375187
180	0x3cadb54b	0.021204611
181	0xbc67d844	-0.014150683
182	0xbb2eea06	-0.0026689782
183	0x3c17af23	0.009258064
184	0xbc035745	-0.008016412
185	0xbb69e9da	-0.0035692365
186	0x3b0f7a09	0.0021892807
187	0x3d001040	0.031265497
188	0x3c7fc1b6	0.015610149
189	0xbbbb5537	-0.0057169455
190	0xbccb27e8	-0.024799302
191	0x3a7d3bb1	0.0009660079
192	0x3d3726a5	0.04471459
193	0xbcc0141f	-0.023447094
194	0x3ae21132	0.0017247556
195	0x3cded08c	0.027199052
196	0x3cb20b5a	0.021733928
197	0x3dc06b57	0.093954735
198	0x3e4e814d	0.20166512
199	0xbcee4666	-0.029086303
200	0x3c603755	0.013685067
201	0x3d19ce13	0.037550043
202	0xba71898a	-0.00092139153
203	0x3c79e5ee	0.015252573
204	0x3d071405	0.032978076
205	0x3cbce22f	0.023057071
206	0x3caced8c	0.021109365
207	0x3cd88c54	0.026434101
208	0x3df482fe	0.11939047
209	0xbd97d4b9	-0.074136205
210	0x399ec08e	0.00030279573
211	0xbe029634	-0.1275261
212	0xbecac737	-0.39605114
213	0xbc8127a1	-0.015765967
214	0xbe775c1b	-0.24156229
215	0x3d0eab3d	0.034831274
216	0x3c03a872	0.008035766
217	0xbd51c089	-0.051209006
218	0xbb169e63	-0.002298259
219	0xbc99ca32	-0.018773172
220	0x3a2e4080	0.00066471845
221	0x3baa94f2	0.005205744
222	0xbb0f7eb0	-0.002189558
223	0xbc16379b	-0.009168531
224	0x382726a6	3.9851897e-05
225	0xbe6c11bd	-0.23053642
226	0x39b8b0b1	0.0003522686
227	0x3c05e99c	0.008173373
228	0xbc4e7e97	-0.012603424
229	0xbc26acef	-0.0101730665
230	0x3d24a86e	0.04019969
231	0xbc8a26dd	-0.016864235
232	0x3ce6d8e5	0.028179595
233	0x3dcc60ec	0.09979424
234	0x3b0eb8fe	0.0021777744
235	0x3d1b5dff	0.03793144
236	0x3e1bff6f	0.15234159
237	0x3cbb67dd	0.022876674
238	0x3dac7ea9	0.08422596
239	0x3d04a0c0	0.032379866
240	0xbc4754be	-0.0121662
241	0xbe46c26c	-0.19410104
242	0xb927dadd	-0.00016007894
243	0x3c64dd7e	0.0139688235
244	0xbc940482	-0.018068556
245	0x3b518bea	0.0031974264
246	0x3c9e47b5	0.019321302
247	0x3b069a4c	0.0020538745
248	0x3d2bc71c	0.041937932
249	0xbdc256e4	-0.09489229
250	0xbabc5a7c	-0.0014370228
251	0xb89bfe75	-7.438372e-05
252	0xbcbbcd24	-0.022924967
253	0xbbe9cde9	-0.007135142
254	0xbca326b2	-0.019915912
255	0xbb8f85e4	-0.0043799747

embedding.bias f4 [72]
0	0x3c8d06fc	0.017215244
1	0x3cc5bfdc	0.024139337
2	0x3c04dc6b	0.008109192
3	0xbc7c8044	-0.01541144
4	0x3d13f454	0.03612168
5	0x3cc67d3e	0.024229642
6	0x3d069d62	0.032864936
7	0xbcccbe37	-0.024993045
8	0x3d0c07ef	0.034187254
9	0x3d10d58a	0.035359897
10	0x3cffff5f	0.0312497
11	0xbd420d5e	-0.04737603
12	0x3cf404f2	0.029787514
13	0xbceac003	-0.028656011
14	0x3c36b1bb	0.011150773
15	0xbd2ca9e1	-0.042154197
16	0xbc6b40dd	-0.014358726
17	0xbcead979	-0.028668152
18	0x3d850cac	0.064965576
19	0xba200a32	-0.0006105035
20	0xbd7c2538	-0.061558932
21	0x3c832c9e	0.016012486
22	0xbc31148d	-0.010808122
23	0x3ba7ba70	0.0051186606
24	0xbd19a071	-0.037506524
25	0x3be03d26	0.006843227
26	0x3bfaf8f8	0.007659074
27	0xbd4163d4	-0.047214344
28	0x3c07a6fa	0.008279556
29	0x3b6339f4	0.0034671994
30	0x3be0cbcf	0.0068602334
31	0xbc18064f	-0.009278848
32	0xbcfca1a2	-0.030838791
33	0xbc38a867	-0.011270619
34	0xbc91d0bf	-0.017799733
35	0xbd03b200	-0.032152176
36	0xbd35faf2	-0.044428773
37	0x3bf28a4a	0.0074017392
38	0xbb694268	-0.003559256
39	0xba5644be	-0.00081736955
40	0x3cb9ec16	0.022695582
41	0x3d212215	0.039339144
42	0x3b1fe82e	0.0024399864
43	0x3c42279f	0.011850267
44	0xbd5c6f96	-0.053817354
45	0x3b8c8f4e	0.004289544
46	0xbb95fe8e	-0.0045774644
47	0xbd5222b6	-0.051302634
48	0xbcb82192	-0.022476945
49	0xbaf47ea3	-0.0018653463
50	0xbda0150e	-0.07816516
51	0x3c2e4a80	0.010637879
52	0x3c3bc670	0.011460885
53	0x3d84bf97	0.06481855
54	0xbcda9550	-0.026682526
55	0xbcd32fc1	-0.025779607
56	0xbd304da3	-0.04304279
57	0xbbf8e40e	-0.0075955456
58	0xbc15e712	-0.00914933
59	0xbb873516	-0.0041262014
60	0xbbecd267	-0.0072272304
61	0xbb190518	-0.0023348983
62	0xbc9d51a1	-0.019203963
63	0x3ce4c237	0.02792464
64	0x3c1b7ab3	0.009489703
65	0xbd507b08	-0.05089858
66	0x3c9170d1	0.01775399
67	0x3b6f9fa6	0.0036563664
68	0x3d0b2c87	0.03397801
69	0xbd13aab3	-0.036051463
70	0xbc30eaa4	-0.01079813
71	0xbc9349aa	-0.017979462

LGEBs.0.phi_e.0.weight f4 [72, 146]
0	0xbd978549	-0.07398469
1	0xbc1912d7	-0.009342871
2	0xbc66f784	-0.014097098
3	0x3d971836	0.07377665
4	0xbdb413f3	-0.087928675
5	0x3d76b0c9	0.06022719
6	0x3dc0baa2	0.094105974
7	0xbe048ac6	-0.12943563
8	0x3d0f0191	0.034913603
9	0x3d693d86	0.05694344
10	0x3c3b376a	0.011426786
11	0xbcd0284b	-0.025409838
12	0xbd9dddc1	-0.07708312
13	0xbc1aab3f	-0.009440242
14	0xbd128b89	-0.035777602
15	0xbd867b03	-0.065664314
16	0x3d9c13fd	0.07621
17	0xbc477d40	-0.012175858
18	0x3d95ff2c	0.07324061
19	0x3d976598	0.07392424
20	0xbe11c815	-0.14236481
21	0xbd192d67	-0.037396815
22	0x3cf94c6a	0.030431945
23	0x3c479331	0.012181089
24	0xbd889765	-0.06669501
25	0x3d094a88	0.033518344
26	0x3de5a50a	0.11213119
27	0x3da20080	0.079102516
28	0x3e32b968	0.1745354
29	0xbcc33df7	-0.023833258
30	0x3e0c57ac	0.13705319
31	0xbca8f3ae	-0.020624008
32	0x3d521f0e	0.051299147
33	0x3d8bc1aa	0.06824048
34	0xbe0146f2	-0.1262472
35	0xbd04afa3	-0.032394063
36	0xbcade333	-0.021226501
37	0xbca53db5	-0.020171026
38	0xbd8ac88d	-0.06776533
39	0xbda7ffad	-0.08203063
40	0x3bc01c6b	0.0058627627
41	0xbdaca20a	-0.08429344
42	0x3dfa179d	0.12211535
43	0xbcc643dc	-0.02420228
44	0xbe3cd343	-0.18439965
45	0x3dcc1d33	0.09966507
46	0xbda44571	-0.080210574
47	0xbdf1788b	-0.1179057
48	0x3d257a85	0.040400047
49	0xbe3602b3	-0.17774467
50	0x3d003648	0.031301767
51	0xbca5dae6	-0.02024598
52	0x3e1ebf04	0.15502554
53	0x3d84027e	0.06445788
54	0x3dd16aef	0.10225474
55	0x3e152c3d	0.14567657
56	0xbd99a2ec	-0.07501778
57	0x3de6b95f	0.112658255
58	0x3dc3caf1	0.095601924
59	0xbda33a74	-0.079701334
60	0x3d9316da	0.07182093
61	0x3e28f547	0.16499816
62	0x3ca42c9e	0.020040806
63	0x3d1cfcc4	0.038326994
64	0xbc722c24	-0.014781032
65	0xbdcf4a78	-0.10121626
66	0xbd389f88	-0.045074016
67	0xbb6366f7	-0.0034698823
68	0x3d5b5aae	0.053553276
69	0x3c5ff14b	0.013668369
70	0x3c8bb119	0.01705222
71	0xba3ce6c1	-0.0007206016
72	0x3ef90e81	0.48643878
73	0xbbbb5e56	-0.005718033
74	0x3db4b263	0.08823087
75	0x3f017a01	0.5057679
76	0xbc814558	-0.015780136
77	0x3f0a52b9	0.54032475
78	0x3ea8fa36	0.33003396
79	0xbcda4d0e	-0.02664807
80	0x3d83327e	0.06406115
81	0x3ea5cb78	0.32381797
82	0xbe61a1b3	-0.2203434
83	0xbe9fd044	-0.31213582
84	0xbae235ae	-0.001725843
85	0xbdaa5083	-0.08316138
86	0x3d10b51a	0.035328962
87	0xbcf1c52c	-0.029512964
88	0x3f136b8e	0.5758599
89	0x3e4803ab	0.19532649
90	0xbe37e3f9	-0.17958058
91	0xbec6dcf9	-0.38840464
92	0xbe833dcc	-0.25633085
93	0x3d03ae02	0.03214837
94	0x3d51e18a	0.05124048
95	0x3e6a9274	0.2290743
96	0xbe6ef012	-0.23333767
97	0xbcb5b58d	-0.022181297
98	0xbeb8e884	-0.36114895
99	0xbe39104a	-0.1807262
100	0x3d470db6	0.04859706
101	0x3eabb239	0.3353441
102	0xbcab81f9	-0.020936
103	0x3d8391a1	0.06424261
104	0xbe91e1e9	-0.28492668
105	0xbe63dba5	-0.22251756
106	0x3d07b5d0	0.033132374
107	0x3e97d03c	0.29651058
108	0x3ed6bbff	0.41940305
109	0xbd7cf6d0	-0.061758816
110	0x3c6edd13	0.014579075
111	0x3e15d4a4	0.14631897
112	0xbe47fbb0	-0.19529605
113	0xbf223250	-0.6335802
114	0x3dc95952	0.098314896
115	0x3ebf368d	0.37346306
116	0x3d55cfbd	0.052200068
117	0x3f1c95ef	0.6116628
118	0x3e3b79ed	0.1830823
119	0xbe2cd336	-0.16877446
120	0x3ce0e444	0.027452596
121	0xbc654a66	-0.013994789
122	0x3e87a11b	0.264901
123	0x3e22f493	0.1591361
124	0xbd03d9f2	-0.03219027
125	0xbf01929e	-0.50614345
126	0x3ebc7368	0.36806798
127	0xbce103e6	-0.02746768
128	0x3e61e64c	0.22060508
129	0x3ee8f58b	0.45499834
130	0x3e1fd80d	0.1560976
131	0x3da439f1	0.08018864
132	0xbe5122ef	-0.20423482
133	0xbcd56854	-0.026050724
134	0xbd64af7b	-0.055831414
135	0xbed27f44	-0.4111272
136	0x3e17cfad	0.14825316
137	0x3d634d62	0.05549372
138	0xbe9219c8	-0.28535295
139	0x3d23e9e3	0.040017974
140	0xbe463ac9	-0.19358362
141	0xbd8b6cd0	-0.06807864
142	0xbd255370	-0.040362775
143	0xbe9fa04a	-0.31176978
144	0x3ceb9fa0	0.028762639
145	0xbd36c813	-0.0446244
146	0xbd846247	-0.064640574
147	0xbd0ab88d	-0.033867408
148	0x3d4fa4a9	0.05069414
149	0x3e122d4c	0.14275092
150	0xbd50e06e	-0.050995283
151	0x3d6a925c	0.057268485
152	0x3d913c6f	0.07091605
153	0xbe2c5c3f	-0.16832064
154	0x3dc3815a	0.09546156
155	0x3e243d14	0.16038924
156	0x3ca2238a	0.019792337
157	0xbd2b9970	-0.041894376
158	0xbd504f5c	-0.050856933
159	0xbdc6f4fe	-0.09714697
160	0x3a878d65	0.0010341821
161	0xbe36b686	-0.17843065
162	0x3e42bbd0	0.19016957
163	0x3b8f27ed	0.004368773
164	0x3d3acacc	0.04560356
165	0x3da295dd	0.079387404
166	0xbe112de5	-0.14177664
167	0xbc85b9fa	-0.016324032
168	0x3dabfde5	0.08398036
169	0x3d8a248b	0.06745251
170	0xbdbdbbdb	-0.09264346
171	0x3dd5fa22	0.104481
172	0x3dc17acb	0.09447249
173	0x3c0549f5	0.0081353085
174	0x3e20090c	0.15628451
175	0x3d40bc52	0.047054596
176	0x3d7e0ff8	0.062026948
177	0xbbfdd33a	-0.0077461274
178	0x3d8a25d6	0.06745498
179	0x3da58b30	0.080831885
180	0xbd6280e9	-0.05529872
181	0xbd0f4e46	-0.034986757
182	0x3bc1ed17	0.005918156
183	0xbccfe48f	-0.02537754
184	0xbd8d0575	-0.068858065
185	0xbd833be0	-0.064079046
186	0xbc960892	-0.018314634
187	0xbdd4ce12	-0.10390867
188	0xbaaa2a04	-0.0012982492
189	0x3cf7ffb4	0.030273296
190	0xbe5c9a6b	-0.21543281
191	0x3e0783b3	0.13233833
192	0xbddd6002	-0.10809328
193	0xbdf3e73a	-0.11909337
194	0x3d2339ad	0.039849926
195	0xbe44a830	-0.19204783
196	0x3b73f1f7	0.003722308
197	0xbccc7e0f	-0.024962453
198	0x3df28b0e	0.11842929
199	0xbc521852	-0.012823181
200	0x3dbdec3d	0.092735745
201	0x3ceca2a5	0.028886149
202	0xbd988300	-0.07446861
203	0x3e057126	0.13031444
204	0x3d18b68e	0.037283473
205	0xbe0873f1	-0.13325478
206	0x3d0c5087	0.034256484
207	0x3d89a48d	0.06720839
208	0x3d48f9cf	0.04906636
209	0x3d0da68c	0.03458266
210	0x3ccd3686	0.025050413
211	0xbd47a822	-0.04874433
212	0xbdd300b9	-0.10302872
213	0xbc1d645b	-0.009606446
214	0x3d762971	0.060098115
215	0xbd7a62fb	-0.06112955
216	0xbd4ab44b	-0.049488347
217	0xbd7ee3fd	-0.062229145
218	0x3f12346d	0.57111245
219	0x3d451577	0.048116174
220	0x3db2bc29	0.08727295
221	0x3ee17082	0.4403115
222	0xbd991cc2	-0.07476188
223	0x3ef7e60c	0.484177
224	0x3e9f279b	0.31084904
225	0xbd33349a	-0.043751337
226	0x3b817a25	0.0039513283
227	0x3ea5dbd8	0.3239429
228	0xbdad8064	-0.08471754
229	0xbebbb528	-0.3666165
230	0x3ac370b6	0.001491091
231	0xbe7f6f73	-0.24944858
232	0x3de86491	0.113473065
233	0xbdaf59d5	-0.08562056
234	0x3f205358	0.6262717
235	0x3e6f5563	0.23372416
236	0xbe3401f3	-0.17578869
237	0xbedac4b8	-0.4272821
238	0xbe492b9d	-0.19645543
239	0xbd8754fa	-0.06608005
240	0x3b906d57	0.0044075656
241	0x3dbb0493	0.09131732
242	0xbe3aaeb1	-0.18230702
243	0xbd6f1fcb	-0.05837993
244	0xbef7e20e	-0.48414654
245	0xbe475de8	-0.19469416
246	0xbd13c759	-0.036078785
247	0x3ee8d9ff	0.45478818
248	0xbd78c544	-0.060735002
249	0x3d89a530	0.0672096
250	0xbe955d7d	-0.29172888
251	0xbe29822a	-0.1655356
252	0xbba6ea50	-0.00509385
253	0x3e878b7b	0.26473603
254	0x3ecd7d4d	0.4013466
255	0xbe4318c3	-0.19052415

LGEBs.0.phi_e.1.weight f4 [72]
0	0x3de017c1	0.10942031
1	0x3e1ec8f8	0.15506351
2	0x3ee7c9e1	0.4527121
3	0x3ea584b4	0.32327807
4	0x3e8a4bc7	0.2701094
5	0x3ad86ae0	0.0016511343
6	0x3a3a6471	0.0007110304
7	0x3e3a2727	0.18178998
8	0x39ec7b3d	0.00045105247
9	0x3e203d7e	0.15648457
10	0x3e99b24d	0.30018845
11	0x3e2a005c	0.166017
12	0x3b993133	0.0046750545
13	0x3a75544a	0.00093585683
14	0x3e129840	0.14315891
15	0x3aa81604	0.0012823944
16	0x3adbddc5	0.0016774466
17	0x3e0d9332	0.13825682
18	0x3ea22b07	0.31673452
19	0x3a8912ad	0.0010457836
20	0x3e3f6027	0.18689023
21	0x3e38ab64	0.1803413
22	0x3e6c38f6	0.23068604
23	0x3ea5df6e	0.32397026
24	0x3c3692c2	0.011143388
25	0x3da364fb	0.07978245
26	0x3ea86b68	0.32894444
27	0x3e2183b9	0.15772904
28	0xba9654e7	-0.0011469395
29	0x3ae16b77	0.0017198165
30	0x3b1d85d0	0.0024036057
31	0x3e8efd5d	0.27927676
32	0x3e7a519d	0.24445195
33	0x3eb20498	0.3476913
34	0x3e137a85	0.14402206
35	0x3b11e972	0.0022264388
36	0x3a3b8e5d	0.00071546977
37	0x3ab3f924	0.0013730866
38	0x3b97fdbd	0.0046384023
39	0x3e2e8efd	0.17046733
40	0x3f4b9b01	0.7953339
41	0x3f04bff5	0.51855403
42	0x3b121075	0.0022287641
43	0x3e5c00d1	0.21484686
44	0x3b4b5b10	0.003102962
45	0x3e83c902	0.25739294
46	0x39bf58cd	0.0003649652
47	0x3e73189a	0.23739854
48	0x3b1d2f0a	0.0023984336
49	0x3ea7c450	0.32766962
50	0x3ea90f66	0.3301956
51	0x3e393794	0.18087608
52	0x3e49db0a	0.19712463
53	0x3ebb46c8	0.3657744
54	0x3ad865a0	0.0016509779
55	0x3a155e76	0.00056979747
56	0xbb15b8fa	-0.002284585
57	0x3f704144	0.9384959
58	0x3e931573	0.28727302
59	0x3b42a6dc	0.0029701507
60	0x3bbfc268	0.0058520325
61	0x3ea3d361	0.31997207
62	0x3a7a414e	0.00095464743
63	0x3ee315f0	0.44352674
64	0x3b2e30ef	0.002657946
65	0x3abff1f2	0.0014644249
66	0x3e87b491	0.2650495
67	0x3d2259af	0.03963631
68	0x3b99202b	0.004673024
69	0x3b746b71	0.0037295485
70	0x3eb9925b	0.36244473
71	0x39ca4791	0.00038581764

LGEBs.0.phi_e.1.bias f4 [72]
0	0xbcc62bf6	-0.024190884
1	0xbd4a7387	-0.04942658
2	0x3dc60007	0.09667974
3	0x3dd151a5	0.102206506
4	0xbdcb167f	-0.099164
5	0xbcbf30a6	-0.023338627
6	0xbb808901	-0.003922582
7	0xbd6303cb	-0.05542354
8	0xbbcbaa5a	-0.006215376
9	0xbe19fb31	-0.15037228
10	0xbdf8e76f	-0.121535175
11	0xbe0d55ba	-0.13802233
12	0xbc69930f	-0.014256253
13	0xbc3cf662	-0.011533352
14	0xbe01e7bc	-0.12686056
15	0xbb844b0a	-0.0040372657
16	0xbcefa1e7	-0.029252006
17	0xbd5fb89b	-0.054619413
18	0x3db92587	0.09040361
19	0xbb6f8b5f	-0.0036551578
20	0xbe410dc4	-0.18852907
21	0xbe3f93a7	-0.18708669
22	0xbeccd495	-0.40005937
23	0xbde9be28	-0.114132226
24	0xbdc05ada	-0.093923286
25	0xbc8adab6	-0.016949993
26	0xbc8a228f	-0.016862182
27	0xbdcfded1	-0.10149921
28	0xbcfe184d	-0.031017447
29	0xbcfb91ee	-0.030709233
30	0xbb8a0b0a	-0.0042127417
31	0xbba2863e	-0.0049598506
32	0xbeb41da6	-0.3517887
33	0x3db1610d	0.08661089
34	0x3dd78e62	0.10525204
35	0xbc7f93fa	-0.015599245
36	0xbbafbfdd	-0.005363448
37	0xbbb85852	-0.005625763
38	0xbc401641	-0.011724056
39	0xbd173888	-0.036919147
40	0x3d8989ce	0.06715737
41	0x3e6971f4	0.22797376
42	0xbb8ad531	-0.00423684
43	0xbdc9c58f	-0.098521344
44	0xbc04f78c	-0.00811566
45	0xbd528df3	-0.051404905
46	0xbcb202db	-0.021729877
47	0xbe8b73d9	-0.27236822
48	0xbc27fbcd	-0.010252905
49	0xbd1a93cf	-0.037738618
50	0xbbdfeb17	-0.006833445
51	0xbd77139d	-0.06032144
52	0xbd968c0a	-0.07350929
53	0xbe185948	-0.14877808
54	0xbb9f2339	-0.004856494
55	0xbbb8c433	-0.005638623
56	0xbc42e07c	-0.011894342
57	0x3d71644a	0.058933534
58	0xbd0af039	-0.0339205
59	0xbc10147e	-0.008793948
60	0xbd9c3613	-0.07627501
61	0xbca5c568	-0.020235732
62	0xbac73f9d	-0.0015201453
63	0x3d2a7d60	0.041623473
64	0xbc0e0e48	-0.008670397
65	0xbb9d044b	-0.0047917715
66	0x3cd47ae8	0.025937513
67	0xbddd4262	-0.10803677
68	0xbcac51e3	-0.02103514
69	0xbccc7ba6	-0.024961304
70	0x3d1193af	0.035541233
71	0xbbc5701a	-0.0060253264

LGEBs.0.phi_e.1.running_mean f4 [72]
0	0x3da6b188	0.0813933
1	0x3ddc723e	0.107639775
2	0x3e9f62ca	0.31130058
3	0xbe679fe8	-0.22619593
4	0xbdcb24b4	-0.0991911
5	0xbc48ed1b	-0.012263562
6	0xbab9c51f	-0.0014173127
7	0xbcd2bdd4	-0.025725283
8	0x3bbadaa6	0.0057023345
9	0xbe6bbdd5	-0.23021634
10	0x3dbdd2b6	0.092687055
11	0xbe460421	-0.19337513
12	0xbc9311a0	-0.01795274
13	0xbd0e856c	-0.03479521
14	0xbe4b41b3	-0.19849281
15	0xbb80f1f9	-0.0039350954
16	0xbb80fb7a	-0.0039362283
17	0x3d9d9797	0.07694929
18	0x3dc4cecb	0.09609755
19	0x3d09153a	0.03346751
20	0xbe985f59	-0.29760244
21	0x3c01ff54	0.00793441
22	0x3e6c244f	0.23060726
23	0x3e2d6aac	0.16935223
24	0xbda396fc	-0.07987782
25	0x3e3dd5e0	0.18538618
26	0xbe035101	-0.1282387
27	0xbe1e6d2d	-0.15471335
28	0x3d4712c6	0.048601888
29	0xbb62b54a	-0.003459292
30	0xbb2b9cfb	-0.0026186097
31	0xbcea1561	-0.028574647
32	0x3e7448c2	0.2385588
33	0xbdbb6052	-0.09149231
34	0x3d8a2ac6	0.0674644
35	0xbc1c1895	-0.009527345
36	0x3a23a212	0.0006242107
37	0xbbb38b32	-0.00547924
38	0xbb906a0d	-0.0044071735
39	0xbd80f840	-0.0629735
40	0xbe70df24	-0.23522621
41	0xbf0a54fc	-0.54035926
42	0xbbc462d2	-0.0059932256
43	0xbc890887	-0.016727699
44	0xbcaca89b	-0.021076491
45	0xbecf8b24	-0.40535843
46	0x3cd7c523	0.02633912
47	0x3e05ed0d	0.13078709
48	0xbb255bdc	-0.0025231754
49	0x3cf56817	0.02995686
50	0x3dd44008	0.103637755
51	0x3d295044	0.041336313
52	0x3dee17f8	0.116256654
53	0x3c9bf19b	0.019036105
54	0xbcc6e4f0	-0.024279088
55	0xba1b07b3	-0.0005913928
56	0xbb06229f	-0.0020467413
57	0xbe86a7f3	-0.2630001
58	0xbc2a4e2a	-0.010394612
59	0xbcde8ea9	-0.027167635
60	0x3db396db	0.08769008
61	0x3e6402ba	0.22266665
62	0xbbc62f82	-0.006048144
63	0xbe7dceed	-0.24785967
64	0xbc1d6e9e	-0.009608893
65	0xbad2f3f3	-0.0016094431
66	0xbcc3de28	-0.023909643
67	0x3bcea208	0.0063059367
68	0xbcefd755	-0.029277483
69	0xbc1396c1	-0.0090081105
70	0x3db333b0	0.08750093
71	0xbadcf6cf	-0.0016858223

LGEBs.0.phi_e.1.running_var f4 [72]
0	0x3e73d97f	0.23813437
1	0x3e6df909	0.2323953
2	0x3fb80241	1.4375688
3	0x3eb00ed7	0.34386322
4	0x3e22ea5f	0.15909718
5	0x3ad0ead3	0.0015939124
6	0x39903169	0.00027502634
7	0x3e040182	0.128912
8	0x39c64697	0.00037818096
9	0x3e0e2e7c	0.1388492
10	0x3e805ce4	0.2507087
11	0x3df42bf0	0.11922443
12	0x3aec09a1	0.0018008241
13	0x3ba084c7	0.004898641
14	0x3e001ad0	0.12510228
15	0x399ef452	0.0003031814
16	0x3b710f65	0.0036782857
17	0x3dd009bc	0.10158107
18	0x3eaa354c	0.33243787
19	0x3c3fdf96	0.011711022
20	0x3e11aaef	0.14225362
21	0x3e5862a0	0.21131372
22	0x3f85c189	1.0449687
23	0x3e92c97a	0.2866934
24	0x3daf1fe9	0.08551008
25	0x3f1da61c	0.6158159
26	0x3eec316f	0.46131465
27	0x3e0fccbf	0.14042948
28	0x3d14ebb9	0.036357615
29	0x3b00b348	0.001963811
30	0x37323971	1.0623001e-05
31	0x3f14c594	0.5811398
32	0x3f8c12b0	1.0943203
33	0x3ef7fbd5	0.4843432
34	0x3e476a72	0.194742
35	0x3b18f64e	0.0023340168
36	0x388d5ae3	6.740333e-05
37	0x38967f32	7.176249e-05
38	0x3b60c2b2	0.0034295735
39	0x3ebc82c4	0.36818516
40	0x3f8f1861	1.1179315
41	0x3ed4c5fc	0.415573
42	0x39fa514c	0.00047744287
43	0x3e858ec3	0.2608548
44	0x3abba504	0.0014316146
45	0x3ea7145d	0.32632723
46	0x3b1fcd2c	0.0024383767
47	0x3f0cdc0c	0.55023265
48	0x3a6b4d2b	0.00089760375
49	0x3e352a4f	0.1769192
50	0x3ddce3e7	0.107856564
51	0x3dfa16d2	0.12211384
52	0x3e3e6385	0.18592651
53	0x3e62e8a4	0.22159058
54	0x3ab14b84	0.0013526534
55	0x38a7fd92	8.010412e-05
56	0x3b26d061	0.0025453793
57	0x3f8c5775	1.096419
58	0x3e5341a8	0.20630515
59	0x3c59b21e	0.013287095
60	0x3cf93977	0.03042291
61	0x3e39ac8a	0.18132225
62	0x39c5a180	0.00037695095
63	0x3f0cb073	0.5495674
64	0x3a57ad74	0.00082274457
65	0x388e3f3e	6.7828674e-05
66	0x3e9541e1	0.29151824
67	0x3e1e6809	0.15469374
68	0x3b471eb4	0.003038329
69	0x3bca0082	0.0061646113
70	0x3f29cb75	0.66326076
71	0x38faf55c	0.00011966631

LGEBs.0.phi_e.3.weight f4 [72, 72]
0	0xbe377360	-0.17915106
1	0xbe64023a	-0.22266474
2	0xbd0ba71c	-0.034094915
3	0x3d97b06f	0.07406699
4	0xbe64ca77	-0.22342859
5	0xbc6ecd5e	-0.014575331
6	0x3c390565	0.01129279
7	0xbe0bad6a	-0.13640371
8	0x3bdf96c1	0.006823391
9	0x3d948066	0.072510526
10	0xbd8df44b	-0.06931361
11	0xbd3dc3b8	-0.04632923
12	0xbc80c34d	-0.015718127
13	0xbdb696d2	-0.089154854
14	0xbebfa492	-0.37430245
15	0x3bc038d2	0.0058661485
16	0xbc54f025	-0.012996708
17	0x3e36ad9b	0.17839663
18	0xbe5e5213	-0.21710996
19	0x3c2ed3c3	0.010670605
20	0xbec64120	-0.3872156
21	0x3bee547e	0.007273256
22	0xbf29349d	-0.66095906
23	0x3d0e17b7	0.034690585
24	0xbdf7a7c9	-0.12092549
25	0x3b06e8b0	0.002058547
26	0xbd348543	-0.0440724
27	0xbe8afd71	-0.27146485
28	0xbc8063a5	-0.015672514
29	0x3d08904f	0.03334075
30	0x39f2e241	0.0004632641
31	0xbd166b5c	-0.03672348
32	0xbf1f7f0c	-0.62303233
33	0xbc100a51	-0.008791522
34	0xbdf3e8ea	-0.11909659
35	0xbd0d0a97	-0.034433927
36	0xbaddcb99	-0.0016921639
37	0xbbff1f74	-0.007785732
38	0xbb92e3c0	-0.0044827163
39	0xbebe1710	-0.3712697
40	0x3dd6a79b	0.10481187
41	0xbccb1e64	-0.024794765
42	0x3b59ac79	0.0033214374
43	0x3c884dff	0.016638754
44	0xbbbf0dac	-0.0058304872
45	0xbdf0dade	-0.117604956
46	0xbc904263	-0.01760978
47	0xbedaaed6	-0.42711514
48	0xbd19e073	-0.037567567
49	0xbeecb7aa	-0.46233875
50	0x3e55595e	0.20834872
51	0x3e429b40	0.19004536
52	0xbddc9a77	-0.10771649
53	0x3e23113f	0.15924548
54	0xbbf9d701	-0.0076245074
55	0x3932c716	0.00017049568
56	0xbcdbd6e2	-0.026835863
57	0x3ddb9fd6	0.10723846
58	0x3e11aab3	0.14225273
59	0xbd5417dc	-0.051780567
60	0xbd74c31c	-0.059756383
61	0xbd2b30c3	-0.04179455
62	0xbb9413c7	-0.004518959
63	0x3db2c5e4	0.08729151
64	0xbb0e600b	-0.0021724727
65	0xbc0a959e	-0.008458523
66	0x3c9a7ec9	0.018859284
67	0xbdacecae	-0.084435806
68	0x3d12730b	0.035754245
69	0x3d0d2929	0.03446308
70	0xbe821ae3	-0.25411138
71	0x3b5c9037	0.0033655295
72	0x3bfcc4a6	0.007713872
73	0xbb87a5c0	-0.004139632
74	0x3e1817ac	0.1485278
75	0xbe42e9ef	-0.19034551
76	0x3c9c837b	0.019105664
77	0xbb18b2dd	-0.002329997
78	0x3ab9be14	0.0014171028
79	0xbc29d5a4	-0.010365877
80	0x3a67b011	0.00088381866
81	0x3e7e71c2	0.24848083
82	0x3d290b0f	0.041270312
83	0x3e34370d	0.17599125
84	0x3c16a5bd	0.0091947885
85	0xbc8b02d2	-0.016969118
86	0x3dc0368d	0.09385405
87	0x3a97c55d	0.0011579205
88	0x3b0aa38a	0.0021154606
89	0x3cd621d6	0.026139181
90	0x3db0b582	0.0862837
91	0x3bf6535c	0.0075172614
92	0x3d53a153	0.051667523
93	0xbd8d40d6	-0.06897132
94	0xbe8dc8d4	-0.27692282
95	0x3cd4a001	0.025955202
96	0xbe136bed	-0.14396639
97	0x3c6cfc57	0.014464459
98	0xbee2734a	-0.44228584
99	0x3a4b4781	0.00077544904
100	0xbd50ee32	-0.05100841
101	0x3b8e1372	0.004335814
102	0xb7abc2b0	-2.0475447e-05
103	0xbdc1e52e	-0.09467541
104	0xbe4f4f4d	-0.20245095
105	0xbe3476ec	-0.1762349
106	0x3dad3e95	0.08459202
107	0xbc8b690d	-0.017017866
108	0x3a97e017	0.001158717
109	0xbaf595fc	-0.0018736715
110	0xbc3d49f8	-0.01155328
111	0xbde57aae	-0.1120504
112	0xbed48cde	-0.41513723
113	0x3de8f5cf	0.11375009
114	0xbb7929ee	-0.0038019377
115	0xbe4c9bb7	-0.19981275
116	0x3bac4213	0.0052569
117	0xbe79d5c0	-0.24397945
118	0xbc610ebb	-0.013736422
119	0xbe6eaf64	-0.23309094
120	0xbb89bfc3	-0.004203768
121	0x3da61258	0.081089675
122	0xbc34225a	-0.010994518
123	0xbb77eab3	-0.00378291
124	0xbd699a2d	-0.0570318
125	0xbe2426c3	-0.16030411
126	0xbc1d2018	-0.009590171
127	0xb8e34356	-0.00010836746
128	0xbb4467b3	-0.0029969036
129	0xbf07442c	-0.528384
130	0xbe6fbd90	-0.23412156
131	0x3d2a9a29	0.041650925
132	0xbdb981f8	-0.09057993
133	0x3dd9f372	0.10642137
134	0x3b2e7f2b	0.002662609
135	0xbe52c647	-0.2058345
136	0xb8393f2b	-4.4166267e-05
137	0x3a4f9c28	0.00079196924
138	0xbe98806f	-0.29785487
139	0xbdca8a30	-0.098896384
140	0x3c6ae8be	0.014337717
141	0x3b57fdc3	0.003295765
142	0xbd346d0e	-0.044049315
143	0x3a4b7322	0.00077609916
144	0x3a6828ce	0.0008856178
145	0x398534fa	0.00025407207
146	0xbaa2ed3f	-0.0012430324
147	0xbb12298c	-0.0022302596
148	0xb8b05e83	-8.409938e-05
149	0xba37f7ff	-0.00070178503
150	0x3821d306	3.8581922e-05
151	0x391ed5bf	0.00015147681
152	0xba06d1f5	-0.00051429804
153	0x3ab9dcb6	0.0014180157
154	0x399f3a0b	0.0003037009
155	0xb9862ed9	-0.00025593376
156	0xb8925a42	-6.978634e-05
157	0xba43fda2	-0.0007476454
158	0x3a3cd26e	0.00072029873
159	0xb89b7d6a	-7.414336e-05
160	0x39bbd11f	0.00035823227
161	0x389a8c94	7.369477e-05
162	0xbb33d8b3	-0.0027442395
163	0xb9334b2c	-0.00017098774
164	0xb93c3f86	-0.00017952741
165	0x3a25b5c4	0.00063213357
166	0xb9d98935	-0.00041491693
167	0xbb15a75c	-0.002283535
168	0x39e855a5	0.00044314298
169	0xbabf2947	-0.0014584445
170	0xbaea48db	-0.0017874496
171	0x3a2a736d	0.0006502185
172	0xbaa126e1	-0.0012294912
173	0x37be7065	2.2702103e-05
174	0x395aa679	0.00020852116
175	0xba6b6c9e	-0.0008980724
176	0x3942c1ae	0.00018573433
177	0xb8d0c8c3	-9.955608e-05
178	0xba6494bd	-0.00087196735
179	0xb8d4f135	-0.00010153876
180	0xba4342cd	-0.0007448614
181	0xba89f691	-0.0010525753
182	0xbb7adfeb	-0.0038280438
183	0x3a125514	0.00055821356
184	0xbafdebb1	-0.001937261
185	0xb983f7b4	-0.0002517082
186	0xba69adb8	-0.0008914131
187	0xba029eb0	-0.0004982753
188	0xba9c8371	-0.0011941028
189	0xbac64d46	-0.001512923
190	0x39f930e3	0.00047529404
191	0xb90ca050	-0.00013411161
192	0x3a06ae85	0.00051377
193	0xba1162d1	-0.0005546036
194	0x39944ae8	0.0002828457
195	0x39c377f6	0.00037282676
196	0xbac5f8c1	-0.0015104042
197	0xb9d6b4ab	-0.0004095187
198	0xba349d69	-0.0006889911
199	0xb943073b	-0.00018599343
200	0x3933eca5	0.00017158927
201	0xbacb7911	-0.0015523751
202	0xbb9ff27d	-0.004881202
203	0xba00566c	-0.00048956904
204	0xb891f6b9	-6.9600945e-05
205	0x380ce5ac	3.35925e-05
206	0x39a793fe	0.00031962985
207	0xba9142ee	-0.0011082569
208	0x3681e764	3.871437e-06
209	0xbacbe6b6	-0.0015556428
210	0xbb4f5abd	-0.0031639778
211	0x3a203ae3	0.00061122904
212	0xb9061db5	-0.00012790303
213	0xb8a68596	-7.940379e-05
214	0xba1a04bd	-0.000587534
215	0x3891fd6f	6.9613445e-05
216	0xbaa1bfd0	-0.001234049
217	0x381c2727	3.722976e-05
218	0xbb2098b0	-0.0024505071
219	0x39540d63	0.00020222882
220	0x3a6d9a57	0.0009063831
221	0xba019ed6	-0.0004944628
222	0xb9ee5bb9	-0.00045463236
223	0x39d80664	0.00041203492
224	0xbb28c8a8	-0.0025754366
225	0x3a774f3b	0.00094341085
226	0x3a08c8a8	0.00052178884
227	0x39e1f636	0.00043098786
228	0x39b9ace1	0.00035414755
229	0xb990e498	-0.00027636136
230	0x3739241c	1.1035267e-05
231	0xb986c59b	-0.000257057
232	0xbafb57c2	-0.0019175934
233	0xbab83d01	-0.0014056267
234	0x3a0d95b1	0.0005401029
235	0xba93a5d4	-0.0011264631
236	0xb9bb1f0e	-0.00035690557
237	0x3a1bb52c	0.00059397775
238	0x37c538b5	2.3510636e-05
239	0xbae3185c	-0.0017325985
240	0xbadddc14	-0.001692655
241	0xb98aef45	-0.0002649968
242	0xb909dfe6	-0.00013148747
243	0xba17fd3e	-0.0005797929
244	0xbae484e7	-0.0017434628
245	0x3a8cc0d0	0.0010738615
246	0xbab87b36	-0.0014074806
247	0xb9f3507b	-0.00046408534
248	0xba29729a	-0.00064639153
249	0xbb2e2dad	-0.0026577518
250	0xb617a600	-2.2597378e-06
251	0xb86f595a	-5.7065256e-05
252	0x386dfecb	5.6742498e-05
253	0x38bffc71	9.1546106e-05
254	0x3a027658	0.0004976741
255	0xbab6c1b1	-0.0013943223

LGEBs.0.phi_e.3.bias f4 [72]
0	0x3db05f3a	0.08611913
1	0x3e4e0884	0.20120436
2	0xb9d7fa71	-0.0004119459
3	0xbb2e1b16	-0.0026566437
4	0x3e19cfb1	0.15020634
5	0x3b9cc3c5	0.0047840797
6	0xbe3541e2	-0.17700914
7	0x3db98236	0.09058039
8	0x3dc4e4e5	0.09613971
9	0x3e5219df	0.20517682
10	0x3dbc39ce	0.09190713
11	0x3df01db8	0.117244184
12	0xbd6bc03d	-0.05755638
13	0xba8152a1	-0.0009866544
14	0x3e27ae80	0.1637516
15	0xbd68aa63	-0.05680312
16	0x3e040f87	0.12896548
17	0xbb0fd1c7	-0.0021945105
18	0xbc8f4a3d	-0.017491454
19	0xbbcb8c79	-0.006211814
20	0xbb6f178f	-0.0036482548
21	0xbaca34fe	-0.001542717
22	0x3db26952	0.087114945
23	0x3e3b09e2	0.18265489
24	0xbabae120	-0.0014257766
25	0xbd181181	-0.037126068
26	0xbae8cf79	-0.0017762027
27	0xbe1d2ccb	-0.15349118
28	0x3e1b03d5	0.1513818
29	0xbc04dad9	-0.008108818
30	0xbe08f39f	-0.13374184
31	0x3dfc2f11	0.12313665
32	0xbbbc9d25	-0.005756038
33	0xbbc2c245	-0.005943569
34	0xbe9329bf	-0.28742787
35	0xbbf334bd	-0.0074220584
36	0xbed14cc9	-0.40878895
37	0x3df6f9b7	0.12059348
38	0xbaecbd49	-0.0018061782
39	0xbdeca4f3	-0.11554899
40	0x3dc169e3	0.094440244
41	0xbb04a037	-0.0020237097
42	0xbea39ae9	-0.31954125
43	0xbd809d31	-0.06279982
44	0xbc37bdd0	-0.011214688
45	0xbc98d474	-0.018655993
46	0x3cdb66d4	0.02678243
47	0xbc08bf67	-0.008346415
48	0xbeed3eb7	-0.4633691
49	0xbaf8ed62	-0.0018991644
50	0x3cb63f38	0.022246942
51	0x394b395d	0.00019380958
52	0xb92af89a	-0.00016305075
53	0xbdb3f64e	-0.08787213
54	0xbe402eb6	-0.18767819
55	0xba82375e	-0.0009934714
56	0x3d960331	0.073248275
57	0xba61d25d	-0.00086144154
58	0xbdd79126	-0.10525732
59	0x3e2d9a7d	0.16953464
60	0x3def235f	0.116766684
61	0x3ca3546d	0.019937718
62	0xba274587	-0.0006380905
63	0xbcfc920d	-0.030831361
64	0xbb9c6220	-0.0047724396
65	0xba765784	-0.0009397196
66	0xbac4c11f	-0.0015011168
67	0xba64df65	-0.0008730798
68	0xba8b0465	-0.0010606168
69	0xbcc47273	-0.023980355
70	0xbdf2c219	-0.118534274
71	0xba169f3d	-0.0005745774

LGEBs.0.phi_h.0.weight f4 [72, 152]
0	0xbad85e54	-0.0016507604
1	0x3ac4e371	0.0015021396
2	0x38cbe4c0	9.722402e-05
3	0x3b2f09a6	0.0026708632
4	0x3bacb227	0.005270261
5	0xbbd60d7f	-0.0065323706
6	0x3bb50750	0.0055245534
7	0xbb4106df	-0.0029453558
8	0x3a8d0b5a	0.0010760829
9	0xbb93e505	-0.0045133852
10	0x3a6508ea	0.0008736985
11	0xbb9eb51f	-0.0048433687
12	0x3b25afc0	0.0025281757
13	0xbb24a189	-0.0025120697
14	0xbacdfd33	-0.0015715718
15	0x3bcc33ff	0.0062317844
16	0xbb0386f5	-0.0020069454
17	0xba86e35a	-0.0010291145
18	0x3babb6a0	0.0052402765
19	0x3a3d0d4c	0.0007211759
20	0x3b2f02bc	0.002670451
21	0x3bbc0667	0.005738068
22	0x39ef23cf	0.00045612312
23	0xbb90d91f	-0.004420414
24	0xbbd37938	-0.0064536594
25	0xbb9b3a57	-0.0047371793
26	0x3bbe09ba	0.0057994993
27	0xbbd8e34e	-0.0066188937
28	0xbbad85b9	-0.005295482
29	0x3b9918f1	0.0046721627
30	0x3988f7ca	0.0002612456
31	0x3b0d6a80	0.0021578372
32	0xbb50d1ed	-0.0031863407
33	0x3bbb00fa	0.0057069035
34	0x3bdbe379	0.0067104665
35	0x3c042d55	0.008067449
36	0x3b171642	0.0023054038
37	0x3a6325cc	0.0008664995
38	0x3af5c0d5	0.0018749485
39	0xbb38cb92	-0.002819751
40	0xbb36939f	-0.0027858985
41	0x3b6d60ff	0.0036221144
42	0xbbe990a2	-0.0071278373
43	0xba6b24ac	-0.0008970003
44	0xbb51d624	-0.0032018507
45	0x3b9d3caf	0.004798494
46	0x3b09d5c1	0.0021031948
47	0x3b27466c	0.0025524152
48	0x3b4f9f4d	0.0031680644
49	0x3b445861	0.0029959904
50	0xbac2e19b	-0.0014868261
51	0xbb4fd940	-0.0031715184
52	0x3a80ab47	0.000981667
53	0x3ab1a2c6	0.0013552539
54	0xbb0faef2	-0.0021924344
55	0x3bce105f	0.0062885727
56	0xbb5f3e08	-0.0034064073
57	0xb99ff057	-0.0003050591
58	0xbb705668	-0.0036672596
59	0xbb264569	-0.0025370962
60	0xbbd62dcf	-0.0065362225
61	0xbb13907a	-0.0022516535
62	0x3a5334e3	0.0008056892
63	0x3aea1473	0.0017858878
64	0x3b930f83	0.004487933
65	0xbb64538e	-0.0034839842
66	0x3a61be03	0.0008611383
67	0xbbe90356	-0.0071109934
68	0x39f8f797	0.00047486715
69	0xbb9e8237	-0.0048373
70	0xbb3e1440	-0.002900377
71	0xbc17a3ff	-0.009255408
72	0x3a8dd06d	0.0010819562
73	0x3b4b0234	0.0030976655
74	0xbab1835a	-0.0013543174
75	0x39b26453	0.00034025553
76	0xba86ebf0	-0.0010293704
77	0x3b97b65f	0.0046298946
78	0xbbd7ef6a	-0.0065898197
79	0xbab3fddc	-0.0013732272
80	0x3bb3d523	0.0054880544
81	0xbc8e0e0d	-0.017340684
82	0x3b8dc54e	0.004326499
83	0x3b165e91	0.002294455
84	0x3ad11369	0.0015951219
85	0xba0b7748	-0.00053202035
86	0x3967c6c4	0.00022103923
87	0x3a036ccb	0.0005013465
88	0x3b8751c8	0.004129622
89	0xba87389f	-0.0010316557
90	0x39b91cb0	0.00035307324
91	0x3b81cafd	0.0039609657
92	0xba15a9d8	-0.00057092076
93	0xbc09a149	-0.00840027
94	0x3c335c4a	0.010947296
95	0x3a312d0f	0.00067587284
96	0xbae39601	-0.001736343
97	0x3a2c5963	0.0006574599
98	0x3af67f92	0.001880633
99	0x3c04f049	0.008113929
100	0xbc053ee6	-0.008132672
101	0xbb72be65	-0.0037039754
102	0x3bffa0d2	0.0078011537
103	0x3ba036f9	0.0048893658
104	0xbae3587d	-0.0017345097
105	0x393e9479	0.00018175122
106	0xbc0fb2e8	-0.008770682
107	0x3b0fc33c	0.0021936437
108	0xbb763a91	-0.003757153
109	0xbb3bec04	-0.0028674612
110	0x3a3eb95f	0.0007275547
111	0xbbdf186a	-0.0068083303
112	0x3aa4cbb4	0.0012572915
113	0x3b1e4b08	0.0024153609
114	0xbbb7fd2a	-0.0056148963
115	0xbb8a82df	-0.004227027
116	0xbb32b00c	-0.0027265577
117	0x3b44fbac	0.0030057235
118	0xbaacb6e6	-0.0013177067
119	0x3b812c00	0.003942013
120	0xbbf85cd9	-0.0075794277
121	0xbab67f0f	-0.0013923364
122	0x3c3ba519	0.011452937
123	0xbb824c9a	-0.003976417
124	0x3aa566fd	0.0012619194
125	0x3c1c2287	0.009529716
126	0xbb9c8d7f	-0.00477761
127	0x3a067ae5	0.0005130007
128	0x3a92e18b	0.0011206133
129	0xb9604e83	-0.00021391553
130	0x3b7d2d08	0.0038631577
131	0x3b45fa0c	0.0030208854
132	0x3c1f2150	0.009712532
133	0x3b2f93dd	0.0026791014
134	0xb76e2d16	-1.4196403e-05
135	0x3c4d139d	0.012516883
136	0xbb354137	-0.002765728
137	0xbb128882	-0.0022359197
138	0x3a076a1e	0.0005165654
139	0x3a33ba0e	0.00068560324
140	0x3a420ecb	0.0007402717
141	0x3b885432	0.0041604275
142	0x39886eeb	0.00026022582
143	0x39c2239d	0.00037029097
144	0x3ad7ee4a	0.0016474214
145	0x3b3e794e	0.0029064002
146	0xb9acf4a8	-0.0003298868
147	0xbbd9c836	-0.0066461815
148	0x3b478bef	0.0030448397
149	0x3c0052c0	0.007832229
150	0x3b3dd1af	0.0028964092
151	0x3c1bd9e7	0.009512401
152	0xbd12c60f	-0.035833415
153	0x3d509506	0.05092337
154	0x3cbde682	0.023181204
155	0x3c82b393	0.015954768
156	0xbc72e5bb	-0.01482528
157	0xbb6889cd	-0.0035482526
158	0x3c9da1ab	0.019242128
159	0x3c12207a	0.008918876
160	0xbb2d6a5c	-0.00264611
161	0xbb31478a	-0.0027050697
162	0x3c1a6b37	0.009424976
163	0xbb36fa14	-0.0027920054
164	0xbc235ae0	-0.009970397
165	0xbc7295ef	-0.014806255
166	0xbcc0f835	-0.023555854
167	0xbc7805ea	-0.015138129
168	0xbcaac767	-0.020847036
169	0x3cfcaf80	0.030845404
170	0x3cab3a45	0.020901809
171	0x3ca9be72	0.020720694
172	0xbb107afe	-0.0022045965
173	0x3cd3e1a1	0.025864424
174	0x3d1561c1	0.03647018
175	0xbcf3df52	-0.029769573
176	0x3bc3f0f5	0.005979652
177	0x3c056f41	0.008144201
178	0x3bb62af4	0.0055593196
179	0x3c3073e7	0.010769821
180	0xbd713840	-0.058891535
181	0xbc631688	-0.013860352
182	0x3bd792b3	0.006578767
183	0x3c01f5ab	0.007932107
184	0x3be3b783	0.0069493665
185	0x3c1681c1	0.009186209
186	0xbcc5bb16	-0.024137061
187	0xbcb7ed19	-0.022451924
188	0xbcca78d1	-0.024715813
189	0xbca6e067	-0.020370675
190	0xbb5fc205	-0.0034142744
191	0xbcd2f457	-0.025751276
192	0x3b99c690	0.00469286
193	0xbc855b58	-0.016278908
194	0x3a9f06d0	0.0012132768
195	0xbd27d28d	-0.04097228
196	0x3d89166b	0.06693729
197	0x3bf8d58d	0.0075938166
198	0x3c3863db	0.011254276
199	0x3ca4d6a8	0.020121887
200	0xbcaa4eb0	-0.020789474
201	0x3c07df4b	0.008292983
202	0x3ca54d72	0.02017853
203	0x3c18e772	0.009332525
204	0x39b73ebe	0.00034951227
205	0x3c74a8ad	0.014932794
206	0x3cce71f9	0.02520083
207	0xbc067db6	-0.008208683
208	0xbbc29546	-0.005938205
209	0x3b512b44	0.0031916657
210	0x3c632ae6	0.013865208
211	0xbc8c9e02	-0.017165188
212	0x3c2c93cb	0.010533283
213	0x3b02b318	0.0019943174
214	0x3a0e4463	0.00054270605
215	0x3c948316	0.018128913
216	0x3cb326f0	0.021869153
217	0xbd45408a	-0.048157252
218	0xbc7eb07b	-0.015545006
219	0x3bb1e44c	0.0054288264
220	0x3cb8c339	0.022554027
221	0x3c6fbcdb	0.014632429
222	0xba6c639a	-0.00090175273
223	0x3b99e346	0.0046962826
224	0xbd1959ad	-0.037439037
225	0x3b2293dc	0.002480737
226	0xb9980192	-0.0002899287
227	0xbaea467c	-0.0017873789
228	0x3c16e211	0.009209172
229	0xbce87096	-0.028373998
230	0x3c2fc54e	0.010728193
231	0x3d20db7b	0.039271813
232	0x3c145d32	0.009055423
233	0x3d1de8a3	0.038551938
234	0x3c439f40	0.011939824
235	0x3c2c488a	0.010515342
236	0x3d6ad2a5	0.057329793
237	0xb94d21cb	-0.00019562912
238	0xbd088e10	-0.033338606
239	0x3cfe797c	0.031063788
240	0x3c07c9d4	0.008287866
241	0xbb2cccbd	-0.002636715
242	0x3c477bba	0.012175495
243	0x3990ec42	0.00027641846
244	0x3aec5365	0.0018030225
245	0xbb8ff51b	-0.0043932325
246	0xbc2efb21	-0.010679991
247	0xba99b7dc	-0.0011727768
248	0x390fcf79	0.00013714832
249	0x3cf9f83d	0.030513877
250	0x3729f4d5	1.0130189e-05
251	0xbd0d6a8c	-0.03452544
252	0xbd078701	-0.033087734
253	0xbb4116d1	-0.0029463063
254	0x3c9d90cb	0.019234082
255	0xbcea6e34	-0.028617002

LGEBs.0.phi_h.0.bias f4 [72]
0	0x39835619	0.00025050415
1	0xb981d6b6	-0.0002476477
2	0xba2e8ccb	-0.0006658553
3	0xb88532d5	-6.3514024e-05
4	0xb9a0056f	-0.00030521626
5	0x3a103989	0.00055017375
6	0xb922605d	-0.00015485422
7	0x3863db01	5.432498e-05
8	0x39252ca7	0.0001575226
9	0x39bd3067	0.00036084952
10	0x3951bb82	0.00020001645
11	0x3997ac9a	0.00028929563
12	0x39a527c7	0.0003150089
13	0xb9f70eda	-0.00047122577
14	0x3a41652a	0.00073774403
15	0xb941294d	-0.000184213
16	0xb7e3c95e	-2.7154278e-05
17	0xba148bcf	-0.0005666585
18	0xb9cb8c74	-0.00038823823
19	0xb9d98695	-0.00041489737
20	0x3a81e892	0.000991123
21	0x3818884d	3.6366564e-05
22	0xb951bcfd	-0.00020002197
23	0x3a1dc0a1	0.00060177787
24	0xb9faeae1	-0.00047858714
25	0xb9fb2475	-0.00047901613
26	0x39c511c8	0.00037588016
27	0x3992aa75	0.0002797429
28	0x396e3f2b	0.0002272098
29	0x3a454a0e	0.00075259886
30	0xba2594b0	-0.00063164067
31	0xb9d502d3	-0.0004062863
32	0xb991b90b	-0.00027794423
33	0xba0b5dc1	-0.00053163996
34	0xb90c2705	-0.00013365976
35	0xb9411de8	-0.00018417055
36	0x39c16a38	0.00036890968
37	0xb9de5aae	-0.000424107
38	0xba0ee81e	-0.0005451458
39	0xb9124839	-0.0001395055
40	0xb9d13fcf	-0.00039911128
41	0xb9071f01	-0.00012886153
42	0xba04a683	-0.00050602126
43	0xb85fe9af	-5.3384978e-05
44	0xb9ec9612	-0.0004512524
45	0xb972d666	-0.00023158788
46	0xba159c4a	-0.0005707188
47	0x399be813	0.00029736813
48	0x3a148c3c	0.00056666485
49	0x39d2659f	0.00040130035
50	0x3a04c73d	0.0005065089
51	0xb8fa7ca3	-0.00011944144
52	0x38832607	6.25365e-05
53	0x39a5aa5e	0.00031598186
54	0x3a18f73c	0.00058351806
55	0x394260bd	0.0001853732
56	0xb957f0b5	-0.00020593668
57	0x3a1636f0	0.0005730232
58	0xba6dcd7c	-0.0009071452
59	0xb7bed357	-2.2748178e-05
60	0xb9e84363	-0.00044300695
61	0x3a0ec795	0.000544661
62	0x38be074b	9.0612644e-05
63	0xb8a8d5dc	-8.050699e-05
64	0x39e7660d	0.00044135787
65	0xb891445f	-6.926874e-05
66	0x3a313fc4	0.0006761516
67	0xb9ebade9	-0.00044952266
68	0xb927764a	-0.00015970427
69	0xba250535	-0.00062950264
70	0xb9a69d19	-0.00031779034
71	0xb945b0e0	-0.00018853275

LGEBs.0.phi_h.1.weight f4 [72]
0	0x392dfb36	0.00016592149
1	0xbacf8d3c	-0.0015834938
2	0x3e477a90	0.19480348
3	0x3a770489	0.0009422978
4	0x3ad351f1	0.0016122443
5	0x3ad27e4e	0.001605937
6	0x3a8db03e	0.001080997
7	0x38aca4fb	8.232329e-05
8	0x3a6c2592	0.0009008284
9	0x3a6fba43	0.00091448816
10	0x3a087827	0.00052058924
11	0x39b49732	0.00034444925
12	0x3e5f1c03	0.2178803
13	0x3a384652	0.00070295215
14	0x3e0e99cb	0.13925855
15	0x3df7d0d9	0.121003814
16	0x3dca35c4	0.09873536
17	0x3b52269a	0.0032066465
18	0x3a6e247d	0.00090844167
19	0x3e38b0fb	0.18036263
20	0x3e30fac2	0.17283157
21	0xba62826d	-0.0008640651
22	0x3e7b453b	0.24538128
23	0x3dc95c31	0.09832037
24	0x3a983dd9	0.0011615112
25	0x3bdf0c90	0.0068069175
26	0x3a9571f9	0.0011401764
27	0x3e7590e3	0.23981051
28	0x3e8d0dd4	0.27549613
29	0x3ddac234	0.106815726
30	0xb8c26436	-9.2693066e-05
31	0x3e2686a5	0.162623
32	0x3e512e9e	0.2042794
33	0x388b9038	6.654899e-05
34	0x3b48f870	0.0030665658
35	0x3e4a6916	0.1976665
36	0x3e86d481	0.26334003
37	0x3b23c3ca	0.0024988526
38	0x3e41ecb1	0.18937947
39	0x3b6abbde	0.0035817544
40	0x3e64b5a3	0.22334914
41	0x3cef8ac2	0.02924097
42	0x3b2e33a8	0.0026581082
43	0x3e130ad1	0.14359595
44	0xb9d0b150	-0.0003980496
45	0x3e2b83e6	0.16749534
46	0x3b5a2873	0.003328827
47	0xb9b82234	-0.00035120698
48	0x3b070c1b	0.002060658
49	0xb72e8699	-1.0402547e-05
50	0x3e0d813e	0.13818833
51	0x3a8ac625	0.0010587616
52	0x39cbb398	0.00038852985
53	0xba18b5b9	-0.00058254186
54	0x394f72d3	0.00019783834
55	0x3decd121	0.11563326
56	0x3bc55ea8	0.006023247
57	0x3bbcefde	0.005765899
58	0x3e919c8a	0.28439742
59	0x3e0c0c94	0.13676673
60	0x3af0ab13	0.0018361531
61	0x3a9c5058	0.00119258
62	0x3e5654c8	0.20930779
63	0x3dc6bcb0	0.09703958
64	0x3e1dda25	0.15415247
65	0x3dd8ee05	0.105922736
66	0x3e7ad885	0.24496658
67	0x3b457af8	0.003013311
68	0x3995ad75	0.0002854873
69	0x3b124729	0.0022320247
70	0x39742edd	0.00023287111
71	0x3b0303b5	0.0019991223

LGEBs.0.phi_h.1.bias f4 [72]
0	0xbc329a69	-0.010901072
1	0xbcd4418b	-0.02591016
2	0x3cc80a6f	0.024419038
3	0xbbf41773	-0.0074490844
4	0xbb08af7c	-0.002085655
5	0xbc138c90	-0.009005681
6	0xbc71546b	-0.0147295995
7	0xbb6b6ba0	-0.0035922304
8	0xbba0d290	-0.0049079135
9	0xbbf2fb9a	-0.007415247
10	0xbb37558c	-0.0027974574
11	0xbb7f2d6a	-0.003893698
12	0xbceba660	-0.028765857
13	0xbb83c426	-0.0040211855
14	0x3de6167a	0.11234756
15	0xbda82680	-0.08210468
16	0xbdb2d353	-0.08731713
17	0xbc8a0fa9	-0.01685317
18	0xbb81e69c	-0.0039642584
19	0x3c44c532	0.012009906
20	0xbe1872ee	-0.14887592
21	0xbcafd48b	-0.021463653
22	0xbc91b984	-0.017788656
23	0xbd8abcf6	-0.06774323
24	0xbb9c39fc	-0.0047676545
25	0xbd256a2c	-0.040384457
26	0xbb9c903d	-0.0047779367
27	0x3d4dd502	0.05025197
28	0xbca736b8	-0.020411834
29	0xbd1fa359	-0.03897414
30	0xbb9f1819	-0.0048551676
31	0xbdf26862	-0.11836316
32	0xbcaa2952	-0.020771656
33	0xbb7600d0	-0.0037537105
34	0xbc5b8857	-0.013399205
35	0xbc9394b7	-0.018015249
36	0xbe4819b2	-0.19541052
37	0xbba802ab	-0.005127271
38	0xbda55837	-0.08073466
39	0xbb8bf59a	-0.0042712213
40	0x3d7a9015	0.061172564
41	0xbdb55a23	-0.08855083
42	0xbbab5f26	-0.0052298484
43	0xbdcd25e2	-0.10016991
44	0xbc017e5d	-0.0079036625
45	0xbc97c948	-0.018528596
46	0xbca49ee7	-0.020095302
47	0xbba4081a	-0.0050058486
48	0xbb961f64	-0.004581379
49	0xbb7c1cfa	-0.003846942
50	0xbd30e6e9	-0.043188963
51	0xbbb9abe0	-0.005666241
52	0xbb74b854	-0.0037341313
53	0xbc35ecd9	-0.011103832
54	0xbbae6a76	-0.0053227497
55	0xbdac6a54	-0.08418718
56	0xbce942d3	-0.028474247
57	0xbc786b65	-0.015162324
58	0xbd9c29c2	-0.07625152
59	0xbcd8c878	-0.026462778
60	0xbba3f715	-0.0050038197
61	0xbc1094e9	-0.008824565
62	0xbc50398b	-0.012709032
63	0x3c9338db	0.017971447
64	0xbd979aed	-0.074025966
65	0x3cb3f128	0.021965578
66	0xbdc34bb1	-0.09535921
67	0xbcd787ca	-0.026309866
68	0xbaeb5458	-0.0017954214
69	0xbc954368	-0.018220618
70	0xbbc8e067	-0.0061302665
71	0xbc633845	-0.013868396

LGEBs.0.phi_h.1.running_mean f4 [72]
0	0x3c155967	0.009115553
1	0xbdaf8ed1	-0.08572162
2	0xbd001cb6	-0.03127738
3	0xbc11e1ec	-0.008903962
4	0xbcb9d18c	-0.022682928
5	0xbd506406	-0.05087664
6	0x3d57a2cf	0.0526455
7	0xbc366785	-0.011133079
8	0xbc3edc9f	-0.01164928
9	0xbce3eb64	-0.027822204
10	0xbce210c7	-0.02759589
11	0xbc8a2552	-0.016863499
12	0x3f4cc709	0.79991204
13	0xbcd128fb	-0.025532236
14	0xbf718140	-0.94337845
15	0x3f2c950e	0.6741494
16	0xbfc505ab	-1.5392355
17	0x3e83676b	0.2566484
18	0xbcdc08c7	-0.026859654
19	0xbf135083	-0.57544726
20	0xbaa07ee4	-0.0012244848
21	0xbe6a33ec	-0.22871369
22	0x3f884927	1.0647324
23	0x3ece86f1	0.40337327
24	0xbc440381	-0.011963726
25	0xbf162cd6	-0.58662164
26	0xbc6c5845	-0.014425342
27	0xbff5fc94	-1.9217706
28	0xc007abcd	-2.119861
29	0xbfa0c10f	-1.2558917
30	0xbd5e369b	-0.054251295
31	0x3e03b295	0.12861092
32	0xbf7b78f3	-0.9823143
33	0x3c33fe63	0.0109859435
34	0xbc7b0b8b	-0.015322576
35	0xc0259184	-2.5870066
36	0xbfdc496f	-1.720991
37	0xbc80034c	-0.015626572
38	0x3f432885	0.762337
39	0xbc033106	-0.008007294
40	0xbf412527	-0.75447315
41	0xbe8be4e7	-0.27323076
42	0xbc65322b	-0.013989012
43	0xbf0b6e90	-0.5446558
44	0xbcec98be	-0.028881427
45	0x3fc8ceca	1.5688107
46	0xbd96a27b	-0.073552094
47	0x3c9a331d	0.0188232
48	0xb96f6724	-0.00022831239
49	0xbc9a532b	-0.018838486
50	0xbf89e731	-1.0773679
51	0xbd80bb1e	-0.0628569
52	0xbd1005c8	-0.035161763
53	0xbc774311	-0.0150916735
54	0xbdd97f3d	-0.10619972
55	0xbf0e6adb	-0.556318
56	0x3d8e1720	0.069380045
57	0x3e07706e	0.13226482
58	0xbf910de8	-1.1332369
59	0x3eb3a2a3	0.3508502
60	0xbce581cb	-0.028015992
61	0xbe04abfd	-0.12956233
62	0xbfb3dd2d	-1.4051872
63	0x3f42f70f	0.7615823
64	0x3fec33f4	1.8453355
65	0xbe657dcc	-0.22411269
66	0xbfc9d9d4	-1.5769601
67	0xbde1f045	-0.11032156
68	0xbdc1d060	-0.094635725
69	0xbe2b9bb0	-0.16758609
70	0xbdb5b6f7	-0.088727884
71	0xbdedbab0	-0.116078734

LGEBs.0.phi_h.1.running_var f4 [72]
0	0x3a091754	0.00052296114
1	0x3c8da5da	0.017290998
2	0x400eeddf	2.2332685
3	0x3a451c36	0.00075191574
4	0x3a84e3e9	0.0010138723
5	0x3b23e0ba	0.0025005774
6	0x3c6b29d4	0.014353234
7	0x3ae0cdc9	0.0017151173
8	0x3936db83	0.00017438647
9	0x3ac523e6	0.0015040606
10	0x3986aaff	0.00025685874
11	0x3a0f8d22	0.00054760475
12	0x3eaa1d9b	0.33225712
13	0x3b2cf748	0.0026392508
14	0x3fddf3e1	1.7340051
15	0x3f02d94a	0.51112807
16	0x3fb982b5	1.4493014
17	0x3c752cf7	0.014964334
18	0x39ce4aaa	0.0003934701
19	0x3f83c273	1.0293716
20	0x3f26a381	0.6509324
21	0x3cbb4903	0.022861963
22	0x403f9000	2.993164
23	0x3f2112bb	0.62919205
24	0x3af090d1	0.0018353706
25	0x3db55163	0.08853414
26	0x3a6e8b49	0.00090997346
27	0x400767e8	2.115717
28	0x40680ca5	3.6257718
29	0x3fc2b151	1.5210363
30	0x3ab59edf	0.0013856551
31	0x3fc9ae1e	1.5756261
32	0x3f0abaf3	0.5419151
33	0x3ba9320c	0.0051634368
34	0x3be96a46	0.0071232645
35	0x3ffbe2ef	1.967863
36	0x403b548d	2.9270356
37	0x39b92274	0.0003531162
38	0x3e79646a	0.24354711
39	0x38813c91	6.162481e-05
40	0x40239616	2.5560355
41	0x3f18dce5	0.5971206
42	0x3a34566b	0.00068793324
43	0x3f5a8474	0.8535836
44	0x3ad70b7c	0.0016406621
45	0x3ff61c86	1.9227455
46	0x3c836833	0.016040897
47	0x38f4ceeb	0.00011673368
48	0x3a433a1e	0.000744732
49	0x3ab6e330	0.0013953205
50	0x3f91c0fb	1.1387018
51	0x3b62563d	0.0034536265
52	0x3a22cad1	0.00062100316
53	0x3b82ce41	0.0039918725
54	0x3b1de103	0.0024090416
55	0x3eaea500	0.3411026
56	0x3c2351d6	0.009968242
57	0x3e06f6aa	0.13180032
58	0x40297433	2.6477172
59	0x3eaf52f7	0.34242985
60	0x3a8ccaaf	0.0010741557
61	0x3c318dc2	0.01083702
62	0x3f3e0b6b	0.7423617
63	0x3f6fd6e1	0.93687254
64	0x3fa63a25	1.2986494
65	0x3f44c37d	0.7686079
66	0x3fa4e585	1.2882544
67	0x3c553d75	0.013015141
68	0x3c0bff12	0.0085447
69	0x3c88841d	0.016664559
70	0x3ace89f6	0.0015757668
71	0x3c299d8f	0.010352506
