data/LorentzNet_model_2023May30_wPdgId.pt (torch, 958129 bytes, 117 tensors)

embedding.weight f4 [72, 7]
000000 55 44 0f 3e 24 b0 51 bd 68 3e 17 3e 98 f2 2c be
       0.1399091 -0.05119337 0.147699 -0.16889417
000010 6a e8 2f bd 7b 3a 91 be 34 5a 0d bd 14 8d e7 bb
       -0.042946257 -0.2836493 -0.034509853 -0.0070663784
000020 2a 5a 8d bd 64 6b b7 bb d8 c2 4e bb e6 0a 8a ba
       -0.06901963 -0.0055975188 -0.0031549241 -0.0010531812
000030 78 58 02 bc 4c 95 98 b9 05 ff be bc 8c b9 67 be
       -0.007955663 -0.00029102934 -0.023314962 -0.22629374
000040 0c 7e b5 3c 59 08 3d 3e 68 4f c1 bd 02 d8 be be
       0.02215483 0.18460216 -0.09438974 -0.37274176
000050 59 73 03 3d 66 4b d2 3d f0 e9 bb bc 35 ca 69 bd
       0.032092426 0.10268287 -0.022938699 -0.057077605
000060 e3 69 0c bd d2 68 77 bc e8 1e 6d 3e c7 14 d5 ba
       -0.03428067 -0.015100675 0.23156321 -0.0016256802
000070 84 1f bf bb b2 e9 30 bd 89 a6 10 3c 04 74 2f 3b
       -0.0058326144 -0.04319162 0.008828768 0.0026772032
000080 11 1f 4b 3b 0c 4f b8 39 5f d4 ff 3b a8 5e b3 3a
       0.0030993859 0.0003515411 0.007807299 0.0013684826
000090 19 37 ed bd 5c 76 03 bc a6 7f 10 bc 4f 94 ec bb
       -0.11582775 -0.008023825 -0.008819496 -0.007219828
0000a0 b1 16 30 bb ba 39 88 bb b7 8e f1 3c bf f6 7d 3d
       -0.0026868994 -0.004157272 0.029486997 0.062002894
0000b0 9b 14 c7 3b 14 2d c3 3b 02 f9 ab 3b d8 5a 22 3b
       0.0060754544 0.0059563015 0.00524819 0.0024773385
0000c0 5e 5d b1 3b b6 71 d7 39 69 95 fa 3d 0b 8a c2 bb
       0.0054127416 0.00041092717 0.12235529 -0.005936866
0000d0 bf 3f e0 bb a1 e3 24 3b 6a 72 a3 3c a2 90 77 bb
       -0.0068435366 0.0025160091 0.019952018 -0.0037775417
0000e0 37 9a 76 3d 72 3a 6c be 82 de cc bd c6 b4 b6 bd
       0.060205664 -0.2306917 -0.100033775 -0.089211985
0000f0 69 99 30 be 55 d7 f6 bd 7d 59 f8 39 09 ec a0 3c
       -0.17246021 -0.1205279 0.0004736892 0.0196438
000100 6d 8f 43 3d fd f4 d9 ba 60 cf ba b7 8f 93 6b 3b
       0.047744203 -0.0016628798 -2.2269494e-05 0.0035946106
000110 39 c3 5c bb 23 61 7f 3b b0 b2 10 3b ad cb ae 3d
       -0.0033685698 0.003896781 0.0022079162 0.08534942
000120 0d 6c 03 bc 24 cf 58 bc f0 05 2b bb 95 e9 7f 3b
       -0.008021367 -0.01323298 -0.0026096068 0.0039049138
000130 c6 38 04 bc 44 60 32 3d 28 51 4f bd 25 f8 b1 3b
       -0.0080701765 0.043548837 -0.050614506 0.0054311925
000140 bd 13 49 b9 be 50 c0 3b 63 99 cd 3c 7c 8d 0c bc
       -0.00019176207 0.005869 0.025097555 -0.008578654
000150 b4 51 f0 bb 0b f8 8c bd 0b 3b 95 ba 2b 35 63 bc
       -0.0073339585 -0.06883248 -0.0011385394 -0.013867657
000160 67 6a f7 3b 1e 42 23 bc d9 fc 03 3c c8 35 3f be
       0.007550526 -0.009964494 0.008055889 -0.1867286
000170 c5 32 54 3d a9 28 e9 3d 6d d5 66 3e 97 dd f6 3d
       0.05180623 0.113847084 0.22542353 0.12053984
000180 a5 27 33 3d 8a f1 c3 3d 47 8c 91 be 10 e7 84 be
       0.04373898 0.09567554 -0.28427336 -0.25957537
000190 ce d0 a2 bd fc 04 b3 bd a1 46 6d be ed 1b 85 3e
       -0.079499826 -0.08741185 -0.23171474 0.25997868
0001a0 f5 98 ce 3b e3 c5 43 bc a1 d8 8f 3c ab 82 40 bc
       0.006304855 -0.011949035 0.017559351 -0.011749904
0001b0 f0 65 0d 3e 4f 08 07 3a 05 4a 9d bd 50 fd 2d 3a
       0.13808417 0.00051510794 -0.07680134 0.0006637173
0001c0 b4 77 de 3b e1 d9 63 3d 3d bf 5f bb b8 71 a2 bb
       0.006789172 0.055627707 -0.0034141087 -0.004957404
0001d0 a8 08 aa bb a7 b0 0a bc 77 78 3f bc bc 4f bb bc
       -0.00518902 -0.008464969 -0.011686436 -0.022865169
0001e0 3e 94 d5 3d 0b c2 63 bd 02 bf b0 be 4b 66 98 bd
       0.104286656 -0.055604976 -0.34520727 -0.07441386
0001f0 4a 76 6e bd c7 59 05 bc 8b e8 7d bb af 51 47 3d
       -0.058218278 -0.00813908 -0.0038743343 0.048661884
000200 a0 fd b6 bb 3f ec 63 bb 00 14 1f 3b 10 cd 02 3c
       -0.0055844337 -0.0034778265 0.0024273396 0.007983461
000210 57 e8 b4 3a 0e 93 0c be df 86 ee 3d eb 89 4c be
       0.0013802153 -0.13727972 0.11646818 -0.19974487
000220 2d 6f 02 3e 7b 5b ce 3d 9a 22 95 bd 1c 43 b5 ba
       0.12737723 0.10076042 -0.0728199 -0.0013829204
000230 e7 97 7d be 23 bf e1 bc 71 7d 38 be de d1 4c be
       -0.24764977 -0.027556961 -0.18016602 -0.20001933
000240 0e e8 2a be cc 71 38 3e c5 0f dd bc 6f 1c 62 bc
       -0.16690084 0.1801216 -0.026985059 -0.013800724
000250 ca b3 9a 3d dd b5 03 39 17 e5 a9 bb 46 bd b3 3b
       0.07553823 0.00012560883 -0.0051847803 0.0054852096
000260 0c 1e 74 bc af e8 3f bb ba 45 7a 3c c3 33 79 bd
       -0.014899742 -0.0029282977 0.015275413 -0.06084038
000270 9b 17 34 3b 79 49 bb bc 79 e0 d1 bb ee f5 4b ba
       0.002747989 -0.022862183 -0.006404933 -0.0007780482
000280 e9 fe 86 ba 76 2b 72 3c 3f 8c 17 be 79 7f 34 bc
       -0.0010299358 0.01478087 -0.14799593 -0.01101672
000290 01 21 0b bb b6 d9 db bb da 9b a3 bc 0c 41 86 3c
       -0.0021229389 -0.006709303 -0.019971777 0.016388439
0002a0 1e b4 46 bc 81 fb d8 3d 29 57 3a bc 02 0e 25 bb
       -0.012127904 0.105948456 -0.01137332 -0.0025185351
0002b0 e8 5d b9 39 9f c1 1a bc e5 39 5c 3a a8 26 2f be
       0.00035355915 -0.009445577 0.0008400961 -0.1710459
0002c0 f1 c6 45 be 69 45 8e bc 8a 90 2d 3e 2d 3a b8 bc
       -0.19314171 -0.017367082 0.16949669 -0.022488678
0002d0 82 cf a4 be 3d fd 2b bc 57 4e 19 bc d6 12 80 bd
       -0.32189566 -0.010497388 -0.009357057 -0.06253593
0002e0 b4 48 d7 ba 0f 2d 6c bc 9b 77 f3 ba 42 06 8d bc
       -0.0016424865 -0.01441504 -0.0018575074 -0.017214898
0002f0 b3 52 08 bc a9 e1 6c 3c 77 6a 49 3d 03 d7 8c bb
       -0.008320498 0.014458098 0.0491738 -0.0042980923
000300 d1 0d 5c 3b 30 09 29 b9 61 89 7d bc ad 80 d9 bb
       0.003357757 -0.00016120519 -0.015474648 -0.006637654
000310 5c 9a 68 3c 15 9c 0b 3e a1 79 d3 3b 82 35 0d 3c
       0.014196958 0.1363376 0.0064537083 0.008618714
000320 4f de 45 39 9b dd 39 bb 81 2f 81 bc c7 18 3b bd
       0.000188702 -0.0028360847 -0.015769722 -0.045677926
000330 30 ba 34 be 9b 01 b0 3b 1f b0 84 3b 13 95 28 3a
       -0.1764915 0.005371285 0.0040493156 0.0006430905
000340 11 fe b2 3c 9f 45 63 3c 60 ea dc be 93 36 1b be
       0.021849664 0.013871579 -0.43147564 -0.15157537
000350 5f c9 1e 3e c2 2a 69 3e f4 4b 40 be d6 fc f5 3d
       0.15506504 0.22770217 -0.18778974 0.12011115
000360 db 71 41 bd 10 0d 0e bc f1 6a 25 bd 90 de b4 bb
       -0.04722772 -0.0086701065 -0.04038519 -0.0055196956
000370 37 69 ce 3b 29 7b 05 3b 5a 50 f1 bb 26 58 a5 b9
       0.0062991637 0.0020367599 -0.007364315 -0.00031536928
000380 5e 36 90 3a 11 cf 72 bd 40 ef d4 3b 8a 0d 85 bb
       0.0011002531 -0.059279505 0.0064982474 -0.004060452
000390 0a 01 a7 b9 4d 44 1b 3a 21 70 09 3b a2 5e e1 3b
       -0.00031853496 0.00059229584 0.0020971375 0.006877736
0003a0 ee ed ff 3c f6 4b c5 ba 14 80 28 bb b3 e0 05 bb
       0.031241383 -0.0015052545 -0.0025711106 -0.002042812
0003b0 81 17 af bb 8a 31 14 3b 04 b7 b7 3c 24 a5 41 bc
       -0.005343378 0.0022612535 0.022426136 -0.011819158
0003c0 c9 69 fb b9 4e d7 f4 bb e3 74 7b 3b 23 dd 8c 3b
       -0.00047953267 -0.0074719554 0.003836923 0.0042988225
0003d0 b8 42 05 3c 6e 71 8e ba 38 b8 f8 3d 4d a2 5f 3b
       0.008133583 -0.0010867545 0.12144512 0.0034123838
0003e0 3d 10 98 bb d0 df 5e 3b 11 95 1e bc ef aa 4e bc
       -0.0046406076 0.0034007914 -0.009679095 -0.012613996
0003f0 51 f0 66 3c 75 6d 06 3d 60 1e da bb 69 75 fe bb
       0.014095382 0.03281923 -0.006656453 -0.007765461

embedding.bias f4 [72]
000000 3e 84 73 bc a7 ec fe 3c 0f 0c cf bc ff b9 58 bb
       -0.014863072 0.031118704 -0.025274305 -0.0033069847
000010 5f 59 27 3b 8c c0 af 3a 92 d6 34 bb 92 8e 58 b9
       0.0025535447 0.0013408824 -0.0027593714 -0.00020652477
000020 02 70 0c 3c c0 db 4b ba 0c 7d de 3b 2c 25 37 bb
       0.008571627 -0.0007776581 0.006789809 -0.002794574
000030 f9 a5 ac bc b7 3e 00 bd 5b b5 14 bd 21 f0 a4 3b
       -0.021075236 -0.03130981 -0.036305767 0.0050335084
000040 b7 b3 8e 3c cf e6 45 bd 80 08 f0 bb d9 e4 8d 3b
       0.01741968 -0.04831582 -0.007325232 0.0043302593
000050 ef 97 bf 3c 2a a3 ef bc 9f b8 01 bd e4 15 81 3c
       0.023387877 -0.029252607 -0.03167021 0.015757509
000060 0d 5c e2 3b 91 be 03 bc 1a 24 18 bc 8b 34 3d 3c
       0.006907946 -0.00804104 -0.009285951 0.011548172
000070 98 22 cb 3c 96 94 32 3c 2b 32 5d bd 0d e4 dc 3c
       0.024796769 0.010899683 -0.054002922 0.026964212
000080 09 55 21 bc 25 5f b1 bc 52 bb ab bc 26 40 a9 3a
       -0.009846934 -0.021651814 -0.020963345 0.0012912794
000090 81 13 c9 3c c4 b8 65 bc 8e 2b 21 3d d9 28 2a 3c
       0.024545433 -0.014021102 0.039348178 0.010385715
0000a0 b7 fe 99 3c e8 72 47 3b 21 23 61 3c 92 90 ee bc
       0.018798215 0.003043348 0.013741286 -0.02912167
0000b0 2b f2 d5 bc 7e 0d b2 ba 31 82 89 39 ea ce b3 3b
       -0.026116451 -0.0013584343 0.00026227676 0.0054873126
0000c0 32 17 89 3c 32 fc 3e 3d fe 27 9d 3b 7b 29 24 bc
       0.016734693 0.04662723 0.004796027 -0.010019655
0000d0 ee ad 40 3c f1 fa 02 bc 30 95 bf bb 8f 93 ee 3a
       0.011760218 -0.007994399 -0.005846642 0.0018201935
0000e0 99 9d 70 bc 0a b8 f7 3c 05 d8 9e 3c 77 a3 8c bc
       -0.014686012 0.030239124 0.019390116 -0.01716779
0000f0 17 e7 75 bd 94 1c 5a 3b 28 d2 a1 3c 9c 94 4b bd
       -0.060034838 0.0033281194 0.01975353 -0.04970227
000100 a6 e9 d2 3b df 9e a8 bc a0 6d 91 bc 64 71 36 bb
       0.0064365445 -0.020583568 -0.017752469 -0.0027838582
000110 67 d8 04 bd 5d 58 ec 3b 89 a8 a0 3c 01 d4 b2 bc
       -0.03243294 0.007212682 0.019611614 -0.021829607

LGEBs.0.phi_e.0.weight f4 [72, 146]
000000 65 27 40 be c9 b8 c3 3d 81 c1 d0 3e d5 ed 45 3d
       -0.18765028 0.09556729 0.40772632 0.048322517
000010 c5 8c b1 bb ee 35 0f bd a9 82 ca 3c e1 aa 0d bd
       -0.0054183924 -0.03496354 0.024720507 -0.03458679
000020 76 25 62 3d 7d a7 8c bd 51 de 83 bd 4d d1 b1 be
       0.055211507 -0.06867883 -0.06438888 -0.34729996
000030 78 1b 93 bd 68 4c 94 3e 48 e4 27 bd ba 0e cf 3e
       -0.071829736 0.28964543 -0.04098919 0.40440923
000040 0d 8c 3b bd 07 b3 b3 be 3d 50 f5 3c e2 64 53 3e
       -0.04578786 -0.35097525 0.029945487 0.20643952
000050 23 78 81 be 23 a8 27 3e df 8b 11 be 47 9d 3a bd
       -0.2528697 0.16372733 -0.14213513 -0.045560148
000060 83 98 8c 3e be e3 b6 3e 9c db b0 3c 2c 04 04 3d
       0.27460107 0.35720628 0.021589093 0.03223054
000070 fe cb 26 3e c9 15 a5 3c 6b 3c c1 3e 24 8a b0 3e
       0.16288754 0.02015199 0.37741408 0.34480393
000080 06 02 e5 3d a1 91 ce 3d 86 74 c7 3d f9 4c 65 bd
       0.111820266 0.1008637 0.09739022 -0.05598161
000090 5d 8e 34 be 67 e1 90 bd 76 41 8b be e5 0b 3c 3e
       -0.17632432 -0.07074242 -0.2719838 0.18363912
0000a0 98 af 8c 3e 1d 8f db 3d 08 99 80 3d 5b 50 06 3e
       0.27477717 0.10720656 0.062791884 0.1311659
0000b0 df 42 d0 3d 1a cd 14 bd 9f 4f 48 bd 72 58 b0 be
       0.10169005 -0.036328413 -0.048904058 -0.34442478
0000c0 23 50 e1 3d 80 b1 e9 bd e8 9b 85 be 1a 86 45 be
       0.11001613 -0.114108086 -0.2609551 -0.19289437
0000d0 a6 32 51 3d f4 61 f7 3d de dd 4a 3e 47 87 41 3e
       0.051073693 0.1207923 0.19811198 0.1889926
0000e0 72 3e c0 3c 5f 66 84 bb ce 02 60 39 21 f9 1f bc
       0.023467276 -0.004040524 0.0002136335 -0.009763987
0000f0 51 2b bd be f7 0e e5 bd be b2 14 3e 7b cd c0 bd
       -0.3694711 -0.11184495 0.1452131 -0.09414192
000100 7b 02 20 be 55 e0 8a 3e 5f d7 81 3e 60 cc 81 bd
       -0.15625946 0.27124277 0.25359628 -0.063378096
000110 2d 7a 87 3e 7d 8f b8 be 22 43 b2 3d e1 de 80 3d
       0.264604 -0.36046973 0.08704211 0.06292511
000120 46 b2 c4 3d 26 dc d4 bc 8b e2 d7 3c 65 b7 e4 bd
       0.096043155 -0.025983881 0.026353141 -0.11167792
000130 26 c8 0d bd 69 39 73 bd 00 34 b6 3d eb 55 db bd
       -0.034614705 -0.059380922 0.08896637 -0.10709747
000140 8e d2 40 bd 02 8b 29 3d d2 ed 92 bd 64 dd 90 bb
       -0.0470758 0.041392334 -0.07174267 -0.004420923
000150 92 8d 5d bb 4c ee 36 bd 4c 37 11 be 1a 1c 94 3d
       -0.0033806306 -0.04466085 -0.1418125 0.072319224
000160 c2 67 93 3d 0b bb 2d be 7f da 3e 3c 11 de a5 3d
       0.071975246 -0.16965882 0.011648773 0.080989964
000170 bf 51 cf bd 68 2c 9a 3d c7 2a 3f be c5 f4 4c be
       -0.10123014 0.07528001 -0.18668662 -0.20015247
000180 65 b7 80 3d b4 30 90 3d 74 e4 1f 3c 60 2e ed bd
       0.0628498 0.070405394 0.009759057 -0.11581111
000190 30 6e 23 3e 9e 59 ec bd dc 14 7e bd d5 26 70 3d
       0.15960002 -0.115405306 -0.06203161 0.058630783
0001a0 3f 41 2f be b7 ec 22 3e 6f 1a 1d 3d 07 25 cf 3d
       -0.17114733 0.15910612 0.038355287 0.10114484
0001b0 a1 ab 80 bc a0 eb 01 bd ea 1d e5 3d 6e a0 a8 bc
       -0.015706839 -0.03171885 0.11187346 -0.020584311
0001c0 85 f9 06 3e f8 d4 c3 bd 84 52 85 3d a0 f4 49 3c
       0.13181122 -0.09562105 0.06509879 0.01232639
0001d0 aa 6e 41 3e 84 8b 5e 3d 76 9d ca 3d 8b cd 25 3e
       0.18889871 0.05433227 0.098933145 0.1619169
0001e0 eb f9 9e 3c 26 ed 9f 3d 9c a9 56 3d cb 25 5a 3b
       0.01940628 0.07808904 0.052407846 0.0033286687
0001f0 0a 88 09 3e 73 15 76 bd 0e 95 01 3e 61 fb ed bc
       0.13430801 -0.06007905 0.12654516 -0.02905053
000200 13 81 45 bd e3 94 fb 3d c5 2b 03 3d 38 d1 bf 3d
       -0.048218798 0.12284257 0.032024164 0.09366077
000210 c6 07 30 3d ca 8b a3 bb b9 11 cc bd 7b 7c df 3c
       0.042976163 -0.0049910294 -0.09964318 0.027281037
000220 72 01 39 bd e9 e7 c9 bd 15 36 e6 3d b9 a2 91 3d
       -0.045167394 -0.098586865 0.11240784 0.07111115
000230 96 00 c3 3d 66 24 8e bd fb fb a5 bc c2 ae 3e 3d
       0.09521596 -0.06940536 -0.020261755 0.04655338
000240 13 86 d1 3d d9 75 df bd 0f 66 c4 3c 3f 4f 1d 3e
       0.10230651 -0.109111495 0.023974447 0.15362261
000250 67 d2 ca 3d 90 31 0d 3d fa 92 e2 bc ec 35 9d bd
       0.09903412 0.034471095 -0.027657975 -0.076763004
000260 20 d3 db 3d 1c ca c4 bd 58 56 d4 3d 22 76 a8 3d
       0.10733628 -0.09608862 0.10368031 0.08225657
000270 0d c9 53 3a ba 5d 65 3d 12 6a ff 3c ad 01 fd bd
       0.000807897 0.055997588 0.031178508 -0.12353835
000280 d7 90 8e be 5c ac 7d 3e 86 67 d4 3d 3a 74 ef bd
       -0.2784488 0.24772781 0.10371308 -0.1169209
000290 88 01 19 3d 0c 4d 1e 3e f7 f9 0b be 61 ed 11 bc
       0.037354976 0.15459079 -0.13669573 -0.008906693
0002a0 3a 0e 9f 3c 78 f8 f5 bc d5 43 bf bb 07 dd b3 3d
       0.019415963 -0.030025706 -0.0058369436 0.08782392
0002b0 42 06 61 3d 61 d4 5a 3e 48 5c 1f 3d 72 64 85 be
       0.05493761 0.21370079 0.038906366 -0.26053196
0002c0 98 f9 87 be d5 db ec 3d 44 ed 48 3d 78 c1 95 3a
       -0.26557612 0.11565367 0.0490544 0.0011425456
0002d0 9a 98 ca 3d e4 c9 8c bc 19 e4 69 3d fc 0b f5 3c
       0.09892388 -0.017186113 0.057102297 0.029912941
0002e0 86 a4 b3 bc 83 5f a1 3d 3f 8f 81 3d cb 56 ea 3d
       -0.021929037 0.078795455 0.0632615 0.11442336
0002f0 16 97 11 3d c3 95 80 3d 92 5f 32 3e e5 65 29 bd
       0.035544477 0.06278565 0.1741927 -0.04135694
000300 be aa c3 3d 18 cc 64 3c 4e 26 8c 3d 04 20 ae 3d
       0.09554051 0.013964675 0.068432435 0.085022
000310 de 98 b1 bd a1 6d 87 bd 12 3f 0e bd 06 99 12 bd
       -0.08671735 -0.06612707 -0.034728117 -0.035790466
000320 68 ae ac 3c 4c 80 b2 bd a8 b8 f6 bc 33 18 f4 bd
       0.021079257 -0.08715877 -0.030117348 -0.11918678
000330 0b d3 f0 3d dc f6 a6 bd ae c9 29 be 54 91 b1 bd
       0.11759003 -0.081525534 -0.16580841 -0.08670297
000340 14 a4 f0 bd 9a 42 00 be eb a2 3a 3e 03 d1 de bd
       -0.117500454 -0.12525406 0.18226211 -0.108797096
000350 f1 9e a5 bc 2c 4e 1d 3e 92 56 d7 3c 02 34 43 be
       -0.02021739 0.15361851 0.026286397 -0.19062808
000360 e8 4e c9 3d 79 b5 fd 3c 16 fa c9 bd 1a e6 a9 3c
       0.09829503 0.030970322 -0.09862153 0.020739604
000370 db 7f 7a 3e cc 75 84 3d ea ad bc bd 6a d1 25 3d
       0.24462835 0.064677805 -0.09212859 0.040482916
000380 ca 48 86 3e 3f 1b 06 3e a9 ef 23 3e cf 10 10 3e
       0.2622741 0.13096331 0.16009392 0.14068912
000390 84 24 85 3c d7 c1 6d bd 74 f6 48 be 36 0e f5 3d
       0.016252764 -0.05804619 -0.19625264 0.11965601
0003a0 91 31 88 be 2c 00 51 3e 68 56 7e 3d 19 20 46 be
       -0.26600316 0.20410222 0.062094122 -0.19348182
0003b0 68 de a7 bc b9 7b f8 3c 2c 72 92 be 10 0a aa 3d
       -0.020491794 0.030332433 -0.2860273 0.083027005
0003c0 99 1d b9 be f8 f4 ca bd 6e 49 58 3d 4e 44 e9 3c
       -0.36155394 -0.09910005 0.052804403 0.028474953
0003d0 da 55 81 bd 08 8a 01 3e 3e 81 0e 3e 47 43 95 be
       -0.06315203 0.12650311 0.1391649 -0.2915289
0003e0 36 af 76 be b3 49 ce 3a 5e 17 83 bd d8 ec 70 3d
       -0.24090275 0.0015738517 -0.06400941 0.05881962
0003f0 4c 9b 32 bd ea 2d 4a 3e e5 81 1d 3e 15 08 ff bb
       -0.043605134 0.19744077 0.15381582 -0.007782946

LGEBs.0.phi_e.1.weight f4 [72]
000000 9c 3c 98 3d fe 55 db 3d 8b f7 eb 3b 21 d0 87 3e
       0.07433435 0.10709761 0.0072011403 0.26525977
000010 8d 23 9e 3e d1 e6 0f 3e e8 6e 87 b9 cb bb 89 3e
       0.30886498 0.14052893 -0.00025831838 0.26901087
000020 07 4d aa 3e 67 84 19 3e ea 0b 3f 3e 0f 85 0b 3c
       0.33261892 0.14991914 0.18656889 0.00851561
000030 66 17 00 3a 17 07 9b 3e 7f cb 0a 3e 28 42 12 3c
       0.0004886299 0.30278847 0.1355419 0.008926906
000040 2f d6 64 3e 4c a2 66 b9 6f a3 90 3a c9 9f 57 39
       0.2234733 -0.0002199497 0.0011035035 0.00020563522
000050 1f 7a c2 3a c3 7b 57 3e 65 e3 da 3d e5 c7 a6 3e
       0.001483742 0.21043305 0.10687903 0.32574382
000060 e2 03 20 3e 26 24 4a 3f 10 1c bf 3b e2 64 51 3e
       0.15626481 0.7896141 0.0058322027 0.2044864
000070 19 8f cb 3d 03 90 f5 3e 75 25 b4 3a 72 85 95 3e
       0.09939403 0.47961435 0.0013744073 0.29203373
000080 e9 59 89 3e e9 45 8c ba 27 e6 02 3c f0 b3 86 3e
       0.26826409 -0.0010701987 0.007989443 0.26309156
000090 9e e0 9b 3e 9b 34 87 39 dd 94 91 3e b3 e7 31 3e
       0.30444807 0.000257884 0.28433886 0.17373542
0000a0 6c 4e 5d ba b2 68 83 3e f0 7a 58 3c db 8f 7a 3e
       -0.0008442167 0.25665814 0.013212904 0.24468939
0000b0 50 04 db 3e 51 12 8c 3e ff 21 2e 3e 5d 18 ae 3e
       0.42776728 0.27357724 0.17005156 0.34002963
0000c0 c5 67 f2 3e ab 95 a9 3e e8 9e 14 3b 96 69 ea 3e
       0.47344795 0.33122 0.0022677723 0.4578368
0000d0 75 88 97 3a 17 4b 8e 3b 14 fe 1b 3e 62 67 29 3e
       0.0011561053 0.0043424475 0.15233642 0.16543344
0000e0 d3 e1 cb 3e 93 22 9d 3e fb a0 bb ba 4e 3d b6 3b
       0.39820728 0.3069044 -0.0014314944 0.0055615073
0000f0 36 ab b0 3b c5 b1 fe 3b af bf 39 39 d7 4e a2 3a
       0.0053915037 0.0077726566 0.00017714383 0.0012383115
000100 6e a6 4b 3e 25 e3 c2 b9 3c ee 92 3a b4 98 07 3f
       0.19887707 -0.000371718 0.0011209915 0.5296738
000110 63 ea 39 3e 25 a7 94 3a 4e 9c 77 3e 3b 09 24 3f
       0.18155818 0.0011341317 0.2418072 0.64076585

LGEBs.0.phi_e.1.bias f4 [72]
000000 13 1c cf bc a0 2c a6 bd 9c af 78 bd de 21 09 3e
       -0.025281942 -0.0811398 -0.06071435 0.13391826
000010 d3 ce 95 3d a8 3c 68 bc dc e4 84 bb 7f bf d9 bc
       0.07314839 -0.014174618 -0.0040556025 -0.02658057
000020 de 9a ac bc a7 5b 19 bd e9 65 a5 bd 7a 7d bd bd
       -0.02106994 -0.037440922 -0.080760784 -0.092524484
000030 48 1e e4 bc 4d 73 b1 3d 5b 5d 6a bd 3f 4d d6 bc
       -0.02784647 0.0866457 -0.057217937 -0.02615988
000040 49 83 61 bc bf 6f cd bc a4 68 06 bc 64 09 d6 bc
       -0.013764211 -0.025077699 -0.008203659 -0.026127525
000050 8c e9 87 bc 90 3a b7 3c ad a8 c0 3b 41 d5 96 bd
       -0.016590856 0.022366792 0.0058794827 -0.07364894
000060 29 48 c1 3d 7b 5a 40 3d 20 ce e1 bc d5 0a 96 bd
       0.094375916 0.04696129 -0.027564108 -0.07326285
000070 ef af f4 bc 47 9f a9 3e bb df 23 bc ee 07 5b 3d
       -0.029869048 0.3312933 -0.010002072 0.05347436
000080 ef 95 dc bb df 3c 68 bc e2 19 01 bd 36 28 21 bb
       -0.0067317407 -0.014174669 -0.031518824 -0.0024590618
000090 a2 08 00 3d 23 40 19 bc 71 b7 0e be 2a 06 8b bd
       0.031258233 -0.00935367 -0.13937165 -0.06788285
0000a0 1d 8f 84 bb 4e 8f 3b 3d e9 01 aa bd ae a9 1c 3c
       -0.0040453807 0.045790963 -0.083011456 0.009561939
0000b0 70 15 46 bd 23 03 0b bd 3d ba 14 bd 5a 19 22 be
       -0.04836029 -0.03393854 -0.036310423 -0.15829983
0000c0 75 3d cf bc a6 73 d0 3d 9f 7e 3c bc b6 07 b6 bd
       -0.02529786 0.10178308 -0.011504798 -0.088881895
0000d0 fb 8b 87 bc 79 cb 84 bc fe dd be bd 46 0a 6a bd
       -0.01654624 -0.016210305 -0.093196854 -0.057138704
0000e0 4a 32 39 3c c8 58 82 3c 92 f0 0c bc a0 d9 2a bc
       0.011303494 0.015911475 -0.008602278 -0.010427862
0000f0 e1 53 2a bd 2c 57 cc bc 07 d4 f1 bb ff 71 44 bb
       -0.0415839 -0.02494391 -0.007380012 -0.0029975174
000100 63 c3 81 3c 1c b6 bf bb 35 ee 62 bb 3a 54 05 3c
       0.015840238 -0.0058505666 -0.0034626846 0.008137757
000110 81 7b a4 bd 57 34 0b bc 0a fa 63 bd 34 f7 24 bd
       -0.08031369 -0.0084963655 -0.055658378 -0.040274814

LGEBs.0.phi_e.1.running_mean f4 [72]
000000 00 e3 8d 3c 60 5a ae 3d da 4c 1a 3c cd 26 0e be
       0.017320156 0.085133314 0.009417737 -0.13881989
000010 bb fe c5 3d 7f 64 42 bd 39 79 a4 3b 4f 35 2e be
       0.096677266 -0.04745912 0.0050193337 -0.17012523
000020 25 42 f5 bc 7b 35 0e 3e 6c 66 80 3d 23 90 7d bd
       -0.029938767 0.13887589 0.062695354 -0.061905038
000030 ae 10 fe 3c 6d d6 05 be b1 c0 97 3d de 01 82 bd
       0.031013813 -0.13070078 0.074098 -0.063480124
000040 7e 81 03 3d e8 7b 53 ba 68 62 f9 3a 33 7c 62 bc
       0.032105915 -0.00080674747 0.001902652 -0.013823557
000050 5c 1e 93 3b 08 4d 5d be fd 78 9b 3c c5 74 a5 bd
       0.004489703 -0.21611416 0.01897859 -0.08078913
000060 7d 7f 3e be 65 53 f4 be 85 bb 4e 3c fc 96 76 3d
       -0.1860332 -0.47719875 0.01261795 0.060202584
000070 62 bf 9c 3d a8 da 1d be f0 29 38 3a a8 82 86 bd
       0.07653691 -0.15415442 0.0007025292 -0.065678895
000080 52 67 81 3d 79 34 98 ba ea 7d 0e bd 62 3b c4 3d
       0.06318535 -0.0011612318 -0.03478805 0.09581639
000090 c9 70 75 3b 22 ec ef 3b a9 fb 88 bc 6e cd a7 3d
       0.0037451258 0.0073218504 -0.016721563 0.081934795
0000a0 3e b8 cb b9 d6 48 89 bd ef c8 8c bd 91 b7 ff 3d
       -0.00038856448 -0.067033455 -0.068742625 0.124861844
0000b0 8b 8d 03 be 3e 2a 2f 3d 94 5c 02 be 7e 2f 2f 3e
       -0.12846963 0.042764895 -0.12730628 0.1710796
0000c0 87 ac 19 3c eb 7e 67 be fd 29 1f bd 30 ce 2c be
       0.009379513 -0.22607009 -0.038858403 -0.1687553
0000d0 9f 0e 57 bc a9 95 1c bd b8 d6 7b bc 64 a0 34 3e
       -0.0131260445 -0.038228665 -0.015371017 0.17639309
0000e0 75 5f 86 3d 7e e3 35 3d 8b 92 bb 3b c9 04 f3 bb
       0.06561176 0.044406407 0.0057242564 -0.007416342
0000f0 ae d7 c3 bc df 6e 92 bc 5a ba cd bc 68 b9 69 bb
       -0.023906555 -0.017875133 -0.025113273 -0.003566349
000100 94 18 09 3e 61 fb 5a 3c 05 78 2d bb b6 86 65 be
       0.13388282 0.013365597 -0.0026469242 -0.2241467
000110 75 44 5f 3d 83 de d4 bb 7a b3 81 bd fd d7 84 be
       0.054508645 -0.006496252 -0.063330606 -0.25946036

LGEBs.0.phi_e.1.running_var f4 [72]
000000 8a 8d db 3d e3 e5 39 3d ed c0 65 3c 59 ea cd 3d
       0.10720356 0.045385253 0.014023048 0.10054464
000010 65 be 6d 3e e0 72 b5 3d ba 90 33 3a 26 e6 a2 3d
       0.23217161 0.08859801 0.0006849874 0.079540536
000020 99 4a 76 3e 66 77 96 3d 85 10 53 3d c1 2f 0e 3d
       0.24051894 0.07346992 0.051529426 0.03471351
000030 f0 a7 8a 3b e4 cc c2 3d f3 25 81 3d 40 f1 61 3c
       0.0042314455 0.09511736 0.06306066 0.013790429
000040 7a 1d f9 3d b2 36 27 3b 7a 04 57 3a 13 1c 96 3a
       0.12163825 0.0025514779 0.0008202266 0.0011452459
000050 b5 14 be 3b c7 73 8c 3d fd b9 6f 3d af 3b 5a 3d
       0.0058008083 0.0685802 0.05852698 0.053279575
000060 c3 87 d0 3d 68 49 2f 3f 03 d7 e3 3b 1a 57 b5 3d
       0.101821445 0.68471384 0.0069531216 0.08854504
000070 e3 a1 bf 3d 49 63 ed 3d 49 cb 1b 39 70 80 5a 3e
       0.09357049 0.11591203 0.00014857682 0.21338058
000080 8b c8 8f 3d 63 a9 90 39 0e 9f 84 3c 02 b3 59 3e
       0.070206724 0.00027592023 0.016189124 0.21259692
000090 11 a1 06 3e cf 35 31 3a f8 e8 f1 3d b9 a0 21 3e
       0.1314738 0.0006760032 0.118120134 0.15783967
0000a0 0a bd bd 38 67 c1 79 3e 11 e6 90 3c ef f2 57 3e
       9.0474336e-05 0.24390183 0.01768783 0.21088766
0000b0 ba c8 e4 3e 69 9b de 3d 59 dd 41 3e 60 94 10 3f
       0.44684392 0.10869486 0.18932094 0.564764
0000c0 04 86 67 3e f0 0e d0 3d e4 b0 c5 3c 77 66 31 3f
       0.22609717 0.10159099 0.0241322 0.69296974
0000d0 b3 b7 a3 3a 18 8b 47 3c c7 04 b1 3d 3e 1b 60 3d
       0.001249066 0.012179159 0.08643489 0.05471348
0000e0 2e bf 3b 3e 88 94 17 3e 6c 9f ae 38 b4 6e 30 3b
       0.18334648 0.14802754 8.326661e-05 0.0026921453
0000f0 51 ba 44 3c 1f d9 02 3c 6b 11 61 3b bf 57 e7 39
       0.012007312 0.007986336 0.0034342657 0.0004412513
000100 7b a7 ce 3d 0f 5a 04 3a 8f c5 16 39 10 e2 20 3f
       0.10090538 0.000504882 0.00014378711 0.62844944
000110 82 90 1a 3e a3 a4 33 39 c3 3c 91 3d b7 3a 3f 3f
       0.15094188 0.00017132102 0.070916675 0.74698967

LGEBs.0.phi_e.3.weight f4 [72, 72]
000000 29 71 f8 bc 9d 55 0d be cd b4 b0 3b ce ec c6 bd
       -0.030327396 -0.1380219 0.005392647 -0.09713136
000010 b6 24 96 3c 4a 69 17 be 90 f1 fb bb e9 9b 03 3c
       0.018328052 -0.14786258 -0.0076887086 0.008032777
000020 1d 83 1a bd c8 1f a7 be 0f d4 ab bd 6a 2f 58 bd
       -0.037722696 -0.32641435 -0.08390056 -0.052779593
000030 5d 02 bb 3c 5b 5b 1c 3d 7a fb a4 bd ce b5 13 bc
       0.022828275 0.03817306 -0.08055778 -0.009015514
000040 91 ed a8 bd 9f 55 ae bc 27 05 61 ba af 7b 9d 3c
       -0.08248437 -0.021281062 -0.00085838366 0.019224016
000050 47 ad 12 bc 00 d4 10 3e 2c eb da bc 54 11 f8 bd
       -0.008952445 0.14143372 -0.026723467 -0.1211268
000060 dc 7c de 3d 82 6d a9 3d f1 ab 30 3c 67 f3 7c be
       0.10863659 0.0827284 0.0107831815 -0.24702226
000070 18 ba 8b bd 47 01 25 3e d9 59 a8 bb ff 77 97 3d
       -0.06822604 0.16113769 -0.005137664 0.07395934
000080 5e 7a 25 bd 68 79 aa ba 7e 20 0b 3d c6 81 00 3e
       -0.0403999 -0.0013006153 0.033966534 0.12549505
000090 64 7c 6c be da 94 90 39 ed fd 0d bf ed 3e 08 bd
       -0.23094326 0.00027576723 -0.55465585 -0.033263136
0000a0 b8 80 93 bb 29 35 1c 3d 56 3b 11 bd eb da 03 3e
       -0.0045014285 0.038136635 -0.035456978 0.1287648
0000b0 e6 89 b5 3d b2 5f 8f be 53 74 f7 3d 15 e5 aa bc
       0.08864193 -0.28002697 0.12082734 -0.020861188
0000c0 69 56 be be f6 ae 8c 3d b1 5f 37 3d ad b7 49 bc
       -0.371753 0.06869309 0.044768993 -0.012311858
0000d0 d9 30 9e ba b3 e0 4b bd 22 ec 3e be 7d 6b c6 bd
       -0.0012069001 -0.049774837 -0.18644765 -0.096884705
0000e0 73 87 bd be 11 39 58 be 77 82 1c 3b c5 67 79 3b
       -0.37017402 -0.21115519 0.0023881474 0.0038056236
0000f0 4c 70 27 bd c8 97 0b 3d 83 78 0f bc d1 d5 29 bc
       -0.04087858 0.034080297 -0.00875676 -0.010365919
000100 12 b2 ec 3d 67 7f 1c 3b f3 1e 82 bb de 00 a7 3d
       0.11557402 0.0023879649 -0.0039709746 0.08154462
000110 29 fe e7 3c cb dd a7 bb a7 b6 d1 3d 1f 10 86 bd
       0.028319435 -0.0051228753 0.10239916 -0.065460436
000120 3e 0d 6d bd 25 a9 01 3d 7b 4c 2c bd 00 1a b3 3c
       -0.057873957 0.03165545 -0.042065125 0.021862984
000130 19 6b f9 3c 8a 04 26 be 6d e0 34 bb 7a d8 e3 bc
       0.030446576 -0.16212669 -0.0027599589 -0.027813185
000140 7f 96 7b bd 2d 5b 8e bd fc f7 bc 3d ae b5 93 bd
       -0.06142282 -0.06950984 0.09226987 -0.07212387
000150 f8 9f fa 3b 42 7f 82 3d 12 60 0b 3e e6 30 b9 3c
       0.0076484643 0.06371929 0.13610867 0.022606324
000160 3a c9 2e bc 64 f1 a8 bc c5 fd 2c bc e4 8c 6a bc
       -0.010668093 -0.020622917 -0.01055855 -0.0143158175
000170 26 27 c1 bc a2 f0 c0 bc 48 b2 a8 bd b8 51 c9 bd
       -0.023578238 -0.023552243 -0.082371294 -0.0983004
000180 06 72 7c 3d 05 5e ab bb 55 c6 d4 bb 0a e9 17 3d
       0.06163218 -0.005229714 -0.0064933696 0.037087478
000190 77 7a 6d bb 5e a7 b8 3d 14 63 92 38 50 ce b0 bc
       -0.0036236325 0.09016298 6.980277e-05 -0.021582752
0001a0 0c 5c d4 bb 26 71 d2 3a 3e 99 ed bc 65 82 50 3e
       -0.0064806994 0.0016055449 -0.029003736 0.20362242
0001b0 71 e2 32 bd e9 12 eb bb 2f 67 4e be 08 fa b4 bb
       -0.043672983 -0.007173885 -0.20156549 -0.00552297
0001c0 e4 d9 50 bb d5 63 0a be a6 17 1c 3b 8b 1f 52 3e
       -0.0031868154 -0.13514645 0.0023817807 0.20519845
0001d0 78 b8 45 3d 4d 23 cb bd 2f d3 8b bd 75 3a 0c 3e
       0.048271626 -0.099188425 -0.068273894 0.13694175
0001e0 f8 f5 a0 3d 9b 6c 9a 3d a8 1a 31 39 f5 3b 34 3d
       0.07859415 0.07540246 0.00016889966 0.044002492
0001f0 f7 a4 88 bc 9e b1 fd bc 40 98 80 bc 4b db 2f bd
       -0.016680224 -0.030968484 -0.015697598 -0.042933743
000200 43 61 09 3d e2 f5 ce 3b 71 bd 18 3b bd 62 ba 3b
       0.03354002 0.0063159326 0.0023306275 0.00568804
000210 64 98 82 bd d1 d6 c7 bc 12 74 b1 ba 0b 90 65 bb
       -0.063767225 -0.024394425 -0.001353862 -0.0035028483
000220 ab c7 1b 3e aa 5e f7 ba 62 8e b1 bb 00 6f 28 bc
       0.15212886 -0.0018872817 -0.0054185847 -0.010280371
000230 c9 54 ce 3c 9c 60 41 38 e4 50 bf 3d a9 8e 43 3c
       0.025186913 4.610476e-05 0.093416005 0.011935868
000240 8f c8 7e bd 1f 40 7c 3d 8c f7 96 bc bf 59 e7 be
       -0.062202986 0.06158459 -0.018428586 -0.45185658
000250 ea 2f e6 3d 4b 0e aa 3d 71 0f 92 3a 29 11 12 be
       0.11239608 0.083035074 0.0011143518 -0.14264359
000260 1c a3 fa be 0b 29 59 be bb aa b7 3d 21 bb f8 3d
       -0.48952568 -0.21207063 0.08968111 0.12145067
000270 5c b5 96 3b c8 5b 9c be ac 39 8f 3d 6d ef 8a bd
       0.0045992564 -0.30538774 0.06993422 -0.06783948
000280 7e 1b 8b be df 3a c4 b9 81 1b 30 3c af e5 af 3c
       -0.27169412 -0.00037427896 0.010748745 0.021471826
000290 8a 18 ab 3b de 55 a6 bd be fe 31 3e fb 14 58 be
       0.005221431 -0.081218466 0.17382333 -0.21101753
0002a0 c5 d3 29 be 29 98 59 bd 21 45 11 3c b4 be 53 be
       -0.1658469 -0.053123627 0.008866579 -0.20678216
0002b0 e1 98 77 bd a9 e5 91 be f2 43 c9 3b 28 02 53 bf
       -0.06044853 -0.2849553 0.006142133 -0.82425165
0002c0 58 a7 42 3d 1c 4f 29 bc eb 69 c6 bd 8d 20 6f bc
       0.047522873 -0.010333803 -0.09688171 -0.014595163
0002d0 3f 89 23 bf e7 c6 65 3b 89 0b 75 3d 3f 39 17 3e
       -0.63881296 0.0035061182 0.059825454 0.14767931
0002e0 18 50 b5 3b 2d 81 4e bf c0 ac 22 be 18 e4 3e be
       0.0055332296 -0.80665857 -0.15886211 -0.18641698
0002f0 01 9c a3 be 53 47 08 3d 4e cd e9 be 5b ae 01 3c
       -0.3195496 0.033271145 -0.45664448 0.007915105
000300 82 70 c8 be 0f ef ba be 5d 95 0f be 8b 4a f6 bd
       -0.39148337 -0.36510512 -0.14021821 -0.12025937
000310 4a db 87 3b 8d 9d 01 bc 7a 75 09 be e3 d4 30 be
       0.0041460143 -0.007911098 -0.1342372 -0.1726871
000320 6f 92 21 be 86 83 f7 be a0 36 c2 b9 68 51 0c bd
       -0.15778516 -0.48342532 -0.00037043262 -0.034257323
000330 1b 8c 3a 3b 36 d8 13 3d 24 9a b7 bb d9 2a a1 bb
       0.0028464857 0.036094867 -0.005603092 -0.004918438
000340 56 3a 08 bc aa ab 11 3c 39 a2 24 3b 93 25 f1 be
       -0.00831469 0.008891026 0.0025121106 -0.4709898
000350 85 c9 a3 bd 8d e2 c0 38 a0 58 00 bd e2 94 a8 bd
       -0.07997421 9.197472e-05 -0.03133452 -0.08231522
000360 a1 f9 6e b9 1d 33 bc ba 81 b9 01 b7 88 84 be bb
       -0.00022790443 -0.0014358495 -7.73219e-06 -0.005814139
000370 fc d8 8d bb 84 1c 9b bb 24 1c 13 ba 55 35 24 bb
       -0.004328845 -0.004733624 -0.0005611798 -0.0025056202
000380 dd d4 8b bb af 07 9d ba e7 6b 79 39 c5 2d 81 bb
       -0.0042673186 -0.0011980439 0.00023786687 -0.0039422237
000390 e1 59 0a 3b a0 a1 cf bb 78 47 91 bb 44 ea 15 bb
       0.00211107 -0.006336406 -0.0044335686 -0.002287523
0003a0 44 d9 cd bb 2e 30 68 bb 41 f9 0c bb 5d 4c 45 ba
       -0.0062820036 -0.0035429108 -0.0021510872 -0.00075263326
0003b0 7f 12 a0 bb 88 19 e6 38 df 0d ee bb 34 8e 6e 3b
       -0.0048850174 0.0001097201 -0.007264837 0.0036400678
0003c0 5a 9f c3 bb ca 4c c9 bb 7d 73 89 bb f1 6f 84 bb
       -0.005969924 -0.006143187 -0.0041946755 -0.004041665
0003d0 ec 5b b1 b9 12 f7 ed bb d0 5d 28 ba 9b bd 2c ba
       -0.00033828558 -0.007262119 -0.00064226706 -0.0006589533
0003e0 61 c2 3d bb 6f 15 17 bb 7d 2b 56 ba 20 7d 27 ba
       -0.002895497 -0.0023053547 -0.00081699324 -0.00063891895
0003f0 b2 01 6e 3b 5c 5e a4 3a 2d 5f f7 b9 44 fd d5 bb
       0.0036316928 0.0012540328 -0.00047182423 -0.0065304358

LGEBs.0.phi_e.3.bias f4 [72]
000000 af 12 e0 bc 1f 21 ec bd ec ba 45 3d 0e b1 07 bc
       -0.027352659 -0.11529755 0.048273966 -0.008281959
000010 08 bb 5e 3e 09 3b 33 bc e6 2d 0b be 95 45 95 bc
       0.21751034 -0.010939368 -0.13591728 -0.018221656
000020 b0 07 8b be 25 7f b2 be ba 1a 56 bb e3 06 c6 bd
       -0.27154303 -0.3486263 -0.003266974 -0.09669282
000030 78 ba 57 3e bb 69 a1 bb 0f b5 40 bc 86 2f 3c 3d
       0.21067226 -0.004925934 -0.011761918 0.04594376
000040 02 29 a9 3d 59 fa e3 bd ac ee 45 be 9d a9 55 bb
       0.08259775 -0.111317344 -0.19329327 -0.0032602318
000050 4f 58 d0 bb 20 fb 41 be 8e 01 0d bc d2 96 d9 3c
       -0.0063581835 -0.18943453 -0.008606328 0.026561175
000060 63 fe db bd d4 5c 21 3e 34 ec b0 be 71 86 ad bb
       -0.1074188 0.15758067 -0.3455521 -0.0052955677
000070 ef 1f f8 bb 53 ff 06 3e 3f b9 c3 bd b3 b6 52 be
       -0.007572166 0.13183336 -0.09556817 -0.20577507
000080 ef 70 a2 3e 80 fb d8 bb 84 a4 3a bd 46 bb d0 bd
       0.31726786 -0.006621778 -0.04556705 -0.101919696
000090 cf 20 fa 3c d8 9b b0 3d 91 dc 52 be 61 72 d0 bd
       0.030533222 0.08623475 -0.20591952 -0.10178066
0000a0 7a 9a 4a bc 10 db 38 be d1 77 91 bb 76 26 2c bb
       -0.012365932 -0.18052316 -0.004439332 -0.0026268042
0000b0 09 2d 3e 3c 54 1b a7 3d 75 8f 68 ba 75 80 5b bd
       0.011607417 0.08159509 -0.00088714744 -0.053589303
0000c0 5e a9 d9 3d 54 ee d0 3d 52 35 81 3e 15 c9 90 3d
       0.10628007 0.102017075 0.25235993 0.07069603
0000d0 8a a4 2a bb 17 3a 23 be df 93 b7 bd 91 2e 58 3d
       -0.0026038014 -0.15940128 -0.08963751 0.052778784
0000e0 ee 53 c8 bc d9 bd c9 3d 2b e6 c6 be c1 8d 30 be
       -0.024454083 0.09850664 -0.3884748 -0.17241575
0000f0 3f a8 ee bb 4a 6e 08 be 9b f5 6c 3d 65 af ed ba
       -0.00728324 -0.13323322 0.057851415 -0.0018133937
000100 61 c3 e4 bb 70 83 23 3e 0e dd 22 be 08 75 94 bd
       -0.006981299 0.15968108 -0.15904638 -0.072488844
000110 fe 59 a8 bd 82 5b b4 bd 62 71 45 bb 9b 22 7b 3c
       -0.0822029 -0.08806516 -0.0030127396 0.015328075

LGEBs.0.phi_h.0.weight f4 [72, 151]
000000 28 58 cd bc 04 02 bc 3b 13 8a 3d 3c 9c 0c cf 3b
       -0.02506645 0.005737545 0.011568564 0.006318642
000010 4e d4 48 be 5a 00 2c 3d 01 cb ef 3c 90 a6 87 3b
       -0.19612238 0.041992523 0.029271604 0.004139729
000020 02 74 a5 bd f5 50 5a bb ac 52 20 3e 2f 75 21 3e
       -0.08078767 -0.0033312414 0.15656537 0.15767358
000030 7d 15 94 bd df 42 7a bc cf 56 94 bd 7b de 57 3e
       -0.07230661 -0.015274732 -0.0724312 0.21080963
000040 e6 42 81 3e 64 c6 37 be 6b 18 c1 3d 58 9d 82 3c
       0.25246352 -0.17946774 0.094284855 0.015944168
000050 93 8c aa bb 5e 66 3f be 94 d3 b9 be d6 14 36 be
       -0.005204746 -0.18691394 -0.36294234 -0.17781386
000060 7e d9 86 3e c9 0f d5 bc ac cb 8a bd 3b fb 81 3e
       0.26337808 -0.026008504 -0.067771286 0.25386986
000070 2e 39 7b 3d da ae 77 be 8f de d4 bd 80 b1 9d 3d
       0.061333828 -0.24187794 -0.10394012 0.07699871
000080 cd 11 d1 be 23 f7 72 be 0d ce d3 3c cf 5e 03 3e
       -0.40833893 -0.23727088 0.025855089 0.12829135
000090 6f 88 e5 3e 35 17 03 3e ea 4e 04 3c 93 e6 db 3b
       0.44830653 0.12801822 0.008075455 0.006710836
0000a0 53 1f a7 bc 06 81 9d bd 69 e5 9f 3e c1 6d 85 3d
       -0.020400679 -0.07690625 0.31229714 0.065150745
0000b0 f0 e7 b7 bd e6 c5 fe 3c 8e a3 6b ba 54 09 bc bc
       -0.089797854 0.031100225 -0.000898891 -0.022953667
0000c0 dc 8c 3e 3e d7 41 d0 bd 8d 84 49 3e c0 26 a2 bd
       0.18608421 -0.10168808 0.1967947 -0.07917547
0000d0 f1 09 ef 3d d4 7f ab 3c 74 66 cc 3c 16 25 58 be
       0.11671818 0.020934977 0.024951197 -0.21107897
0000e0 84 d4 c1 be ef 7c 37 3e d4 1f 3c 3d ba c1 55 be
       -0.3785745 0.17918752 0.04592879 -0.20874682
0000f0 e4 df 19 3c b8 86 e4 3d 1a b8 70 bb e2 cc c4 bd
       0.009391759 0.11158508 -0.0036730827 -0.09609391
000100 0b 2e 95 3e 11 9c e0 3c 7b 99 d1 3c b9 a6 d8 3e
       0.2913669 0.027418168 0.02558588 0.423147
000110 d8 a3 f1 bd 68 5b e4 bc 67 75 8e 3e e0 34 49 3d
       -0.11798829 -0.027875617 0.27823946 0.04912269
000120 7b 8d 08 be ac 57 62 3d 19 ed 39 be 0b 02 35 bb
       -0.1333522 0.05525939 -0.18156852 -0.0027619626
000130 ad 60 87 be 24 03 ef 3b 7d c8 0f bf 7d ee 8f bc
       -0.26440945 0.0072940756 -0.56165296 -0.017569775
000140 a5 30 4f be 9a e0 f4 3b 90 5f 11 3b c0 56 b4 b9
       -0.202334 0.0074730637 0.0022182204 -0.0003439691
000150 92 3e 4f be 02 d3 fc ba c9 b9 46 3b c8 1d 3d 3e
       -0.20238712 -0.001928896 0.003032314 0.18468392
000160 3b 90 d5 be b3 08 9a 3c c5 eb 10 3d cc 1e 35 3b
       -0.41711602 0.018802976 0.035381097 0.0027636765
000170 91 2f c7 3b 79 b2 ce bc 1f bd 1c 3b 2f d5 bb be
       0.0060786684 -0.025231587 0.0023916436 -0.36686084
000180 53 ca d3 3c 48 46 e2 3d e0 69 4c 3e 16 ae b2 bb
       0.025853312 0.11048561 0.19962263 -0.0054528816
000190 22 b4 e1 bb 28 9f 9f bd 01 af b2 bc 9e c7 e6 be
       -0.0068879286 -0.077940285 -0.021811964 -0.4507417
0001a0 11 8f 9a be 65 19 91 bd 6b 2b c7 bd 9e ba 20 be
       -0.30187276 -0.07084922 -0.09725078 -0.15696189
0001b0 f7 67 73 3d e3 d9 40 be 51 24 93 bd 21 ef a1 bd
       0.05942532 -0.18833117 -0.07184661 -0.07906938
0001c0 53 8b d1 bd 9c 1a c5 be 91 be e5 b9 de f0 3c 3b
       -0.10231652 -0.38496864 -0.00043820267 0.0028830091
0001d0 36 aa 73 be 55 63 9f 3d 35 2e 03 3b f6 ac a6 be
       -0.23795399 0.07782618 0.0020016555 -0.32553834
0001e0 a5 07 f3 3e 30 9b e3 3c 33 c5 91 be 77 42 15 3e
       0.4746677 0.02778396 -0.28470764 0.14576136
0001f0 03 c6 51 3a 45 f6 e7 bb f8 0d 20 3d ed 72 a9 bd
       0.00080022233 -0.007078918 0.03907582 -0.082738735
000200 bb 85 8c 3c d3 ee e6 bc 69 fb b8 be 7c c9 12 be
       0.017153611 -0.028190052 -0.3612931 -0.14334673
000210 06 eb 59 3b c9 a7 c8 3c ae c0 76 be 3d 24 62 3b
       0.0033251657 0.024494069 -0.24096939 0.0034506463
000220 15 29 37 3b d9 17 39 be 05 b7 b5 3d 61 fa 8e bd
       0.002794807 -0.18075503 0.08872799 -0.0698135
000230 08 36 de 3d ee f3 04 3d ad 0a 2a b9 9c 6b cb bc
       0.108501494 0.032459192 -0.0001621644 -0.024831586
000240 19 a6 11 3e f8 bb 9b 3e 1b 58 5d bc 3c 1d fb 3d
       0.14223517 0.30416846 -0.0135097755 0.122614354
000250 6b 72 08 3e a0 75 07 3e b2 e7 90 bc 0e 15 e9 3d
       0.13324897 0.13228464 -0.017688606 0.11380969
000260 a0 65 24 be cb 3c 2e 3e 9a 29 fc bd 40 ba 4b bd
       -0.16054392 0.17015378 -0.12312622 -0.04973817
000270 b3 4a be bd 78 f7 06 bd 7e b8 ef 3b 5b 34 56 3d
       -0.092915915 -0.03295085 0.0073156944 0.052296024
000280 63 4a 04 be 75 16 ac 3d 13 c9 72 bd 6c 09 1d bd
       -0.12919001 0.08402721 -0.05927379 -0.038339064
000290 af 61 23 3e 06 f4 ca 3d 44 06 ad 3d d1 a4 1f 3e
       0.15955232 0.09909825 0.08448461 0.15590216
0002a0 49 d6 99 bc fb 88 84 3e 19 1a 9f bd e3 56 43 bd
       -0.018778937 0.25885758 -0.077686496 -0.047690284
0002b0 37 30 1c be 2b b4 17 be 97 f9 81 be a9 1f 21 be
       -0.15252768 -0.14814822 -0.25385734 -0.15734734
0002c0 2e 3d 48 3d d6 81 11 be 9e df 53 3e 12 2c 9f bd
       0.04888647 -0.14209685 0.20690772 -0.077720776
0002d0 42 4f e7 be a4 44 4c 3e 00 74 d2 be 84 22 75 bd
       -0.45177656 0.1994806 -0.41104126 -0.05984737
0002e0 98 2a 58 be a4 1b 0c 3d a3 a1 16 3e 13 a8 95 3e
       -0.21109998 0.034206048 0.14710097 0.29229793
0002f0 01 ba ea bc e1 db eb bc 22 9a ef bc a4 21 8f bd
       -0.028653147 -0.02879137 -0.029248301 -0.06988838
000300 d0 57 c3 3c ad 9d 8e be 5f 8c 3c be 96 5a b9 3e
       0.023845583 -0.27854672 -0.18412922 0.36201924
000310 24 02 c3 3d ce d3 fa 3d 12 15 7a bc 81 b5 1b be
       0.09521893 0.1224743 -0.015263813 -0.15205957
000320 e9 07 0d be 83 76 96 be 7a 06 ee 3d b4 91 38 be
       -0.13772549 -0.29387292 0.11622329 -0.18024331
000330 33 34 97 bd 67 2a 91 3e d7 d9 ed bc c9 af 1b 3e
       -0.07383003 0.28352663 -0.029034538 0.15203775
000340 fe 34 8a bd 5a 38 59 3e 56 00 e9 bd 85 7c 86 3d
       -0.06748389 0.21212903 -0.11377017 0.06566719
000350 df e3 e7 bd 44 ad 68 be fb 6c 79 3e e4 59 bd 3e
       -0.1132276 -0.22722346 0.24357979 0.36982644
000360 73 47 1b bd da e1 84 3c e3 7b 91 3e 13 43 9c 3e
       -0.037909936 0.016220976 0.2841483 0.30519924
000370 30 23 2a be 49 61 83 be 57 f1 8b 3d 25 6b 4b 3e
       -0.16614985 -0.2566016 0.06833141 0.19865091
000380 3f a0 db bd 89 e5 a5 bd 6c 67 5c 3b cb a6 11 3e
       -0.10723924 -0.08100421 0.003363098 0.14223783
000390 be ab ee bb 15 9b 09 be 9b fd 50 b9 d4 1d 8a 3d
       -0.007283657 -0.13438065 -0.00019930901 0.067439705
0003a0 f6 b2 73 bd d3 0a 81 3a a2 14 9e 3c f8 61 44 3e
       -0.059496842 0.0009845145 0.019296948 0.19177997
0003b0 74 b7 eb b9 4c ef b1 bc 6a 3f b1 3c 97 c3 69 3d
       -0.00044959376 -0.021720551 0.021636683 0.057071295
0003c0 71 19 50 bd db 86 08 be b1 9c 0a bb e2 8b 7d bb
       -0.050805513 -0.13332693 -0.0021150524 -0.0038688113
0003d0 16 01 78 3d c2 09 cb 3a a5 f1 a9 3b 96 e5 66 be
       0.06054791 0.0015490579 0.005186277 -0.22548518
0003e0 3a 81 af bc 7f ef 7c bc 4b 59 de ba d0 c2 da b9
       -0.021423925 -0.01543796 -0.0016963867 -0.00041725347
0003f0 db ef b1 3d 1d 5d b8 be 8f 31 64 bd fe 90 f5 3d
       0.08688327 -0.3600854 -0.055711325 0.11990546

LGEBs.0.phi_h.0.bias f4 [72]
000000 0e 40 27 bb bb 7a 40 bb b6 6d 6b 39 17 88 33 bb
       -0.0025520357 -0.0029370028 0.00022452217 -0.0027394348
000010 27 de 8c bb a1 ab 10 bb 48 5c 23 ba 1a 80 9a ba
       -0.0042989436 -0.0022074955 -0.00062317075 -0.0011787445
000020 1b f7 b5 ba 4a e8 c0 ba b3 54 fb b9 bc b1 d0 39
       -0.0013882847 -0.0014717665 -0.00047937557 0.00039805274
000030 71 a3 a2 ba 55 b0 ce ba f8 df fc ba ac 75 92 ba
       -0.0012408328 -0.0015769104 -0.0019292822 -0.0011173985
000040 a9 51 0b bb b1 1c 2c 3a c2 0a bb 38 bd 94 05 bb
       -0.002125839 0.00065655546 8.918859e-05 -0.0020382844
000050 53 3d b0 ba b5 ad 81 b9 c9 2b c0 ba 5e 18 fe ba
       -0.001344601 -0.0002473422 -0.0014661486 -0.0019385924
000060 56 a1 98 ba 14 ab b1 ba 8e c8 8c ba ca 67 53 ba
       -0.0011644762 -0.0013555014 -0.0010740922 -0.0008064477
000070 4a 03 68 bb 32 5d 24 3a c7 67 5a bb 10 37 3a bb
       -0.003540235 0.00062699907 -0.0033326016 -0.0028414167
000080 b9 e6 1d bb 5d eb 98 38 4a 2f 0d bb 4e e3 8b bb
       -0.002409382 7.2917646e-05 -0.002154308 -0.00426904
000090 63 5f 15 bb f5 db 95 ba 4e ea 23 bb 03 af 96 bb
       -0.002279245 -0.001143335 -0.0025011483 -0.0045984997
0000a0 9d e6 e1 ba 38 38 b1 b9 c6 3e 8f b9 39 67 d1 ba
       -0.0017234866 -0.00033801957 -0.00027321855 -0.0015976197
0000b0 db 24 48 ba 44 85 1e bb 15 b0 b6 39 4e 9a 43 bb
       -0.00076348864 -0.002418832 0.00034844936 -0.0029846611
0000c0 1c 9e 38 3a db 34 fe b9 37 e9 2e bb 15 83 13 bb
       0.0007042603 -0.00048486036 -0.00266893 -0.002250855
0000d0 27 35 89 ba cf f0 ef 39 74 04 ac ba f5 f6 1f ba
       -0.0010468111 0.0004576505 -0.0013123886 -0.0006102168
0000e0 bf 4b 23 bb 92 1d f0 ba b4 b9 26 ba f4 0b bb 3a
       -0.0024916974 -0.001831936 -0.00063600694 0.001427053
0000f0 fe 40 1d ba ab c9 05 bb f7 0a 87 ba ce b1 ea ba
       -0.00059987593 -0.0020414393 -0.001030295 -0.0017905773
000100 13 9e 0f bb 90 c7 89 ba e0 16 c2 b7 f7 e4 ea ba
       -0.0021914288 -0.0010511745 -2.3137254e-05 -0.001792102
000110 56 48 64 ba 56 0d be b9 f2 d1 37 bb d5 49 92 bb
       -0.00087082887 -0.0003624956 -0.002804872 -0.004464368

LGEBs.0.phi_h.1.weight f4 [72]
000000 37 d7 3c 3e 32 50 52 3e ec 37 21 3e b8 0d 8f 38
       0.18441473 0.20538405 0.15743989 6.821327e-05
000010 81 6e 19 3e 8e 7d 23 3e df 9a b9 3e c9 3a 36 3b
       0.1498356 0.15965864 0.3625097 0.0027806035
000020 43 6b c9 bb 9c d7 66 3a 04 f1 44 3e a5 ce 3b 3b
       -0.00614682 0.0008805932 0.19232565 0.0028657105
000030 d3 30 a4 3e 1d 34 1f 3b 34 62 3e ba af 69 e6 3d
       0.320685 0.0024292537 -0.0007262558 0.11250626
000040 6c a2 13 3a bc a9 ed 3d ec 7d 28 3b 96 cc ee 3b
       0.0005631808 0.1160464 0.002570982 0.007287572
000050 10 4b 04 3e 21 ec 56 3e 17 b6 47 3e fa b1 18 3e
       0.12919259 0.20988514 0.19503056 0.14911643
000060 b6 c8 4c 3e 38 52 c0 3e 06 a2 fc 3d 8e b2 1d 3e
       0.1999844 0.37562728 0.12335591 0.15400144
000070 87 b2 34 3b b8 84 1e 3e 28 4b 97 3b 20 3a 0c 3c
       0.002757223 0.15480316 0.0046171136 0.00855878
000080 0d 8a 42 3e 93 c2 02 3a 8a 70 dd 38 b0 34 85 ba
       0.18997975 0.00049881 0.00010559063 -0.0010162797
000090 40 a6 5e 3e b4 d1 0b 3c 3d c1 6d 39 2e 78 55 3b
       0.21743107 0.008533884 0.00022674068 0.0032572853
0000a0 cc 48 96 39 3e 87 2c 3e 37 cb 37 b8 f7 25 53 3e
       0.00028664467 0.16848466 -4.381986e-05 0.20619951
0000b0 3b c7 4c 3e ec dd 24 3a 7d d5 d9 ba 2d 10 2a 3a
       0.19997875 0.00062891725 -0.0016619411 0.0006487396
0000c0 75 c2 4d 3e 73 d5 97 3d 59 4f 85 3e 14 d5 c8 3e
       0.2009371 0.07413759 0.260371 0.39225066
0000d0 2b 35 77 3e e0 04 01 3a 62 d8 a4 3e 11 12 46 3a
       0.24141376 0.0004921686 0.32196337 0.00075557927
0000e0 03 16 81 3e 57 b0 71 3a 4f 4a c5 ba 28 dc 0c 3c
       0.25212106 0.0009219697 -0.0015052053 0.008597411
0000f0 03 73 0e bb c3 76 87 3b f9 0b 20 3e cc c1 0e 3b
       -0.0021736033 0.0041340305 0.15629567 0.0021782992
000100 c5 f9 71 39 c0 da 4f 3e 97 f1 8e 3e 3c 88 14 3e
       0.00023076597 0.2029829 0.27918693 0.14505094
000110 64 c4 d0 38 ba 76 24 39 03 d1 85 39 18 a4 eb 3d
       9.9547935e-05 0.00015684488 0.00025523463 0.11505908

LGEBs.0.phi_h.1.bias f4 [72]
000000 b7 b5 73 bd 80 f2 3b 3d a3 67 de bd 12 3d 68 ba
       -0.05949947 0.045885563 -0.10859611 -0.0008859198
000010 4b d9 88 bb 01 cd 8c 3d a5 1c e4 bd 51 56 c7 bb
       -0.004176294 0.06875039 -0.11138276 -0.0060832878
000020 ce c6 33 bd 91 1c 04 bc de 2a cc bd 96 8f fd bb
       -0.043890767 -0.008063451 -0.09969114 -0.007738064
000030 b6 61 75 bd 69 33 e0 bb 57 38 60 bc b6 b3 f3 3c
       -0.059907638 -0.006842066 -0.013685307 0.029748779
000040 b1 fe 98 bb 9d a6 8b bd f7 12 13 bc a9 ae 9c bc
       -0.0046690335 -0.06818888 -0.00897669 -0.019126253
000050 f9 b1 68 bd fa c3 1f bd 25 62 2a bd c0 84 63 bc
       -0.056810353 -0.039005257 -0.041597504 -0.013886631
000060 eb ed 30 bd c5 80 ad bd 8e da 40 bd d6 46 5a bd
       -0.043195646 -0.084718265 -0.04708343 -0.05329021
000070 f0 39 fb bb 37 47 94 bc 17 24 1e bc 9f 52 f3 bc
       -0.007666819 -0.018100364 -0.009652159 -0.029702483
000080 99 2c 9f bd 96 96 d9 bb 31 de af bb a7 0e 3b bc
       -0.07772178 -0.0066402657 -0.0053670635 -0.011417068
000090 9d ef 92 3d d0 10 7c bc 30 74 eb ba be 0e a8 bc
       0.07174609 -0.015384868 -0.0017963704 -0.020514842
0000a0 0b e4 e4 bb cc e3 ee bd 15 d0 48 ba c2 7c f2 bc
       -0.0069851927 -0.116645426 -0.0007660401 -0.029600505
0000b0 1b 66 8f bd 72 d8 bf bb 27 16 01 bc 6c 38 dd bb
       -0.07001897 -0.0058546597 -0.007878817 -0.006751111
0000c0 b8 94 a5 bc e7 b0 aa b7 63 38 18 bd cc 9e 83 bc
       -0.020212516 -2.0347956e-05 -0.03716315 -0.016066931
0000d0 2c e5 79 bd 21 9a 01 bc f9 b9 25 3d b6 e2 90 bb
       -0.06100957 -0.007910282 0.04046056 -0.0044215573
0000e0 1c 2b b1 bd cd a0 a3 bb cc 28 5b bd 4c 8f 81 bd
       -0.086508006 -0.004993534 -0.053505704 -0.0632616
0000f0 fb ef 3f bd 2f 62 22 bc 1b 13 79 bd bd fb b9 bb
       -0.046859723 -0.009911104 -0.060809236 -0.0056757615
000100 57 44 08 bc f1 31 8e bd 70 75 84 3c 2f 79 04 bd
       -0.008317075 -0.06943119 0.01616928 -0.032342132
000110 0a 4d 81 bb 38 3a 38 bc 36 a1 76 bb 1c c3 8b bc
       -0.0039459514 -0.011244349 -0.003763271 -0.017060809

LGEBs.0.phi_h.1.running_mean f4 [72]
000000 a4 6d ff bf b6 f9 e8 bf 47 52 01 40 57 ca 8b bb
       -1.9955335 -1.8201206 2.0206468 -0.004266064
000010 99 2b 7e bf 2b b4 2c bf 76 96 be bf 48 e0 af bc
       -0.99285275 -0.67462415 -1.4889667 -0.02146925
000020 78 22 f9 bd 81 43 df bc 87 60 d9 bf 65 6a 95 bd
       -0.121647775 -0.027253868 -1.6982583 -0.07295684
000030 44 83 e2 bf fb a0 53 bd 4f b5 d3 bb 74 36 0e bf
       -1.7696309 -0.051667195 -0.0064608227 -0.5555184
000040 c7 79 9f bd 01 98 7e bf 37 81 55 bd 66 b4 ef be
       -0.07786899 -0.9945069 -0.052125182 -0.4681732
000050 b9 c1 5e bc bf 2e a4 bf f7 ed ad bd a2 63 29 3f
       -0.013595992 -1.2826766 -0.08492654 0.6616765
000060 97 a6 a0 bf a6 40 90 bf 1d e1 0c bf a3 08 19 bf
       -1.2550839 -1.1269729 -0.55030996 -0.59778804
000070 08 d1 c5 bd 10 e1 1b be f0 fd 76 bd 24 88 aa be
       -0.0965901 -0.15222573 -0.060300767 -0.33306992
000080 4d a5 cf 3e 83 96 94 bd d8 a7 3a be 5c 26 d6 3d
       0.40555802 -0.0725527 -0.1822809 0.10456535
000090 f8 47 3a bf 05 92 12 be b1 92 50 3c 17 88 0b 3c
       -0.72766066 -0.14313515 0.012730286 0.008516333
0000a0 b3 0d 09 bc c2 8b 45 bf 4d 0d c6 bd e8 fe 65 bf
       -0.008365083 -0.7716638 -0.09670506 -0.8984208
0000b0 79 6c 1c bf a5 ed a8 be ec 7e 56 3d 4d 22 2b bd
       -0.61103016 -0.32993808 0.052367136 -0.04178076
0000c0 30 87 d1 3d 2b 32 0e 3f 82 d1 ca bf be df 24 bf
       0.10230863 0.555453 -1.5845187 -0.64403903
0000d0 47 db 92 3d e2 82 f8 bb 57 bf f1 bf 12 5d be bc
       0.0717073 -0.007583962 -1.8886517 -0.023237739
0000e0 28 84 c0 3e b6 ba f8 bc 82 97 33 bf 8c 4f 88 be
       0.37600827 -0.030362468 -0.7015306 -0.2662319
0000f0 02 56 b4 3e e7 15 c3 bd 8a 3c 8c bf a4 14 b3 3c
       0.3522187 -0.09525662 -1.0955975 0.021860428
000100 1e 20 de 3c f8 4b ce 3e 7a c7 8b be 0d f0 3a bf
       0.027114924 0.40292335 -0.27300626 -0.7302254
000110 9e 2d df 3c 47 ed ac bc 21 fa af bc f5 c5 59 bf
       0.027243432 -0.021109236 -0.021481575 -0.85067683
