data/LorentzNet_model_2023Feb22.pt (torch, 947588 bytes, 117 tensors)

embedding.weight f4 [72, 2]
00000000: 6603 83be 059b 41be 65af 453b 7365 883b
00000010: 1405 a23e b3d0 cdbe 2141 d4bd e829 95be
00000020: 1c13 79bc ad5f 04bb 2398 4fbe 1229 8abe
00000030: bd37 513e 4d4e 70be 5528 523e 05ad c63e
00000040: 0691 4e3a 997c 3cbb 0c84 8e3c af57 2dbb
00000050: 6cbd 14bc d27e 5b3c 8837 53ba f8c1 8cbb
00000060: c647 053d 0675 07be 7020 ce3d 92dd 8a3e
00000070: d110 99bd 255e 59bd f8a9 c73e e22e adbc
00000080: f92e 363e cd08 c83e 09da 7b3e 92c9 843e
00000090: c1c5 c0be 9a67 d13e 3b22 02be aa8e 79be
000000a0: 8250 f839 db4c cfbb 782b f0bb 20a6 45bb
000000b0: 87de 323c e793 1cbb 536b 71bb ada8 15bc
000000c0: 4b0e cfbe d624 3bbe 2af4 503e ba92 8e3e
000000d0: bb9d 86bd 006d 6b3e 1a26 9a3e 2624 3ebe
000000e0: 6a95 02be 5e20 2d3c 37b3 443e dad0 c83e
000000f0: ed04 49bc 9cdc 913d cf12 debb 013c 62bb
00000100: 77d8 b6bd 566b b73d 9453 d43d cf80 103e
00000110: 30a5 8b3e 309a 30be 78c3 ba3c 149c bfbe
00000120: b1c0 07bb 72d1 963b d864 a23b 16a1 27bc
00000130: 6d4c 2a3e 6642 223e 278e 1c3c 98f5 643e
00000140: 0bad 463e 312d 1cbe fd39 3f3c e68c cebb
00000150: 0d2e e8be 08d6 c7be 3a1b 62be 97db 753d
00000160: 3364 b8bd cc3e 9c3e ecc6 503c ac50 b5b9
00000170: 0eea 89be 5e5f 18bd 00dc 9ebc 29ff 4a3e
00000180: c17e ad3b 17f7 b43a 6f0c c1bd e542 e53e
00000190: f037 6cbc fd09 893a a471 d2bb 100e 793b
000001a0: 5471 9a3e 6376 c9bd eba4 4e3e 4749 90be
000001b0: 4fe4 8b3e be00 03bd 4c77 c4bc 7211 9a3e
000001c0: f4de a0be 5c88 69be 1ea9 7f3b a3fc d7bb
000001d0: 3e68 20bd 497d a2be c09d 52be b59f 29be
000001e0: 97b1 8dbe 5a92 75be df55 bf3e 6096 923e
000001f0: f6e3 0f3e 15e4 103e 4595 a2ba 803d cb38
00000200: 6829 aabe e085 c9be 7a67 20be 21fb a73e
00000210: c1fb 8d3e 9c5c 413b de7b c1bb 7fc3 7c3b
00000220: 254c b53e d188 373e f12c 2b3e 6ebc 173e
00000230: f31d 1b3c 9a86 b5ba ea8f d5be aa7d 9abe
-0.2558853 -0.18906792 0.0030164358 0.0041624843 0.316445 -0.40198287 -0.10363985 -0.29133534
-0.01520231 -0.0020198629 -0.2027288 -0.2698446 0.20431419 -0.2346737 0.20523198 0.38803878
0.00078798865 -0.002876079 0.01739695 -0.0026449969 -0.009078365 0.013396936 -0.0008057286 -0.004295584
0.03253915 -0.13228235 0.10064781 0.2712217 -0.074739106 -0.0530683 0.38996863 -0.02114052
0.17791356 0.39069214 0.24594893 0.25935036 -0.37650874 0.40899354 -0.1270837 -0.24370828
0.0004736223 -0.0063263006 -0.0073294006 -0.0030158833 0.010917312 -0.0023891868 -0.0036837652 -0.009134454
-0.40440592 -0.1827577 0.20405641 0.27846318 -0.065730534 0.22990799 0.30107194 -0.18568477
-0.1275231 0.010566799 0.1920899 0.3922184 -0.012269241 0.07122156 -0.0067771445 -0.0034520628
-0.08928006 0.089560196 0.10367504 0.14111637 0.27274466 -0.17246318 0.022798285 -0.37423766
-0.0020714218 0.0046026045 0.004955869 -0.010231277 0.16630717 0.15845641 0.009555376 0.22359312
0.19401948 -0.15251614 0.01167154 -0.0063034175 -0.45347634 -0.3903048 -0.22080699 0.06002387
-0.090034865 0.3051666 0.012742739 -0.00034583115 -0.26936382 -0.037200324 -0.019392014 0.19823898
0.0052946513 0.0013806549 -0.094262 0.447776 -0.014417633 0.0010455247 -0.0064222384 0.0038002767
0.30164587 -0.098370336 0.20180099 -0.28180906 0.27322623 -0.03198313 -0.023982666 0.30091435
-0.314201 -0.22805923 0.0039010714 -0.006591396 -0.039161913 -0.3173621 -0.2056799 -0.1656483
-0.27674553 -0.2398161 0.37370202 0.28630352 0.14051804 0.14149506 -0.0012404105 9.6912496e-05
-0.33234715 -0.3935995 -0.15664473 0.32808784 0.27731135 0.0029504662 -0.0059046587 0.0038568673
0.35409656 0.17923285 0.16716363 0.14817974 0.00946759 -0.0013849318 -0.4171136 -0.30174

embedding.bias f4 [72]
00000000: 16a8 9d3d 59fb a6bd fbff 22be 63f6 22be
00000010: 0899 813e 4e21 6b3d 4582 9d3d 2c4b 55be
00000020: 5b28 8ebe 93b1 f1bd 889d 92be 8dd8 273e
00000030: 1552 1a3c 3a7a 1cbe 1f87 56be a87e 00be
00000040: 833e 113e daea 8dbd e0f6 afbd a50d 133e
00000050: f698 d7bc af49 69be 292a fd3c 0a42 19bc
00000060: 7182 ef3c 6da0 83be 041b 1dbe cbd2 e33d
00000070: 8593 2abe e9cf 993e af9d 46bd 94c1 68be
00000080: 56a9 96be 6310 55bd 8a56 d23d e2bc 9ebe
00000090: 5cc5 8ebd e865 2a3c e189 59be 79a9 a83c
000000a0: 5c63 8d3e 57f1 cd3c 9101 ac3c e1b0 803e
000000b0: 6a24 773e 9aa2 173e 19ee 383d 455e 153e
000000c0: 98ab 8e3b e9ef 8cbe b50b 69be 3aec 60be
000000d0: 0b79 8dbe 3611 3b3e a841 6f3e a622 7dbe
000000e0: d1af 2cbe 4490 9abe 2f46 68be b6fe 98be
000000f0: 4fcc 663e a29c 3ebd 4d8f 04bd 5ae0 a6bc
00000100: 8b9b 133e 7567 73be a6e5 ad3d 97e0 78bd
00000110: ce8b 4cbe 078c 1a3d 51b9 6d3e e39f 503e
0.076980755 -0.081534095 -0.15917961 -0.15914302 0.25312066 0.05740481 0.076908626 -0.20829457
-0.27765164 -0.11801448 -0.28635812 0.16391201 0.009418984 -0.15281 -0.20949982 -0.12548316
0.14184003 -0.0692956 -0.085920095 0.14360674 -0.026318055 -0.22782014 0.030903893 -0.009354124
0.029237004 -0.25708333 -0.15342337 0.1112419 -0.16657837 0.30041435 -0.048490223 -0.22730094
-0.29426068 -0.05201758 0.10270412 -0.3100348 -0.06971237 0.010400273 -0.21244003 0.020588623
0.27614868 0.025139494 0.02099684 0.25134948 0.24134985 0.14808121 0.045148943 0.14586742
0.0043539517 -0.27526787 -0.22758372 -0.21965113 -0.2763141 0.18268284 0.2336489 -0.24720249
-0.16863944 -0.3018819 -0.22683023 -0.2988183 0.22538875 -0.046536095 -0.032363225 -0.020370651
0.14414804 -0.23769934 0.084910676 -0.06076106 -0.19975206 0.037731197 0.23215224 0.20373492

LGEBs.0.phi_e.0.weight f4 [72, 146]
00000000: 7cc0 08be 1b26 483e c04e 97bc 9775 1dbe
00000010: 3151 f03c b6c4 0fbe 55ae 10bd 3f0f 0f3e
00000020: 0268 c0bc 35b5 263e f1af 043e 95ab e13c
00000030: 3bb1 d2bd edb0 1a3e f7d8 c4bd c9be bf3d
00000040: 9d44 e03d e5f0 d43d 47d3 623d d568 1abe
00000050: fb1e cdbd 5ab5 dc3d 8704 a43c 9d0c 8cbc
00000060: 7387 d2bd e7f7 d53d 5c86 6a3d 45e7 0e3d
00000070: 00d7 a3bd 09e9 313e e9cb 873d 3800 5fbd
00000080: 9c19 873d 55f1 eb3d 1aca f0bc a774 03be
00000090: e0bf 47bd 25a1 80be 93ac a83d 203c b13d
000000a0: a255 15bc 4fa0 d0bc 3597 e1bd 09f8 98bd
000000b0: 310b cb3d 65a5 933d 9cc5 edbd 9dd1 d23d
000000c0: 97c2 9b3d 8504 da3d 13e4 9dbd 3f3f da3c
000000d0: 616e af3d 6881 38bd c0ad cf3d accf da3d
000000e0: 0000 0dbe 3448 eebd 76da fabd 5e41 16be
000000f0: f7ce 16be 8213 143e 8035 c43d d17c 19bd
00000100: 3ba5 14be a953 ca3d e7f9 923d 9a94 993d
00000110: 5b73 fe3d 6b57 ab3d 650f e93c 7ab0 0bbe
00000120: 9054 d53c 7543 293d bb44 c53c 3180 593d
00000130: 65d5 ad3c 2356 b23d 5903 f73c 57c7 90bd
00000140: 62dc 2a3e 2472 953d e099 733d 0574 943d
00000150: 4384 27bd 6f0c 90bd 58fe 013d a070 ac3d
00000160: d0a9 a0bd 0f8a 77bd d65f 81bd 8428 793d
00000170: 658f 8bbd 026f 003e 6e45 c5bd b266 cbbd
00000180: 2594 ef3c 0c35 babd e6c7 893c 171b 673d
00000190: 9480 0ebd bac7 c4bd 5798 6b3d 9921 483e
000001a0: a63c 90bd cd78 10bd c71d c93d 91ec f7bc
000001b0: d3eb 9fbc c1b9 36bc ceaf 0dbd 01fd e8bc
000001c0: a4b3 4a3d dd6f 143e a778 9b3c c153 81bd
000001d0: 9297 613c b8aa 553d 0689 e7bc 602b 82bc
000001e0: 45cc 9b3c 75c1 fc3c c137 55be 5266 85bc
000001f0: a2a5 8e3d d549 703d 6589 503d ab00 8f3b
00000200: 7118 533d f4af 09be 6ebb 0e3d 085d 023d
00000210: c01b 353d 79d7 99bc d379 16bd 81e1 1cbe
00000220: 6bfa ff3c 3662 1bbd 5a74 563d 2987 ecbd
00000230: 903a 8fbc d6c9 8fbd 1382 79bd 3635 3a3d
00000240: 6b0f b43e 68ff a3be 93b6 a2be 5472 97bd
00000250: 94dc 173f af4a ef3c 7b15 ab3d 6653 47be
00000260: 0bba 133f a26f 9d3d 7af4 d0be f3d6 0fbe
00000270: 5bd9 63be ceec 353e 41c2 9c3e abf9 ff3c
00000280: c44f 92be 23c2 483f 6667 273d e8f0 803e
00000290: e5b7 22bf fc02 a7bd fbfe b83e c38f c2bd
000002a0: c325 96be 0099 1f3e a484 f2be a213 2d3e
000002b0: 6082 c7be ecec 303f ddbb 20bf bad9 703d
000002c0: c179 95be c9d1 273e 32ec 1fbf 1813 543e
000002d0: 427f 3c3f b048 543e c74d 203f c0fd 71be
000002e0: 6481 923e f902 65be 6a70 343f 7660 163e
000002f0: efc0 9bbe f857 3bbf 94c8 cbbe 8820 b1be
00000300: 7819 13bf bdc6 42be bed4 993e 06db a6be
00000310: 9a0e 4abe f664 1a3f b8be 3e3f 3c82 0a3f
00000320: c769 423f 487d 81be b863 c4be 4579 4a3e
00000330: 4351 313a 56d7 b7be f4e5 afbe 12c0 a93e
00000340: 92fb 763e f8ab 34be 64f0 89be ca6d dfbe
00000350: c3e9 3b3f e28e 7c3e 7b79 e13e 2e30 913e
00000360: 798f 9a3e 22ac afbe f83f cc3d 692c 013d
00000370: 1d46 c23d 6f89 2a3e 3e93 143d 43cc fe3d
00000380: 718b e83d ef1c 24be 160b a1bc b289 f8bc
00000390: e428 14be c9f9 10bd 690c 173e bef2 21be
000003a0: 3c03 093e 237b 223d 2026 00be ace8 f8bd
000003b0: d1d9 c4bd 9efb 1c3e 1bf1 0e3e 82ab ce3d
000003c0: 620d 0fbe 56bc fc3d 6658 d73d 3add 14be
000003d0: 8071 1fbe f569 f33d 46e3 b33c 9e66 09be
000003e0: da75 05be d388 8d3d 44ec 13be 3b30 04be
000003f0: 6072 e73d 58f9 fa3d 899a 053e 58d3 59be
-0.13354677 0.19545786 -0.018470168 -0.15376888 0.02933559 -0.14039883 -0.035322506 0.1397066
-0.023487095 0.16280062 0.12957741 0.027547637 -0.1028771 0.15106554 -0.09611695 0.09362561
0.10950587 0.103975095 0.05537727 -0.15079053 -0.10015675 0.107767776 0.02002169 -0.017095858
-0.10279741 0.10447674 0.05725704 0.034888525 -0.07999992 0.17374052 0.0663069 -0.054443568
0.065966815 0.1152064 -0.029393245 -0.12837468 -0.04876697 -0.25122944 0.08236041 0.08654046
-0.009114655 -0.025467066 -0.110151686 -0.07469184 0.09914244 0.07209281 -0.116099566 0.10293887
0.076054744 0.10645393 -0.07709517 0.026641486 0.08565975 -0.045045286 0.10140562 0.106841415
-0.13769531 -0.116348654 -0.12248699 -0.14673373 -0.14727388 0.14460567 0.09580517 -0.03747255
-0.14516155 0.09879238 0.07176571 0.074990466 0.12424346 0.08366283 0.028449723 -0.13641539
0.0260413 0.041324098 0.024080625 0.05310077 0.021219919 0.087078355 0.030152963 -0.07069271
0.16685632 0.07297161 0.05947292 0.072486915 -0.04089762 -0.070336215 0.0317367 0.08419919
-0.07844889 -0.060434397 -0.063171074 0.060829654 -0.0681446 0.12542346 -0.09632383 -0.09931697
0.029245446 -0.09092149 0.016818952 0.05642232 -0.03479059 -0.09608407 0.05751833 0.19544066
-0.07042818 -0.035271455 0.09820133 -0.03026417 -0.01952163 -0.011152686 -0.03459149 -0.028440954
0.049487725 0.14495797 0.01897843 -0.06314803 0.013769047 0.052164763 -0.02826358 -0.015889823
0.019018302 0.030853966 -0.2082205 -0.016284142 0.06965186 0.05866416 0.05091228 0.0043640933
0.05153698 -0.13446027 0.034846716 0.031827003 0.044215918 -0.018779503 -0.036737274 -0.15320398
0.031247338 -0.037935458 0.052357055 -0.11549217 -0.01748398 -0.07020919 -0.060915064 0.045460902
0.35168013 -0.32030797 -0.31779918 -0.07394853 0.5932095 0.029210417 0.083537064 -0.19465408
0.57705754 0.07687308 -0.4081152 -0.1404684 -0.22250883 0.17766115 0.30616954 0.03124698
-0.2857648 0.7842123 0.040870093 0.25183797 -0.6356185 -0.08154866 0.36132035 -0.095000766
-0.29325685 0.15585709 -0.47366822 0.1690202 -0.38966656 0.69111514 -0.62786657 0.05880139
-0.29194453 0.1638862 -0.6246978 0.20710409 0.7363168 0.20730853 0.6261868 -0.23631954
0.28614342 -0.22364415 0.7048403 0.14685234 -0.30420634 -0.73181105 -0.39801466 -0.34595132
-0.5746074 -0.19021125 0.30045122 -0.32588977 -0.19732133 0.60310304 0.74509764 0.5410497
0.75942653 -0.25290895 -0.3835733 0.19772823 0.0006764123 -0.35906476 -0.34355128 0.3315435
0.24119404 -0.17643726 -0.26941216 -0.4363845 0.7340357 0.2466388 0.44037995 0.2835707
0.30187586 -0.34311014 0.099731386 0.031536493 0.09486029 0.1665399 0.036273234 0.124413036
0.11354721 -0.16026662 -0.019658606 -0.030339096 -0.14468724 -0.035394464 0.14750828 -0.15815255
0.1338014 0.039668214 -0.12514544 -0.12153754 -0.09611858 0.1533036 0.13959162 0.10091306
-0.13969949 0.1234061 0.105149075 -0.14537516 -0.1557064 0.11885444 0.021958958 -0.13418052
-0.13033238 0.06910863 -0.14445597 -0.12909023 0.11301112 0.1225459 0.13047232 -0.21272027

LGEBs.0.phi_e.1.weight f4 [72]
00000000: f28b 853e f512 1c3f 15d5 c13d d5ce 123f
00000010: 0d55 d73e dc80 e43e b162 cd3e 13c8 973e
00000020: 84d8 063f 27a0 e23e 25fc d33e 6262 d43e
00000030: b382 313f 30cb 043f 0a9a 003f e2d1 f03e
00000040: 696f ca3e a9f4 323f b930 963e bb29 c73c
00000050: ba70 1c3f d498 043e 9c66 d63e abbd 8f3c
00000060: 24cd 323f 960c c23e d49c d23e bb1a e73e
00000070: 09b2 d93e 3776 223f b00a 0f3f d524 dc3e
00000080: b48f bb3e 9ce8 013f 3a7b af3e 048e 0d3f
00000090: 4dec b33e 9c69 a93e 2147 cd3e 6504 df3e
000000a0: e94e 843e f3f0 213f 72ff 1c3f 2dbd e03e
000000b0: f4af 0c3f 5605 af3e 60b2 813e ef64 a43e
000000c0: 93ec 613e 68d0 c83e 4117 993e ef36 893e
000000d0: fa3f 113f be0c 223f 3b9b 2c3e 31a4 073f
000000e0: 395c a53e 4622 bb3e b8d0 143f 78aa f83e
000000f0: 5070 0a3f 86f2 c43e 0774 eb3e c0cf 413f
00000100: 56f9 bd3e 2870 df3e b469 543f a337 843e
00000110: 968d cc3e 553c d93e d08d b93e 74f7 523f
0.26083332 0.60966426 0.0946447 0.5734685 0.42057076 0.44629562 0.40114358 0.29644832
0.52674127 0.44262812 0.4140331 0.4148131 0.69340056 0.5187254 0.50235045 0.47035128
0.39538124 0.6990457 0.29334047 0.02431189 0.6110951 0.12948924 0.4187516 0.017546495
0.6984427 0.37900227 0.41135275 0.4513758 0.42518643 0.6346163 0.5587568 0.4299685
0.36633074 0.5074556 0.34273702 0.55294824 0.3514122 0.33088386 0.4009333 0.4355804
0.25841454 0.63258284 0.6132728 0.4389433 0.54955983 0.34183758 0.25331402 0.32108256
0.22062902 0.392215 0.29900554 0.26799724 0.56738245 0.63300693 0.1685609 0.5298491
0.32296923 0.36549586 0.5813098 0.48567557 0.54077625 0.3846628 0.4598696 0.75707626
0.3710429 0.43640256 0.8297379 0.25823697 0.39951771 0.42428842 0.36241007 0.82408834

LGEBs.0.phi_e.1.bias f4 [72]
00000000: 6909 5abe 2752 b6bd 395a 63be 9550 8fba
00000010: e1af 7fbd b7d8 81bd ec43 59be 19e5 3b3b
00000020: dd09 1fbd a00d 9ebc 97ba 45bd b030 1ebe
00000030: 02ae 923d 691a 613c 3476 efbd 3ad9 bfbd
00000040: 0d4c 14bf 1e24 e2bc cb9e be3b 4022 15be
00000050: f40e 4d3d 803a 14be fbed febd cc03 edbd
00000060: 16f8 183e aad4 3bbf cdba 1fbd cb29 bdbe
00000070: 61fc ab3c d1cb 6bbd 2018 fc3c 1d38 103e
00000080: 7651 b8bd 75ee 123e 8906 d8bd f680 98be
00000090: ae79 cfbe eb5d 43be 921e 66be b31b d6be
000000a0: 9867 2fbe 7e2f 763c d443 263c 8b0d bfbd
000000b0: daa3 423d c45c 31bd d5f8 03bd 9a32 9abd
000000c0: 3256 9cbd bbca 863c 6638 0dbe 56dc 50bd
000000d0: cac8 bbbc f5dd f5bd a8d2 e5bd f47e a03d
000000e0: 331f fabd 5490 e5bd 8d3d 673d 0b98 0dbc
000000f0: a367 c1be 674e 5c3c 1f1d 72bd 3d25 913e
00000100: b8cb 5fbe 5f4f 34bd fec4 d53d 68b8 dabd
00000110: e79e 653d 54eb 26bd a75a 34be d2dd e13d
-0.21292652 -0.08902388 -0.22202386 -0.001093405 -0.06242359 -0.06340163 -0.21217316 0.0028670488
-0.038827766 -0.019293606 -0.04827365 -0.1544826 0.071620956 0.013739207 -0.11692467 -0.093676046
-0.57928544 -0.027605113 0.0058172694 -0.14563847 0.05006309 -0.14475441 -0.12447735 -0.1157299
0.14938387 -0.73371375 -0.038996506 -0.36945948 0.020994367 -0.05756742 0.030773222 0.14083906
-0.089999124 0.14348777 -0.105481215 -0.2978589 -0.40522522 -0.19078796 -0.22472599 -0.41818008
-0.17129362 0.015025971 0.010148007 -0.09328755 0.047519542 -0.04330136 -0.032219727 -0.07529183
-0.07633628 0.016454091 -0.13791046 -0.05099138 -0.022922892 -0.120052256 -0.1122182 0.078367144
-0.12212982 -0.11209169 0.056455184 -0.008642207 -0.3777438 0.013446427 -0.059109803 0.28348723
-0.21855056 -0.044021007 0.10437964 -0.10679704 0.056059744 -0.04075177 -0.17612706 0.11028637

LGEBs.0.phi_e.1.running_mean f4 [72]
00000000: 7d9f 69bd 500a 2f3f fabc a93e 4cec 9cbf
00000010: 4521 f1be 98dd 3dbf f529 1c3e 3342 e4be
00000020: 4614 d6be 15e5 9a3e 368e 9ebe 97ce 31be
00000030: a314 6a3c 1114 0d3f 6cd8 873d 942c b43d
00000040: 4bfd aebd ea82 81bd ac75 a23e 6dbc 1fbe
00000050: 2d57 303d a406 f33d 04f4 8dbd 422b c7be
00000060: fb88 0abd 582d a738 f3c0 203f 68ea 3f3d
00000070: eff3 efbd 1d1b d2be be07 ec3e 04b1 813e
00000080: d354 ce3e 3b3b 6b3e 9b3a fe3d 5ca5 9d3d
00000090: 572a 973d a93d 54be 7589 5abd f4d2 e23e
000000a0: 326c 98be 44ed 0d3e fbc9 8d3d 0e66 dcbd
000000b0: 0ebc 043e 77fc a4be e50a 0e3f ee71 ce3e
000000c0: bfca 5cbe 42cc e1be 54d4 8f3d a919 c03e
000000d0: 23bf d6be 87e8 82be 2e0e cf3d 3229 be3e
000000e0: 30e7 953d e83b 59bd 9cc4 3a3c d0e2 f43e
000000f0: dc5f a4bd db6c e83e 16e0 153e 6b69 033d
00000100: e4e2 37be 5860 05bf 99fd f33d b35b 063e
00000110: e322 dcbe 9c35 f3be 84c0 973e 428b 623e
-0.057036866 0.6837511 0.3315199 -1.2259612 -0.47095695 -0.7416625 0.1525038 -0.44581756
-0.41812342 0.302529 -0.30967873 -0.17363964 0.014287147 0.55108744 0.06633076 0.08797565
-0.085444055 -0.06323798 0.31730402 -0.15599222 0.043051887 0.11866501 -0.06931308 -0.3890019
-0.03382204 7.9716265e-05 0.6279442 0.046854407 -0.117164485 -0.4103631 0.46099657 0.25330365
0.4029909 0.22971813 0.12413522 0.076975554 0.073811226 -0.20726646 -0.053353745 0.4430157
-0.29770046 0.13860041 0.0692329 -0.10761653 0.12962362 -0.32223865 0.55485374 0.40321296
-0.21561716 -0.4410115 0.0702292 0.37519577 -0.419427 -0.2556803 0.101101264 0.37140805
0.07319486 -0.053035647 0.011399414 0.47829294 -0.08026096 0.4539555 0.14636263 0.032082956
-0.17957646 -0.52100134 0.11913604 0.13120918 -0.42995366 -0.47501838 0.29639065 0.22123435

LGEBs.0.phi_e.1.running_var f4 [72]
00000000: 2d0a 953d dc71 813e 725b 833e a765 0240
00000010: 0c99 663e 7642 893f a943 da3e 0877 5e3e
00000020: 268e 6f3e 865b f83d 6237 843e faef 773e
00000030: f97d e73d 50e2 7e3e 7e94 ef3d 9a50 223e
00000040: b206 133e 5e99 ce3d 731a 043e c09e 133e
00000050: 394d 3e3e d655 0d3d 0bfe f43d ff51 e43d
00000060: 8473 6e3e 9df8 c53d 13af 6c3e 8fa4 ab3d
00000070: 0e2d 063e 8360 713e e5ac 733e 8339 f03d
00000080: aafc 003e 4312 b83d 8c70 103d c513 053e
00000090: be3a 3b3e fdb3 b43d 306d f33d 4481 133e
000000a0: deef 793e 0ea0 7d3e b8ba 5b3e 0477 863e
000000b0: c429 ee3d 0c27 823e c698 2a3e 8631 373e
000000c0: 8700 3b3e 3c97 6b3e c0b4 2c3e d5fc 213e
000000d0: ca61 723e 23de 713e 55a1 5d3d fb02 7d3e
000000e0: 47c3 153d 2576 323d 1af4 323e e773 7d3e
000000f0: 7e2d 9d3e 0c7d 883e 7b70 363e e5ee 5c3e
00000100: cb7e be3d a5fc 753e 63f6 643e 3d72 ad3c
00000110: 9f8a 653e a842 723e 2e4c 243e 2675 5b3e
0.072773315 0.2528218 0.25655705 2.0374544 0.2251932 1.0723407 0.42629746 0.21725094
0.23394069 0.12126832 0.25823504 0.24212638 0.11303324 0.24891019 0.116982445 0.1585106
0.14358023 0.10087846 0.12900715 0.14416027 0.18584146 0.034505688 0.11962517 0.11148452
0.23286253 0.0966656 0.2311366 0.083809964 0.13103124 0.23571973 0.23796423 0.117297195
0.12596384 0.08987858 0.035263583 0.12995823 0.18284127 0.088233925 0.1188606 0.1440478
0.24407908 0.24768087 0.21457946 0.26262677 0.1162906 0.25420415 0.16659841 0.17889985
0.1826192 0.2300691 0.16865826 0.15819104 0.23670116 0.23619895 0.054108936 0.24708168
0.036563184 0.043569703 0.1747593 0.24751244 0.3069877 0.26657903 0.17816345 0.21575506
0.093015276 0.24022157 0.22359614 0.021172637 0.22416161 0.2365824 0.16044685 0.21431407

LGEBs.0.phi_e.3.weight f4 [72, 72]
00000000: 46f6 15bd e3d4 aa3c 1e76 02bd aa64 2d3d
00000010: 1855 a8bd 1815 90bd fa90 d63b 2a3f 033d
00000020: b68a d2ba 93b8 62bd 027d a5bc 62f2 c43c
00000030: e79e 313c 64f2 5abd ed39 f9bc e1b8 8cbc
00000040: 3fa1 89bd 29c5 3bbd b351 15bd d39e 48bd
00000050: 3610 7dbc 5684 b83c 28d5 14bc 6f73 9ebd
00000060: 47ec 253d 7e91 2abb 9871 933c fdee 27bc
00000070: 75e2 b7bc 0b68 0fbd eae9 20bd 12c2 0fbc
00000080: 6348 e6bc 9e93 d8bd 6079 023d 7ad1 e1bc
00000090: ce27 59bd 97b9 38bd e7a5 8ebc d80a 003d
000000a0: f770 c1bc 9138 e0bd 3df8 19bd 6ad5 923b
000000b0: 1269 9fbc 629e 68bd 978b f5bc a969 39bd
000000c0: b8b0 a7ba 709a 73bd a1f4 3fbd 10b5 c93c
000000d0: bf5f 85bc 30d7 013d c4f3 533c 17f8 22bd
000000e0: cfe1 33bd 463a 32bd accc 9bbd 2dc5 96bc
000000f0: fdbf 22bd 5f52 a8bc 11cc da3b 93e3 0fbc
00000100: 29f8 1abd 7e6b 72bd b9e1 1b3d 2950 08bd
00000110: c919 28bc d93c e7bc dcc6 65bc 08d8 eebc
00000120: 0386 1cbd b34a c6bb 4f5b 5e3c 10bc 363c
00000130: ddf5 9dbd 9c82 fc3b b87b f3bc ee2d 14bd
00000140: 1bcf cabd 4563 a9bd 3450 323c 0be8 f3bd
00000150: 6573 b6bd 8b1e adbd 3d9f acbb 55c5 7ebc
00000160: d8fd 303c cdd9 9bbd e90b e0bc 3af3 afbd
00000170: 8533 a3bb 4ed2 85bc 012e 9abd 47ea 97bc
00000180: f24f 27bd 4413 223d b7af 19bd 1370 be3c
00000190: 87e7 693c a92f 5fbd 562f 25bd 7fde bebc
000001a0: d83c 51bd 3dd3 c9bc 22de 863c 74e3 f63c
000001b0: e392 1ebc 827d 4fbd ede9 e4bd 6f00 e1bc
000001c0: 7bf1 993d 2314 f8bb d7d6 b7bc 0b83 0f3d
000001d0: c717 50bc 712a 8c3c 18f8 69bd ebd6 6abd
000001e0: 2559 873b c5be 80bc 34ab f33b 3805 a9bd
000001f0: 2574 93bd 91d7 fdbc cafa 743c 74bf e8bd
00000200: f1d6 b73b 0045 b83b 94b0 aabc a459 5dbd
00000210: 2b02 0f3d 3cb1 41bd 8ff1 4cbc ba7d aebb
00000220: 35cd 74bd 20ae a1bc 3ffe 3abd f856 9abc
00000230: a12a 70bd 179e 37bd c953 a9bc 3d4a 8f3c
00000240: 90d4 05bd 88e1 e8bd d5f4 92be 9022 45be
00000250: c50a 2d3d a028 71be e152 12bf 00af 7abf
00000260: be79 8f3e 57c2 813e 5e73 c3be c8e8 c0bd
00000270: d206 73be c6f4 a33e 1b34 43be e133 babe
00000280: 0de5 0a3e b8b5 26bf 3379 133e 0b39 bdbd
00000290: 96ce 20be a289 38bd aa69 86be 874c cdbe
000002a0: 723c 70be a2da c93d aa5e 873e 5e80 97be
000002b0: 9aaf 4b3c 8159 b9bd 5b10 bd3e 1148 66bf
000002c0: 164b 423e 9272 1dbf f108 3cbe 1411 a7be
000002d0: 93e4 233e 24a9 9cbe d986 cfbd 576e 93be
000002e0: 290c e8bf ebf2 753e d791 dcbe 9dc4 00bf
000002f0: 5c07 b9bd 8d8a 6bbf 8848 333e 29d9 4f3e
00000300: 9164 5cbc 33ed 64bf c9eb 56bf 9d9b 793e
00000310: 8015 04be 06f4 5a3e 40dc 98bd 6bd3 783e
00000320: 9979 11be 932b 32be bc75 d5bd a51a 983e
00000330: 2b19 7abf a6fa 113d 5f72 9cbe fcf9 0dbe
00000340: f6fa 1bbe c281 ed3d 10d5 9ebe abab bb3a
00000350: 51ad 2fbf 05b7 383d 68fc 38bc 7587 2cbf
00000360: d9bc c63c b0a2 bb3c d005 4fbc edba 1b3d
00000370: 16c3 e7bb 78bf 09bd 13de bc3c 21f3 a0bd
00000380: da5b d8bc 79ad 093d 14a2 bfbc 959f 11bb
00000390: e460 36bd e37f acbd 36de 29bd 9aec 5bbd
000003a0: 1dcb 92bb de43 0bbc 9689 66bd 3c0c e1bb
000003b0: 5d70 75bd fd1b 253b 7011 85bb 127a 86ba
000003c0: c832 723b 45af 56bc 1de5 82bd 2ffa 52bd
000003d0: d9e8 2d3d bb04 d53a eb35 6e3c e6fb 98bd
000003e0: ee76 28bb 1a7c dbbc 95a5 9fbc 1c18 463c
000003f0: c0ff ffbc 864a aabd 5f79 4fbd d261 a5bd
-0.036611818 0.020853465 -0.031850927 0.04233233 -0.08219355 -0.07035273 0.0065480443 0.03204266
-0.0016063068 -0.055351805 -0.02020121 0.024041358 0.010841108 -0.053453818 -0.030423129 -0.017178
-0.067202084 -0.045842323 -0.036454868 -0.04897959 -0.0154457595 0.02252404 -0.009084024 -0.07736861
0.040508535 -0.0026026662 0.017998502 -0.01024985 -0.02244685 -0.035011332 -0.039285578 -0.008774297
-0.028110689 -0.10575031 0.031854033 -0.027565707 -0.053016476 -0.045098867 -0.017413093 0.03126034
-0.023613436 -0.10948289 -0.037590254 0.0044810073 -0.019459281 -0.05679167 -0.029973788 -0.04526678
-0.0012793755 -0.059473455 -0.046864156 0.02462247 -0.016281007 0.03169936 0.012936536 -0.03978738
-0.04391652 -0.043512605 -0.076073974 -0.018404568 -0.039733876 -0.02054709 0.0066771586 -0.008782285
-0.03783432 -0.059184544 0.038057063 -0.03327957 -0.010260054 -0.028227257 -0.014024463 -0.029155746
-0.03821374 -0.0060513853 0.013571574 0.011153236 -0.0771291 0.0077059995 -0.02972208 -0.036176614
-0.099027835 -0.08270887 0.01088338 -0.11909493 -0.089087285 -0.08453091 -0.005268006 -0.015549977
0.010802709 -0.076099016 -0.02734943 -0.08591314 -0.004980507 -0.016335633 -0.07528306 -0.01854433
-0.040847726 0.039569154 -0.03752109 0.0232468 0.014276392 -0.05448881 -0.040328346 -0.023299454
-0.051083416 -0.02463686 0.016463343 0.030137755 -0.009678575 -0.050656803 -0.1117743 -0.027466027
0.07516762 -0.00757076 -0.02244131 0.03503708 -0.012700981 0.017110081 -0.057121366 -0.057333868
0.0041305 -0.015715966 0.0074361805 -0.082529485 -0.07199887 -0.03098658 0.014952371 -0.11364642
0.00561034 0.00562346 -0.020836152 -0.054040566 0.034914177 -0.047288164 -0.012508764 -0.0053250464
-0.059766013 -0.01973635 -0.045652624 -0.018840298 -0.058634404 -0.0448285 -0.020669835 0.017491454
-0.03267342 -0.11371142 -0.28702417 -0.19251466 0.0422466 -0.23550653 -0.57157713 -0.9792328
0.2802257 0.25343582 -0.38173956 -0.094193995 -0.2373307 0.32022685 -0.19062845 -0.36367705
0.13563938 -0.6512103 0.14401703 -0.09239396 -0.15703806 -0.045053132 -0.2625249 -0.40097448
-0.23460558 0.09856154 0.2643941 -0.29590124 0.012432003 -0.09050275 0.3692654 -0.89953715
0.18973956 -0.61502945 -0.18362786 -0.32630217 0.16005163 -0.30597794 -0.10133142 -0.2879512
-1.8128711 0.24018447 -0.43080017 -0.5030001 -0.09034607 -0.92008287 0.17508137 0.20297684
-0.013451711 -0.8942444 -0.8395353 0.24375768 -0.12898827 0.2138215 -0.07463884 0.242994
-0.14206542 -0.17399435 -0.10422847 0.29707828 -0.97694653 0.035639428 -0.30556008 -0.13864893
-0.15232453 0.11597015 -0.3102193 0.0014318129 -0.68623835 0.045096416 -0.011290647 -0.6739419
0.024259971 0.022904724 -0.012635663 0.038020063 -0.0070728166 -0.033629864 0.023055112 -0.07858873
-0.026410986 0.033612702 -0.023392715 -0.0022220362 -0.044525996 -0.0842283 -0.041471682 -0.053692438
-0.0044797794 -0.0085000675 -0.056283556 -0.0068679135 -0.05992161 0.0025193684 -0.0040609166 -0.0010259768
0.0036956538 -0.013103311 -0.06391356 -0.051508125 0.04245839 0.001625202 0.014539222 -0.07469921
-0.0025705653 -0.026792575 -0.019488135 0.012090709 -0.03124988 -0.083149955 -0.050652858 -0.08075298

LGEBs.0.phi_e.3.bias f4 [72]
00000000: 6ab2 6ebd 1165 f2bb 2236 6e3e 70b7 c5bd
00000010: 6910 49bc 73ae 893e 41f7 92be a439 a03c
00000020: 9be0 5d3e 188c 37be 1b78 e8bc 4058 dfbd
00000030: c81a 8dbd 1e30 1dbe 3052 73be f054 603b
00000040: 1ae3 51bd 600b be3b 2b29 adbd 4e84 ba3e
00000050: f3fb cabc e5c2 78be 91a2 1e3d d676 86be
00000060: 4dff 9fbe 1d92 52bd f6cb 063c 53cd 78bd
00000070: 0cd7 36be 5250 7fbd 1cbf f4bd 6ceb 043c
00000080: 9045 853d e993 3b3d 3fca 44be 3a79 c1be
00000090: 5838 24bd 7898 713d 4810 923d 75a4 00bd
000000a0: b2df 053e 2694 b5bd f9bb 67be 130b bbbe
000000b0: dc19 703d 2aeb 42bd 8d56 83be 5e35 2abb
000000c0: 8585 8d3e 93d9 68bd 7cc1 e0bc 54e8 cebd
000000d0: f13c 0bbe 5fc3 65bd f871 b1bc be1d 7bbd
000000e0: 4c32 1fbd 739f 76bc a440 d2bc ff89 b0bb
000000f0: 5027 11bf 2b16 ed3b 9619 c6bd 190c 6abe
00000100: f9af 2dbe 63a1 2dbc e1f3 a8be 930b 883e
00000110: be53 28be 3fcb efbc df76 19bf e6cf b3bc
-0.058275618 -0.007397302 0.23262838 -0.096541286 -0.012271979 0.26890907 -0.28704265 0.019558735
0.21667711 -0.17924535 -0.028377583 -0.10905504 -0.06889874 -0.15350387 -0.23761821 0.0034230314
-0.05124197 0.005799696 -0.08455118 0.36429065 -0.024778342 -0.24293096 0.038729254 -0.2626254
-0.31249467 -0.051408876 0.008227339 -0.060742687 -0.17855471 -0.06233246 -0.11950514 0.00811277
0.065074086 0.045795355 -0.19217776 -0.377878 -0.040092796 0.058983296 0.07132012 -0.03140684
0.13073614 -0.08866148 -0.226303 -0.36531886 0.05861841 -0.04758755 -0.2565197 -0.002597175
0.2764093 -0.05684812 -0.02743601 -0.10102907 -0.13597466 -0.056094524 -0.02166079 -0.06130766
-0.038866326 -0.015052664 -0.025665589 -0.005387544 -0.5670061 0.0072353086 -0.09672849 -0.22856177
-0.1696166 -0.01059756 -0.32998565 0.2657133 -0.16438195 -0.02927172 -0.5994701 -0.02194972

LGEBs.0.phi_h.0.weight f4 [72, 146]
00000000: c2b2 2bbe 95f6 f3bd b4cc 023e 0e36 56bc
00000010: 1c3c 903d 7e9d e5bd 0413 4c3e 47c1 be3c
00000020: 0705 1dbe 6c43 fdbe 93f5 80bd 23d3 3c3e
00000030: 0f48 573d 5cee 053d ec85 5abe ab0d d13e
00000040: a7b5 803d f12d 103e 3e2e 0ebe 7e65 7ebd
00000050: ec5f 05be de28 74be 9401 cb3e 2ed6 fc3d
00000060: a362 95be d7a3 a83d e353 b3bd 2a3e 743e
00000070: 4411 c4be 601d 6c3d 55e9 cabd a515 f93d
00000080: 09b3 34be 8ce8 da3d 85b2 6a3e d395 bf3c
00000090: ea19 0f3e 8a13 673b 3435 1b3e 52a5 85bc
000000a0: bf32 993e a467 6abc ea10 50be 1bfe c3be
000000b0: c527 a3bd 2e10 3cbb d221 b1be 1b2f 89bc
000000c0: b769 8f3d ac74 67bd 35e0 1e3e c7ae 8d3e
000000d0: bccf af3e d795 093e b50f cb3e 2063 63bd
000000e0: 7cd3 71be 8790 75bd 9510 70bd 4ddf 85be
000000f0: 5c1b 49be d6ad 693e 1b20 0d3e a4e8 a7be
00000100: dbbf 0ebe d0a0 9ebd 2c15 cf3e dc49 e83d
00000110: 4e55 6c3e f304 3a3e e733 10bc deff 7bbe
00000120: fafa 1b3d e7cf 703d 5163 88bd 494d 153d
00000130: 7408 efbc 46be 0fbc becc b83d 79d5 8d3c
00000140: fc58 dcbc 0a7d a0bc 6eb3 da3c adfc 203e
00000150: 1f50 18bd 18c8 903d 04a5 f6be 8b59 e1bd
00000160: c35a 82bb 23b3 1c3c 12c7 10bf 2f31 47bb
00000170: 5d02 513c 3feb 163c 9d17 84bc 980e a63d
00000180: b95c 1e3f 624e d5bb ce0c 23be 6a8e 84bc
00000190: b111 063f 966f 313d 4f79 e9bc 3095 673c
000001a0: 3cad 56be 61d1 c4bd 940e ec3d ef48 ad3d
000001b0: f21f 3c3d 937f 193f 498a 173e 3fa7 063d
000001c0: e280 8b3c be3e a53e b715 463b 2c2b b73d
000001d0: 42ec 40bf 0e33 8a3c cddd bcbe 3b42 633e
000001e0: 9a6d c03d fb58 373e 4d19 ed3c fedb 803e
000001f0: b11f 9c3d b8c7 af3c 6799 bebe 76be bbbc
00000200: 5e90 f73c 3ab3 8a3a afee 47bc 3d10 003b
00000210: 96c4 26be edb2 1d3d 1a9b 8f3d 410c 7fbe
00000220: 5c09 aebd a4e7 83bc a9c1 083e e291 fdbe
00000230: 2a12 afbc 958f 113d 29cb bfbc 25ab 273c
00000240: ecaf d63e 41a8 0dbd ebef bf3e 5b79 93be
00000250: 0df1 87be 4e39 943e fe27 2dbd 5e29 be3e
00000260: b914 babe 0d60 b2be 83a4 ebbb 4111 b83d
00000270: b8e3 13be 0358 5bbe 94dc cc3d 3c90 a3be
00000280: 119a d23e 3015 b9be c7d4 c0be 0e4a d9be
00000290: e639 a43e b543 ac3e 6c1a 093d 6c46 62bd
000002a0: e164 743e ad17 89bd c802 c63e 8fc0 c6be
000002b0: 766c 5fbc b388 a4be d822 d03e 7850 c2be
000002c0: 4394 07be 51ee 18bc 3577 af3e 3b10 bfbe
000002d0: 8141 b8be a661 613e dde4 a5be f173 853e
000002e0: 1240 d6be 23eb 71be 7e14 d1be d8dd 04be
000002f0: 4f89 da3e 126a d13e 677f c9bc 5cb0 313e
00000300: 7f85 da3e dec4 31be dd28 7ebe a744 fabd
00000310: 2514 0a3e 16a9 51be 6b85 bfbe 499f 96be
00000320: 0c65 d7be 91b4 3dbe 145e be3e 67a8 bdbd
00000330: 60f6 973e 4638 ca3e 121f dd3e 78af c5be
00000340: 98d1 babe 2411 20bd 9915 c33e 5ba0 f63d
00000350: b7fa d7be 3ef7 27be d146 bfbe 617f c9be
00000360: 1743 bebd 9665 c63e e82c 453d abf5 c43c
00000370: 86b8 123e 8cb5 dbbc 9c6c afbc a291 b93d
00000380: af78 d5bd 3e66 463e d40e 31bd 9da2 e83c
00000390: ffdd fe3b d99a b23d 9dea b53b 78b1 513e
000003a0: a358 cb3d 1b8b 19bd d4a8 bbba 79dd a43c
000003b0: 57c1 96bd bf5f 093e 8f05 023d 44e3 6b3c
000003c0: 3e72 f1bc 2788 d73c 1774 d23d a694 443d
000003d0: 23a7 b2bd e22a 6bbb 00e5 353e dddc b6bc
000003e0: 7c05 9d3d ea57 9abb 8e9e 4d3f fcab 333e
000003f0: b927 e3bd 58a8 3b3e 60c8 393d 255e 1f3e
-0.1676741 -0.11912266 0.127734 -0.013074411 0.07042715 -0.1121168 0.19929129 0.023285521
-0.15333949 -0.494655 -0.062968396 0.18439917 0.052558955 0.03269802 -0.2134015 0.4083074
0.062846474 0.14080025 -0.13884827 -0.06210851 -0.13024873 -0.23843715 0.39649642 0.12345539
-0.29176816 0.08234375 -0.087562345 0.23851839 -0.38294423 0.0576452 -0.09907786 0.121623315
-0.17646421 0.10688886 0.22919662 0.023386871 0.13974729 0.003525945 0.15157014 -0.016314182
0.2992153 -0.014306936 -0.20318952 -0.38279805 -0.0796657 -0.0028696167 -0.34596115 -0.016746094
0.070025854 -0.05650775 0.15515216 0.27672407 0.34338176 0.13436066 0.3966042 -0.055514455
-0.23615831 -0.059952285 -0.058609564 -0.26146927 -0.19639343 0.2282022 0.13781779 -0.32794678
-0.13940375 -0.07745516 0.4044584 0.113422126 0.23079416 0.1816595 -0.008801437 -0.24609324
0.038081147 0.05879202 -0.06659568 0.036450658 -0.029178835 -0.008773392 0.090234265 0.017313706
-0.0268979 -0.019590873 0.026696887 0.15721388 -0.037185784 0.07069415 -0.48172772 -0.11003407
-0.003978105 0.009564194 -0.5655376 -0.0030394306 0.012756911 0.0092113605 -0.016124541 0.08108252
0.61860234 -0.006509588 -0.15922853 -0.01618119 0.52370745 0.043319307 -0.028500227 0.01413469
-0.20964521 -0.09610248 0.11526218 0.084611766 0.045928903 0.5996029 0.14798845 0.032874342
0.01702923 0.3227443 0.0030225345 0.08943781 -0.753605 0.016870048 -0.3688797 0.22193234
0.09395905 0.17905037 0.028942728 0.2516784 0.07623232 0.021457538 -0.37226412 -0.022917967
0.030220207 0.0010581978 -0.012202903 0.0019540929 -0.16285929 0.038500715 0.07012005 -0.24907018
-0.08497879 -0.016101666 0.13355125 -0.49525362 -0.021370966 0.03553732 -0.023412304 0.010233675
0.41931093 -0.034584288 0.3748773 -0.28803524 -0.26551095 0.2894997 -0.042274468 0.37140936
-0.36343935 -0.34838906 -0.007191242 0.08987666 -0.14442337 -0.21420293 0.100030094 -0.3194598
0.41133168 -0.36148977 -0.37662336 -0.42439312 0.32075423 0.33645406 0.033472463 -0.05524294
0.23866607 -0.06693969 0.38673997 -0.38818786 -0.013636699 -0.32135543 0.40651584 -0.37952018
-0.13240151 -0.009334163 0.34270635 -0.3731707 -0.35987476 0.22009906 -0.3240117 0.2606502
-0.41845757 -0.23624854 -0.40835947 -0.12975252 0.42682883 0.40901238 -0.024596883 0.17352432
0.42679974 -0.17360255 -0.24820276 -0.12220126 0.13484247 -0.20474657 -0.37406477 -0.294184
-0.4206928 -0.18525912 0.3718115 -0.09260636 0.29680157 0.39496058 0.43187767 -0.38610435
-0.36488032 -0.039078847 0.38102415 0.12042304 -0.42183468 -0.16402909 -0.37358716 -0.39354995
-0.0929014 0.3874938 0.04813853 0.024042925 0.14328203 -0.026819967 -0.021414094 0.090609804
-0.10423409 0.1937494 -0.04322703 0.028397853 0.007777929 0.08720941 0.0055516497 0.20477855
0.099290155 -0.037486177 -0.0014317282 0.020125138 -0.073610954 0.1341543 0.031743582 0.014397446
-0.02947342 0.02631004 0.10276049 0.047993325 -0.08723285 -0.0035883714 0.17763138 -0.022322113
0.07667062 -0.004710187 0.8032006 0.17546076 -0.11091561 0.18325937 0.045357108 0.15563257

LGEBs.0.phi_h.0.bias f4 [72]
00000000: e613 b13c 4a66 023c a64d 10bd 9921 9a3c
00000010: 7402 fdbc 54ed 05bd 86b3 b0bc 3774 d23c
00000020: 8134 0fbd 118e 1f3c 5635 bebc 7515 d3bc
00000030: 7f12 dfbc 0d15 aabb 165f acbc 505f 883c
00000040: 6e79 443c d64a 1dbc fadf b0bc 025b 023d
00000050: f5b4 83bb eaed 10bb 7b69 b6bc f271 b2bb
00000060: 3fec 813c 6f21 cf3c d8df 1abd fcbf e0bc
00000070: 3648 053d 64c9 54bc 5f73 e1bc e753 30bc
00000080: 23f0 773c 1c70 c93c e7cc 403c bbff 54bb
00000090: 52ec 79bc 1d9f 833b 22ec 57bc 495a 6ebc
000000a0: c176 a93c ea4a afbb 15d8 ef3b 5d5a debc
000000b0: b0ba 2f3c f345 9f3c 63f8 cb3c 6100 503c
000000c0: e4d4 b9bc 9b22 fdbc f39d d73c d474 b43c
000000d0: 67f2 263c 76ed 033c 4e3d f0bb f00b 0e3d
000000e0: 4191 ddbc 9d38 be3c 52a9 e83c e55c 94bc
000000f0: 7353 9b3c 781c 853c 1c99 443c ddd7 aabc
00000100: 77bc e13b 322c 443d dec1 6b3c 97fd a93c
00000110: ae6c a43c d7b9 ad3c 9637 58bb e4d1 413c
0.021615934 0.007958958 -0.0352303 0.018814849 -0.030884959 -0.032697037 -0.021569978 0.025690181
-0.03496218 0.009738461 -0.023218792 -0.025767067 -0.0272305 -0.0051904977 -0.021041434 0.016647011
0.011991842 -0.009600362 -0.021591175 0.031825073 -0.0040193745 -0.0022114464 -0.022267094 -0.0054457122
0.015859721 0.025284497 -0.03781113 -0.027435295 0.03253957 -0.012987468 -0.027520834 -0.010762191
0.015132937 0.02458959 0.0117676025 -0.003250106 -0.015254097 0.0040167705 -0.013178857 -0.014547893
0.02068651 -0.0053495066 0.00731946 -0.027142698 0.010725662 0.019442534 0.024898713 0.012695403
-0.022684522 -0.03090029 0.026320433 0.022028364 0.010189629 0.008052221 -0.007331527 0.034679353
-0.027046802 0.023220355 0.02840105 -0.018110702 0.01896069 0.016248927 0.011999395 -0.020854885
0.006888922 0.04789371 0.014389483 0.020750804 0.020071354 0.02120678 -0.0032992116 0.011829827

LGEBs.0.phi_h.1.weight f4 [72]
00000000: 2b41 2c3e 9bc8 a53e 3a49 f93e ffa5 993e
00000010: 7e82 203e eaac 853d e635 813e d511 9d3e
00000020: bc45 2e3e 7dfa 3b3e 88f3 c93e 92a5 363e
00000030: bd42 803e be6d b43e 50e2 a93e 1756 223e
00000040: f6ea 6f3e 1715 b13e 6205 4a3e d487 893c
00000050: 0a0e 833e 8fe5 8c3e 4674 963e b9af ac3e
00000060: 42ec 743d 0246 773e 1629 3c3f a016 b33e
00000070: b1de 233f 0690 db3d a6eb ba3e d3c1 c73e
00000080: 3a7a 543e 61b9 dd3e c63a ca3e 5850 003f
00000090: c8d1 273e b5bf 353d 1fa9 d53e 0edd a93e
000000a0: 3ca3 a23e c706 493e 3d9f cd3e 557e 293d
000000b0: 97c4 053f f1f1 853e f313 643e 1300 6f3e
000000c0: 7d3b a93e 1805 8e3e b786 8e3e 320a e43d
000000d0: 6ab8 163e 8fda cd3e 4f3b da3e ec41 7c3e
000000e0: f655 2d3e dbcc 283e 6e37 373e c72a 623e
000000f0: 6fb0 313d c381 0d3f aa34 623e fc97 8b3e
00000100: 9d8d 853d 1aef a03e f2ab 963e 9288 043e
00000110: c8b7 fd3e 837a ed3d f8ee 123f 0b38 5e3e
0.16821735 0.32379612 0.4868868 0.30009457 0.15674779 0.06527121 0.25236434 0.30677667
0.17018789 0.18357272 0.39443612 0.17836598 0.25050917 0.35239977 0.33180475 0.15853153
0.23429474 0.34586403 0.19728616 0.0167884 0.25596648 0.2751889 0.29385585 0.33727816
0.059795626 0.241478 0.7350019 0.349782 0.64011675 0.1072083 0.3650791 0.39015064
0.2074975 0.43305495 0.39497966 0.50122595 0.16388619 0.04437228 0.41730592 0.33176464
0.31765163 0.19631492 0.40160552 0.041380245 0.522531 0.2616115 0.22273235 0.23339872
0.33053198 0.2773826 0.27837154 0.11134757 0.14718786 0.4020581 0.42623374 0.24634522
0.16927323 0.16484396 0.17892238 0.22086631 0.04338115 0.55276126 0.22090402 0.27264392
0.06521151 0.3143242 0.2942806 0.12942722 0.49554276 0.11595633 0.5739589 0.21701066

LGEBs.0.phi_h.1.bias f4 [72]
00000000: cfc6 39be b396 a63d b9ac 1f3d bd39 aabe
00000010: 9c3b 39be 227a c6bd 3e92 debd 127c 1abd
00000020: 21d2 47be 8b04 b3bd f501 07be f60d acbe
00000030: d1f9 36be 621d 9e3b 5fc3 edbd ad41 23be
00000040: 9280 14be 7ada 10be 0923 f8bc 4448 99be
00000050: 5964 18be a33b 95bc b04d 8abe d2f8 0cbf
00000060: 18ee fcbd e5ef 3cbe f9f9 9bbd 7707 36be
00000070: 8128 2fbe 9f8f 7ebe eac4 1abe aa19 9cbe
00000080: db8c 28be b6e1 bcbd 3e98 12bd b124 013d
00000090: 8bd9 963c 10f1 b4bd 3505 203e 2466 9fbd
000000a0: 0fd5 5bbe f739 81be de5d c0bd 885f 9dbe
000000b0: b08b 91bd a484 343e ba19 15be acb4 b9be
000000c0: 50a0 37be 3f26 93bd f260 0bbe 7394 3b3d
000000d0: 986f e7bd d608 2abd e7be b8bd e8fa 0cbe
000000e0: aa5b 3fbe 7055 4dbe 910a 13be 4331 673b
000000f0: 8336 4cbe a643 283e 7702 5abe 34a7 c6bc
00000100: a2c1 e2bd bf5b 673d 577a 10be 97cb fdbd
00000110: b31d 86bd 311a 73be 00b4 fdbc 58c6 563d
-0.18142246 0.08134212 0.03898308 -0.33247176 -0.18089145 -0.09691264 -0.10867737 -0.03771598
-0.19513752 -0.08741101 -0.1318434 -0.336044 -0.17868735 0.00482528 -0.1160953 -0.15943022
-0.1450217 -0.14145842 -0.030290144 -0.29937947 -0.1488203 -0.018216914 -0.27012396 -0.5506717
-0.123501 -0.18450888 -0.07616038 -0.17776285 -0.17105295 -0.24859475 -0.15114179 -0.3048833
-0.16459982 -0.092227384 -0.03578972 0.031529132 0.01841428 -0.088350415 0.15626986 -0.07783154
-0.21467994 -0.25239536 -0.09392904 -0.30736947 -0.071067214 0.17628723 -0.14560595 -0.36270654
-0.17932248 -0.07185029 -0.136112 0.04579587 -0.11300582 -0.041512333 -0.09020787 -0.13767588
-0.18687311 -0.20052123 -0.143595 0.0035277165 -0.1994267 0.16432056 -0.21290003 -0.02424965
-0.11072089 0.05648398 -0.14109169 -0.12392347 -0.065486334 -0.2374046 -0.03096962 0.05243525

LGEBs.0.phi_h.1.running_mean f4 [72]
00000000: 7436 0e40 274d 7740 3e56 963f 3f65 b1c0
00000010: c199 233f b846 27bf 1d78 9140 7b46 b93f
00000020: 2643 8ec0 52ed a83e 0a07 0941 a1c0 1a41
00000030: e183 1ec0 3ea5 3340 7b32 40bf 50c5 9d40
00000040: 4622 c540 ef19 f2c0 15df d840 416e 1340
00000050: 136b 21c1 b256 8b41 8189 e4c0 8ecc 8d40
00000060: 3381 f940 6c94 d940 6bba 84c0 fc1b a840
00000070: 5811 d23f 5aa0 51c0 210d 2941 f286 2ac0
00000080: ddfa a33f 38d6 51c0 e3a5 2341 fc8d 1cc0
00000090: 1592 b03d 6de7 5fbf b1dd e0bf 997c 3641
000000a0: 5100 483f 1d82 fd40 087a e2c0 4452 0f3f
000000b0: 1359 d540 d7d7 f8c0 650c 48c0 399f 80bf
000000c0: c68d e040 bde8 0d40 e827 b13e 01cf 86c0
000000d0: 8bf9 5740 9f1b 4ec1 58c5 2d41 7d4e 963f
000000e0: 5411 60c0 f40d c13e adb9 8540 6fce 6840
000000f0: e2c4 a5bf 1ee0 73c0 ab2a cabf 481f a93f
00000100: 9b5a 6e3e 180e 98c0 f670 f540 5392 83c0
00000110: 51d5 c4c0 23a3 5a40 5099 9441 dc5e 90c0
2.2220736 3.864084 1.1745069 -5.543609 0.63906485 -0.65342283 4.5459123 1.4474634
-4.445697 0.3299356 8.5642185 9.672029 -2.4767992 2.8069606 -0.7507703 4.930336
6.160434 -7.5656657 6.7772317 2.3036044 -10.088641 17.417332 -7.141785 4.43122
7.7970214 6.799368 -4.147756 5.253416 1.6411543 -3.275412 10.565705 -2.6644864
1.2810932 -3.2786999 10.228 -2.446166 0.08621613 -0.874625 -1.7567655 11.405419
0.7812548 7.922133 -7.0773964 0.559849 6.6671233 -7.7763476 -3.1257565 -1.0048591
7.0173063 2.2173302 0.3460076 -4.212769 3.374606 -12.881743 10.86068 1.1742703
-3.5010576 0.37705958 4.1789155 3.6375997 -1.2950709 -3.810554 -1.5794271 1.3212671
0.2327675 -4.7517204 7.670039 -4.111612 -6.1510396 3.416207 18.57486 -4.5115795

LGEBs.0.phi_h.1.running_var f4 [72]
00000000: 6c2d 8941 0aba 3a41 51e5 b441 9889 8e40
00000010: f81b 5641 ab0d 9d41 b863 9340 77e7 0f41
00000020: 9502 4341 5151 4a41 78cc bb40 a389 0141
00000030: 273f a941 1da1 0742 e0fc d741 47e8 1341
00000040: 8ada c541 67a2 bf40 bc9b 0841 7f3a e640
00000050: 0377 c741 e1bd b641 5ad8 9f40 1b2f 0641
00000060: da99 de40 d88f c840 dd30 5442 f53e 6140
00000070: 67fb fc41 a395 1141 a1d7 1041 67ba d441
00000080: 8f64 e040 63c7 1042 bc33 0441 23fc f541
00000090: e159 b140 2267 e740 f98b 8441 8424 ab40
000000a0: 9f06 2d42 c0c1 d740 60fe da41 aacf ca40
000000b0: 9895 a241 dcde 9f41 9954 2341 efc6 0f40
000000c0: c59c 5141 a03a b241 8cc4 3f41 4001 3041
000000d0: 71f9 4840 93bb 1a41 39fb a241 616c a440
000000e0: 30c5 7041 4921 8241 bc78 a041 687a 5941
000000f0: 0371 2740 e107 ce41 a9e7 3141 9ead 9241
00000100: 0762 6741 e3f5 3b41 2592 e640 0f96 b640
00000110: 3b5d 8a41 9eb3 9141 5791 a041 4e9e db41
17.147179 11.67042 22.61197 4.454296 13.381828 19.631674 4.6059227 8.99401
12.18813 12.644853 5.8687096 8.096103 21.155836 33.907337 26.998474 9.244208
24.731709 5.9885745 8.538021 7.1946406 24.933111 22.842714 4.99516 8.3865
6.9562807 6.267559 53.047718 3.5194676 31.622755 9.099032 9.052644 26.591017
7.012275 36.194714 8.26263 30.748114 5.5422215 7.2313395 16.568346 5.3482075
43.256466 6.742401 27.374207 6.3378496 20.323044 19.983818 10.208154 2.246517
13.100774 22.278625 11.985485 11.000305 3.1402247 9.6707945 20.372667 5.13823
15.0481415 16.266253 20.058952 13.592384 2.6162727 25.753847 11.119058 18.334774
14.461432 11.747531 7.20534 5.7058177 17.295523 18.212704 20.070967 27.452297

LGEBs.0.phi_h.3.weight f4 [72, 72]
00000000: 1b83 0a3e b016 31be 64a9 bb3c 3166 58bd
00000010: a835 8fbd 2a67 0d3e 4b13 693e 1b67 053d
00000020: 7a8b b53d 408a b4bd dd44 833e b16d a93e
00000030: b466 523d 6731 ccbd 9f10 17be 1b97 b3bd
00000040: 188d ae3d 72dc 3e3e 988b ad3d e092 4f3b
00000050: a44f a73d db89 41be 8688 27be 63b5 03be
00000060: 9034 03be 08ed cc3d 4a43 b63d b728 95bc
00000070: 7e37 633d 0bf8 bc3d 5da0 f0bc 1a3d 58be
00000080: accf 8bbc 0261 353e 2951 abbe a829 8d3e
00000090: 1256 0c3c 367e 3c3c ea5d 59bc 5f55 cdbd
000000a0: 625b 123e d20c 4cbe 8a91 cd3d 82f6 373e
000000b0: 07f5 6a3e bf01 053e f0b5 c3bc 8b2d 943b
000000c0: 83df f4bd f1ed 22be 7a39 34bd 24fb 0f3d
000000d0: f046 06bd 9bec dcbc 0a0b 14be bb55 a63c
000000e0: d297 bdbd 4372 113e a178 5e3e 3e0a df3d
000000f0: 2414 143d 859a 163e 71ff 073e e8d0 62bd
00000100: d838 7bbd 360c a2bd ee17 4dbe e214 1ebd
00000110: 6e09 fb3d 0785 69bd fcb8 b3be 4f0d 823e
00000120: d58b ce3d f167 c63e 6c99 2dbe bfe1 ac3d
00000130: 9aa8 e7bc a26f 463d 9bc5 e43e b8c6 723d
00000140: 1b07 b73d 74a7 523d a6e8 fdbe 816a 2dbd
00000150: 63ae 88be 4445 2a3d 278c 82bd 25e4 02bd
00000160: 06eb 73be 3340 893d f26a 9b3d d2ea 80bd
00000170: 70cc d83c ebd2 f8bc 143b f3be c856 b7be
00000180: 5651 1c3e 9849 fabe 7f19 e4be f82a e5be
00000190: 2497 f2be 4295 d33d c5bd b8be 9f45 26be
000001a0: 0ab3 e5bc ca28 8f3d 1ef7 6cbc 3d34 23bd
000001b0: 8faf e8bb 7cfb a83d 7c52 83bb fab4 3c3d
000001c0: 8838 b93d 1c75 753d 2ca4 debd b63b 9cbd
000001d0: 6967 e73d 556f f43c 4f73 47bd 7064 a03d
000001e0: 5d13 023e 992c 5d3e f0bd 8f3d fd61 183e
000001f0: a928 383d 3300 05be 794a 983e 3c47 77bd
00000200: 406b 61be 64ab 83be 2f41 113e e574 ab3e
00000210: e4dc e3bd f935 71bd a533 94be efed 383d
00000220: 9ac6 6ebd bcaf 04be e559 343e a841 51bd
00000230: 6c4a 1fbe 6058 653d 9d9d 60be 2977 983d
00000240: 49b6 613e ca18 42bb 62ed 733d 8b95 013e
00000250: 9609 a13b 7ad4 473d 3a0b 363e 9e54 51be
00000260: 004a 993e ce30 d6bd 2c02 adbe fa64 20bd
00000270: d848 ef3d 9116 a0bc a040 46bd df3a d3bd
00000280: d73a 0bbe edb1 febd 0055 0bbd 4263 dabd
00000290: 96cd f8bd 8579 c93a b4e0 cabd 4cbc 5fbe
000002a0: ef94 8f3d bc41 64bc 3060 403e 33de 56bd
000002b0: bd39 a9be 97a8 ba3c e382 0cbf fe39 0e3e
000002c0: 3a87 a2bc 6937 2a3e cdc6 8dbc c1bc babc
000002d0: b6c5 d53d 66f4 973b e235 58be d93a 9ebd
000002e0: b2c4 86bd 8dd5 0ebe fcca 13be 995d 2d3e
000002f0: d02a a33d a00a 29be 8a0e 593d 8af1 8bbe
00000300: 40dc d93b d633 333e 71e5 ad3d cd0f 32be
00000310: 6250 8cbd fd5f 20bd 1e3e 85bd efe3 a33d
00000320: f89f 533c e566 a73d 29c8 683e c184 dabb
00000330: e11c d1bc 39e4 653d 19ea 7f3d 62ba d73d
00000340: 33de 713d ea10 1abe f4df 303d 54c1 3e3d
00000350: b23e cfbc bb17 cc3d 03fb 76be 8098 313d
00000360: 87a2 5bbd d594 8b3d d248 61bc 0e50 72be
00000370: 1e25 7c3d b750 523b 3d6a 86bc 5620 e6bd
00000380: fee9 febd 2ce4 14be c7da 67be 4bb0 413e
00000390: d666 3c3c e499 6e3d 12f7 a5bd 52e3 23bd
000003a0: 83c5 1fbe 9fc3 39be 0797 0fbe ee84 a4bd
000003b0: 1157 9cbd 9dd8 523e 73bf a43e 414e ae3d
000003c0: 7fc4 a6bd e46c 81bd fc6b 0fbe d6ad ae3d
000003d0: 44e4 0bbf 5182 e0bd 0044 c2be 3a8d 673e
000003e0: 1139 a53d 62ce 6c3d 4fe4 9bbb 2d23 c9bd
000003f0: fc8a b93d d563 89bb be73 0e3d 4258 4fbc
0.13526575 -0.17293811 0.02290792 -0.052831832 -0.06992656 0.13808885 0.22761266 0.032569032
0.08864494 -0.088154316 0.25638476 0.330915 0.051367477 -0.0997036 -0.14752434 -0.087690555
0.08523005 0.1863878 0.08473891 0.0031673238 0.08169487 -0.18900244 -0.16360673 -0.12862162
-0.1281302 0.100061476 0.08899553 -0.01820789 0.055472843 0.09226998 -0.029373342 -0.21117058
-0.0170668 0.17712787 -0.33460358 0.27570844 0.008565443 0.0115047 -0.01326702 -0.10026049
0.14292672 -0.19926766 0.10037525 0.17965129 0.22945033 0.12988947 -0.023890465 0.0045220307
-0.11956694 -0.1591108 -0.044000126 0.035151616 -0.032782495 -0.026968291 -0.14457336 0.020304551
-0.09257473 0.14203744 0.21725704 0.108906254 0.03615202 0.14707382 0.13281037 -0.05537501
-0.061333507 -0.07912485 -0.2002866 -0.038594134 0.12257658 -0.05701163 -0.3510207 0.2540078
0.100852646 0.38751176 -0.16953057 0.08441495 -0.028278638 0.048446305 0.4468201 0.059271544
0.08936902 0.051429227 -0.4959156 -0.0423379 -0.26695547 0.041569963 -0.06374388 -0.031955857
-0.23820123 0.06701698 0.075887576 -0.062947884 0.02646467 -0.030374011 -0.4750601 -0.35808396
0.15265402 -0.48884273 -0.44550702 -0.44759345 -0.47380936 0.10331203 -0.36082283 -0.16237496
-0.028039474 0.06990202 -0.014463214 -0.03984474 -0.0071010063 0.08251092 -0.0040076356 0.04607103
0.090439856 0.059926137 -0.10871157 -0.076285765 0.11299021 0.029838243 -0.04869395 0.07831657
0.12702699 0.21599044 0.070186496 0.1488113 0.04496065 -0.12988357 0.29744318 -0.06037067
-0.22013569 -0.25716698 0.14185022 0.3348762 -0.11126116 -0.058889363 -0.28945652 0.045148786
-0.05829487 -0.12957662 0.17612417 -0.051088005 -0.15555733 0.055992484 -0.21935125 0.07444603
0.22042193 -0.0029616826 0.059552558 0.12654702 0.004914473 0.048786618 0.1777772 -0.20442435
0.2993927 -0.104585275 -0.3379072 -0.0391588 0.11683816 -0.01954201 -0.048401475 -0.10313963
-0.13596664 -0.124362804 -0.03401661 -0.10663463 -0.121485874 0.0015371299 -0.0990614 -0.21849173
0.07010829 -0.013931688 0.18786693 -0.052458 -0.33051863 0.022785468 -0.5488722 0.1388931
-0.019839872 0.166227 -0.01730671 -0.022795083 0.10438101 0.004637289 -0.21114305 -0.07726068
-0.065804854 -0.1394865 -0.14432901 0.16930236 0.0796715 -0.1650796 0.05299238 -0.27332717
0.0066485703 0.17500243 0.08491028 -0.1738884 -0.06851269 -0.03915404 -0.065059885 0.08002459
0.0129165575 0.081739224 0.22732605 -0.0066686575 -0.025526466 0.056125853 0.062479112 0.105335966
0.059049796 -0.15045515 0.04318233 0.04657109 -0.02529845 0.09965464 -0.24119191 0.043358326
-0.053621795 0.06815497 -0.013750272 -0.23663351 0.061558835 0.0032091567 -0.01640808 -0.11236636
-0.12446974 -0.14540166 -0.2264205 0.18914907 0.011499127 0.05825223 -0.081037655 -0.04001171
-0.15602688 -0.1814103 -0.14022456 -0.08033167 -0.07633794 0.20590444 0.32177314 0.085110195
-0.081429474 -0.06319597 -0.14006037 0.0852925 -0.5464518 -0.10962356 -0.37942505 0.22612467
0.08067525 0.05781401 -0.004757441 -0.098211624 0.09059712 -0.004192809 0.03477835 -0.01265532

LGEBs.0.phi_h.3.bias f4 [72]
00000000: 92c8 103c 62a1 aebd 7eb6 403d 3e77 33bd
00000010: c231 c43c f467 94bc 07c4 ccbd 9aa9 b8bc
00000020: 25b1 b2bd 7c81 be3d 6629 9ebc 1a9e db3d
00000030: 92df 40bd 8a11 13bd 20d2 183d dcc7 33bd
00000040: 500c 033c 74e5 bc3d a755 53bc 0e68 b2bd
00000050: 8295 89bc e4c1 723d c0bc a3bb 772e 693d
00000060: 6046 b5bc 96ea 963c 7d82 0cbd 381e 843d
00000070: b5b2 87bd 3c11 aab9 aefd 38bd 5570 9bbd
00000080: d346 84bb 20a1 2f3e e50b f4bc 4dea 73bd
00000090: 8357 6f3d 233a 28be c595 ce3c e07e 4dbc
000000a0: 5b53 f539 d4e0 23bc 6823 8ebc 4f45 a63d
000000b0: 21b1 443d 974d 7cbd 005a 0ebd d96f 0e3e
000000c0: a908 d3bd 61b0 2abd 5047 4f3c f547 903c
000000d0: f83f a5bc edd0 563d 9f79 a83d 5170 513b
000000e0: 6184 9a3d 33fc 293d 422e 823d d672 f3bd
000000f0: 469e d3bd ebb9 8f3c 74b8 a4bd 5b6b a33d
00000100: a1a7 6b3b 19d5 a53d 9ae9 473d 9479 73bc
00000110: 4add fabb dbd4 f4bb 7eae 9d3b bc69 86bc
0.008836882 -0.08526875 0.047049038 -0.04381489 0.023949508 -0.018115975 -0.09998327 -0.02254181
-0.08725194 0.09302041 -0.01930685 0.10723515 -0.047088213 -0.0359054 0.037309766 -0.043891773
0.007998541 0.09223452 -0.012898839 -0.08711253 -0.016794924 0.05926694 -0.004996866 0.056929078
-0.022128284 0.018422406 -0.03430413 0.06451076 -0.066258825 -0.00032437767 -0.045163803 -0.07589785
-0.004036763 0.17151308 -0.029790828 -0.05954962 0.058433067 -0.16428427 0.0252179 -0.012542456
0.00046792146 -0.010002334 -0.017350867 0.08118688 0.048020486 -0.061597433 -0.0347538 0.13909854
-0.10304386 -0.041672114 0.01265128 0.017612437 -0.020172104 0.05244534 0.082263224 0.0031957815
0.075447805 0.04150028 0.06356479 -0.118871376 -0.10332923 0.017544707 -0.08042994 0.07979461
0.003595807 0.08097286 0.048806764 -0.014860529 -0.0076557742 -0.0074716634 0.004812061 -0.01640784
