data/LorentzNet_model_wReweighting_2023Mar18.pt (torch, 948273 bytes, 117 tensors)

embedding.weight f4 [72, 2]
000000 42 6f 90 bc 2f ca 1e 3e c4 05 35 bb 4a b6 a4 3b
       -0.017631177 0.15506814 -0.0027621845 0.0050266134
000010 3f 5c 02 be 80 3e 71 be 1d d6 db ba 6a 1a 38 3c
       -0.12730502 -0.23558998 -0.0016772185 0.011236766
000020 63 83 8f ba 84 a1 00 3c c3 cb b5 bc a1 2a d1 bb
       -0.001094919 0.007851008 -0.022191888 -0.0063832556
000030 75 53 03 3c 49 7c 13 bc cb 12 19 bc a9 ad d3 3b
       0.008015503 -0.0090018 -0.0093428595 0.006459911
000040 32 d4 d7 3a 36 c4 e0 bb b7 5d a7 bb c4 7b 1c bc
       0.0016466437 -0.0068593277 -0.005107607 -0.009550992
000050 7c 8e 2c 3c d3 00 90 bc 11 ad 0b bd 47 1d 1e be
       0.010532018 -0.017578518 -0.034100596 -0.15440856
000060 9a ef ff 3d 26 a2 59 3e 3b e4 b1 39 32 16 7c 3b
       0.12496872 0.21253261 0.00033930116 0.0038465378
000070 51 8c c9 3b 0c 2d c0 3a c6 fe 30 39 08 c1 9c 39
       0.00615076 0.0014661863 0.00016879578 0.00029898458
000080 10 d1 d7 3e 49 87 38 be 91 dd 2c bb fa bb 86 3b
       0.4215169 -0.18020357 -0.002637718 0.004111764
000090 5d df b7 bd 5a fe 03 be 8e 80 91 bc 68 96 be bd
       -0.0897815 -0.12889996 -0.017761495 -0.093060315
0000a0 f8 83 31 38 52 6c 4b 3b e3 a0 2b 39 60 f1 0d 3b
       4.2322994e-05 0.0031039906 0.00016367766 0.0021658763
0000b0 fc 2e 8d bb 0c 1c cb bb ec e3 f6 3a 1e 29 d7 38
       -0.0043085795 -0.006198412 0.0018836237 0.000102596576
0000c0 f9 a7 b1 3d 1f cd 88 3e 18 3a 12 3c fb f6 03 bd
       0.08674616 0.26718995 0.008924983 -0.03221796
0000d0 4f 5c a0 be 88 e4 e1 bd 5d c3 f9 ba e2 e0 80 3c
       -0.31320426 -0.11029917 -0.0019055415 0.015732232
0000e0 95 f7 77 3e 95 e5 2f be 5c 01 7f ba f9 ac ef 3b
       0.24215539 -0.17177422 -0.00097276806 0.007314321
0000f0 e9 78 1c 3e f8 13 20 3e 36 f7 b4 3c 6a c2 58 3e
       0.15280499 0.15632617 0.022090536 0.21167913
000100 2b 67 bb bd 0f e7 ca be 84 72 46 3b 55 89 4f bc
       -0.09150537 -0.3962941 0.003028066 -0.01266702
000110 a4 d4 88 3b af bc 95 3b 1f a6 8a bc c1 d0 be 3d
       0.0041757394 0.004569612 -0.016924916 0.093171604
000120 af 45 bf bb 3a b8 76 3a f3 8e 9e 3b d6 31 dd 3d
       -0.0058371644 0.0009411607 0.004838818 0.10800521
000130 84 cf d9 ba f4 6c 21 3c 79 d5 99 3b 68 b0 82 bb
       -0.0016617631 0.009852637 0.0046946374 -0.0039883144
000140 1d e0 79 bc 91 7f c9 be b4 8d 93 bb 9b 63 b3 ba
       -0.015251187 -0.39355138 -0.0045029763 -0.0013686301
000150 c2 2d 28 3b dc c0 01 3e 9b 4c 8a 3b 88 06 4c be
       0.002566204 0.12671226 0.004220558 -0.19924366
000160 0c c9 a3 3b c7 aa ab bb c1 73 3c bb ea a2 b1 3a
       0.004998332 -0.005238864 -0.0028755518 0.001355258
000170 83 4a e1 bc 0c 6c 0c 3e 79 06 9a bb e8 f6 90 bb
       -0.02750135 0.13713092 -0.0047004786 -0.004423965
000180 67 9d aa 3b e1 1b f9 3a 38 9a 51 3d 3d 5b b1 be
       0.005206752 0.0019005501 0.051172465 -0.34639922
000190 e5 e1 02 ba c0 7c 0e 3c f8 8c 2b 3b 65 f2 9a bd
       -0.00049927674 0.008696735 0.0026176553 -0.07565764
0001a0 77 77 31 3c 7e 5a 14 be f6 9b ae bb e7 e3 37 bb
       0.010831705 -0.14487645 -0.0053286506 -0.0028059424
0001b0 a1 53 d6 3b 20 89 19 bd 60 0a b8 3b d3 73 a4 3b
       0.006540731 -0.03748429 0.005616471 0.00501869
0001c0 a8 5d a3 bb b3 bc 84 bb 2c 4f 96 bb ff 64 21 3e
       -0.00498553 -0.004050815 -0.0045870747 0.15761183
0001d0 8e bc bf 3d 8d b1 6f 3e c2 21 b3 bb 80 76 c4 bb
       0.09362136 0.23407574 -0.0054666707 -0.0059955716
0001e0 e6 65 38 3e 9f 63 f1 3d fa 42 37 bc 6d a7 bd be
       0.18007621 0.11786579 -0.011185402 -0.37041798
0001f0 8d 11 62 bb 8c 96 8d b9 d4 05 56 be c6 3c 56 be
       -0.0034495324 -0.00027005782 -0.20900661 -0.2092162
000200 9e af fe ba de 50 0b bc 82 08 b3 bd 73 10 21 be
       -0.0019431 -0.008503167 -0.08741857 -0.15728931
000210 70 e6 0c 3a 35 d4 89 bb 91 91 a8 bb db 60 c9 3d
       0.0005374914 -0.0042062053 -0.005144306 0.09832927
000220 fa 3d e8 bb b6 49 61 3e b0 e4 43 3c 78 e7 a3 bb
       -0.0070874663 0.22000775 0.011956379 -0.0050019585
000230 71 df 9d bb 2f cb bd 3b bc 2e b8 be 9c 96 81 3e
       -0.004817896 0.0057920436 -0.35973155 0.25310218

embedding.bias f4 [72]
000000 78 0f 7e bb 85 44 8c 3c 12 5b 6b 3c 3d 19 e8 3c
       -0.0038766544 0.017122516 0.014364975 0.028332347
000010 ec ac 64 bb e1 d9 08 bd 0e 90 ff 3c d3 b7 81 3c
       -0.0034893109 -0.03341091 0.03119662 0.015834725
000020 fd 98 14 3b bf 95 73 bc 18 ec 84 bc 1d b0 51 3c
       0.0022674196 -0.014867245 -0.01622586 0.012798336
000030 f9 54 7b bc 92 73 65 bc 0f cb 0f 3b 9d 5b 94 3c
       -0.015340083 -0.014004605 0.00219411 0.01811009
000040 a1 e4 83 bb 69 f1 27 3b 67 6e b7 3c d3 0e 65 3b
       -0.0040250574 0.002562607 0.022391511 0.0034951463
000050 4d f4 88 3b f8 4c 1c 3b cb fd 4b bc 0e 5e 07 bc
       0.0041795135 0.0023849588 -0.012450646 -0.0082621705
000060 55 92 01 3c 64 b4 88 3a 72 ca 1b 3d bb 8e b3 bb
       0.007908423 0.0010429737 0.038034864 -0.0054796613
000070 67 b1 51 3c 2f 77 81 bc 0f 61 06 3c 76 e6 db bc
       0.012798644 -0.015803901 0.0082018515 -0.02684329
000080 88 f3 31 bb d3 1f 33 bb 6c 4b d5 bb 2c e7 37 3d
       -0.0027153213 -0.00273322 -0.006509235 0.044898197
000090 cd 60 a6 3b a5 cd 0d 3d c7 1f d8 3a f1 40 81 bc
       0.0050774575 0.034619946 0.0016488963 -0.015778037
0000a0 65 a0 54 ba 71 3e 07 3c 84 19 9e 3c a1 4b aa bc
       -0.0008111059 0.008254633 0.019299276 -0.020788016
0000b0 ee bf 95 3c f8 cd 4b bc 3a 96 8d 3b 0d 5e 4d bc
       0.018279996 -0.0124392435 0.004320887 -0.0125346305
0000c0 d4 19 09 3c df 05 01 bc 9d 35 e0 3b 9c 3e 51 3b
       0.008367974 -0.007874935 0.0068423287 0.0031928187
0000d0 43 6c 2d bc 36 eb 17 bc 2e 34 4a 3c be 91 2c 3c
       -0.010584894 -0.009272387 0.012341542 0.0105327945
0000e0 54 22 b0 3c ff 35 f5 3b aa c0 b7 3b f7 1c 07 3b
       0.021500744 0.0074832435 0.005607684 0.002061663
0000f0 25 fc 1a 3b 74 22 e6 3b 65 b4 fe 3a 63 98 25 b9
       0.0023648825 0.00702315 0.0019432424 -0.00015792395
000100 d6 9c 8d 3b 8c 92 a0 3b b2 b6 4d 3c cc 56 e2 3c
       0.004321675 0.0049002822 0.012555765 0.027629279
000110 2c 4b ad bc 8c 81 d4 bb d1 fa 57 3c 5e 45 df ba
       -0.021154009 -0.0064851698 0.013182358 -0.0017034223

LGEBs.0.phi_e.0.weight f4 [72, 146]
000000 e8 17 2e bb e0 bd 19 bb 8c b9 ba ba eb 40 b9 3a
       -0.0026564542 -0.0023459122 -0.0014245971 0.0014133727
000010 40 9b 31 bb d7 fe 9b b9 df ea 83 bb 99 d6 d3 b8
       -0.0027100593 -0.00029753774 -0.0040258016 -0.00010101236
000020 3d e3 00 bb d8 f5 40 3b e2 3d 9d ba 66 33 af 3a
       -0.0019666695 0.002944341 -0.0011996592 0.0013366758
000030 e3 64 9e b9 91 a9 88 bb 4f c7 85 ba d7 c2 30 3b
       -0.00030211275 -0.0041706045 -0.0010206493 0.0026971602
000040 02 0f d1 39 e6 ef 15 bb c0 a9 ca b9 1a 36 3e 3a
       0.00039874768 -0.0022878586 -0.00038654916 0.00072559866
000050 0d 01 5f 39 94 9f b1 b8 43 34 ac ba 0b f8 50 ba
       0.00021267329 -8.4697414e-05 -0.0013138134 -0.00079715316
000060 05 9f a7 ba 7b 4e 35 3b 20 ed 76 3a 9b b0 3f 39
       -0.001278848 0.0027665186 0.00094194897 0.0001828097
000070 52 77 08 3a 0f 0b 8c 3a 99 7f 27 b9 36 59 42 bb
       0.00052057684 0.0010684448 -0.00015973895 -0.0029655225
000080 d6 35 f6 3a 22 33 37 bb 2d 05 5e b9 0a 2c 9c b7
       0.0018784355 -0.0027954062 -0.00021173498 -1.8617156e-05
000090 b2 f4 92 3a cd fc 32 bb 9a 11 5a ba 50 af 52 3b
       0.0011211841 -0.0027311326 -0.0008318663 0.0032147951
0000a0 71 f4 40 3b be 52 62 bb f5 39 d7 ba 8b 94 96 3a
       0.0029442573 -0.0034534181 -0.0016420471 0.0011488361
0000b0 b3 5c 9d 3a 34 d1 4a bb 89 9d ff b9 5b 6b 09 bb
       0.0012005776 -0.0030947449 -0.00048754763 -0.002096853
0000c0 2b 8d 21 bb 9c e9 d1 3a 18 06 40 39 ca 79 4e 3b
       -0.0024650793 0.0016015056 0.00018312817 0.0031505697
0000d0 a3 b5 9f 3a 76 9d 66 3b 95 85 32 3a e0 96 1b 3b
       0.0012184869 0.003518907 0.00068100664 0.0023741052
0000e0 c0 7c 54 3b e5 e9 68 bb 34 e5 5a b9 91 12 eb 3a
       0.003242299 -0.0035539803 -0.00020875485 0.001793461
0000f0 07 96 0a 3a 0a dd 4c 3b 0b 9e 5f 3b c1 60 22 3a
       0.0005286638 0.003125968 0.00341213 0.0006194227
000100 1a b4 90 3a 10 0b ae 38 de b8 eb 3a 78 c2 96 ba
       0.0011040003 8.299027e-05 0.0017984172 -0.0011502048
000110 a6 b6 9e ba b7 82 90 3a 58 5d 35 3b 7a 1d 14 bb
       -0.0012108877 0.0011025284 0.0027674045 -0.0022600577
000120 dd 5e e2 bb 30 12 a6 bb 2c 24 ae bb ea 33 ba ba
       -0.0069082812 -0.005068086 -0.0053143706 -0.0014206145
000130 b0 c4 d0 bb 84 91 18 3b 52 be 06 39 c7 af 22 bb
       -0.006371103 0.0023280093 0.00012850136 -0.002482401
000140 3d 1c 1e bb 8e 4c 64 3b 31 eb b6 3b 66 4e 24 3b
       -0.0024125718 0.003483567 0.005582236 0.0025071143
000150 43 11 8d bb 83 f2 07 3a 53 f7 a6 bb 83 48 cb 3b
       -0.0043050363 0.00051859784 -0.0050954013 0.0062037124
000160 c2 83 99 3b a4 fa c5 bb 1f e4 32 bb 7b f0 b9 3b
       0.004684896 -0.0060418416 -0.0027296615 0.0056744195
000170 37 d1 5c bb 92 10 e7 bb b3 91 33 ba 21 11 4b 3a
       -0.0033694038 -0.007051536 -0.0006850019 0.0007746388
000180 7d e9 b0 bb a0 d7 c5 3b 38 72 80 3a 4e b1 ca ba
       -0.0053989277 0.0060376674 0.0009799665 -0.0015464218
000190 71 03 75 3b fb 34 fd ba ac 63 af b9 43 16 be bb
       0.0037386084 -0.0019318158 -0.00033452862 -0.0058009936
0001a0 d0 98 c4 3b 9d ad cf bb 7d 7a da 3a 58 3f 8d bb
       0.005999662 -0.006337835 0.0016668584 -0.0043105297
0001b0 20 42 9b 3b 71 0e cb bb b5 e4 84 3b 6b 41 cd 3b
       0.0047381073 -0.00619679 0.0040555843 0.006263902
0001c0 90 cc cc 3b 65 7b e4 bb 08 29 aa bb c1 3a c1 3b
       0.0062499717 -0.0069727176 -0.0051928796 0.0058968966
0001d0 c2 fe bf 3b ca e2 08 bc 6f b6 de bb ba dc e5 bb
       0.005859227 -0.008354852 -0.00679665 -0.007014838
0001e0 9a e2 a9 bb 54 07 f6 3b a8 40 85 3b 11 c7 03 3c
       -0.0051844837 0.007508198 0.0040665455 0.008043067
0001f0 7c c4 c8 3b 39 9c fb 3b 29 11 1b b9 0a f6 ce 3b
       0.0061269384 0.0076785353 -0.00014788345 0.0063159512
000200 5a d5 ec 3b c5 ce 13 bc e9 00 a0 bb f4 d4 0e bb
       0.007227582 -0.009021466 -0.004882921 -0.002179441
000210 e5 5e 82 3b ef 11 da 3b 1e bc 59 bb 2e 51 69 3b
       0.0039785975 0.00665497 -0.00332237 0.0035601365
000220 08 77 f1 b8 81 3b 66 3b 78 bb d7 3b cd 7f af bb
       -0.00011513947 0.0035130682 0.0065836273 -0.005355811
000230 3e f3 e0 bb 18 02 9f b9 89 42 b5 3b 93 44 d2 bb
       -0.006864934 -0.00030328403 0.0055316132 -0.006416866
000240 d3 54 1a bb cd 0d d6 39 61 f6 c3 bd ad b4 5f 3d
       -0.0023549094 0.00040827543 -0.095684774 0.054615665
000250 ae ba 26 be a4 1c d1 bc df 44 16 bd 71 b2 f9 bd
       -0.1628215 -0.025526352 -0.036686774 -0.12192238
000260 3b fa 74 3c fb 6f 53 3c 7e 37 c2 bc 87 22 4f 3b
       0.014952238 0.012905116 -0.023708101 0.0031606273
000270 6f be b2 3c 33 7f 61 bd c3 19 1b 3e b5 97 1f 3c
       0.021819321 -0.055052947 0.15146546 0.00974076
000280 d2 18 5a 3b 3d 3a 32 3c 89 2d 1b 3e d6 3b f6 bb
       0.0033278954 0.010878143 0.15154089 -0.007514457
000290 32 e6 0f be 61 80 c2 bd 73 39 09 3d 62 e5 dc bc
       -0.14052656 -0.094971426 0.033502053 -0.026964847
0002a0 b7 07 03 3c a0 65 dd 3c bc a9 14 3e c7 52 f3 3d
       0.007997445 0.027025998 0.14517874 0.11881023
0002b0 5d 34 22 be 6c 1d 2c bd d5 04 0c 3e e9 8a 8f bb
       -0.15840288 -0.042020246 0.13673718 -0.004380573
0002c0 6f 55 18 3e 83 62 a8 3d 4a 44 0a be 95 af 87 bd
       0.1487634 0.082219146 -0.13502613 -0.066252865
0002d0 1d 6c 36 3d 89 1c b9 bd 0c 05 d9 bc 3d 60 cc bc
       0.0445367 -0.09038646 -0.026491664 -0.024948234
0002e0 cd 7d 0a bd aa ab 0e bd ba 78 17 3d e8 dc 68 bc
       -0.03381138 -0.03483168 0.03698037 -0.014212824
0002f0 36 d2 8d bd 7a de 99 3d a8 b5 30 bd bd 82 46 bc
       -0.0692486 0.07513137 -0.04314199 -0.012116131
000300 db 3c 48 be 92 2d 0a be 43 c0 66 bc 8f 68 04 3e
       -0.19554465 -0.13493946 -0.014083925 0.12930511
000310 46 8f ed 3c 0c 55 8c 3d 5b d0 3f 3d 36 c7 e0 3a
       0.028998982 0.06852159 0.046829563 0.0017149213
000320 0c 16 e8 3c e1 02 bb 3c 60 61 64 bd 41 3b 0f be
       0.028330825 0.022828521 -0.055756927 -0.13987447
000330 1d e1 12 3e 99 ad 88 bd a1 a5 14 3e 1e fb 82 bb
       0.14343686 -0.06673736 0.14516307 -0.0039972207
000340 6a 4f ce bc 99 3e 23 be b4 16 70 bd 4d 78 09 be
       -0.025184352 -0.15941848 -0.0586154 -0.13424797
000350 33 55 1e 3d 41 47 da bc 61 fb 01 be 2d 68 08 3d
       0.03865547 -0.026645305 -0.1269355 0.033302475
000360 c1 79 6e 3c f7 d7 16 be a4 f9 1c 3c 43 e6 31 3d
       0.014555396 -0.14730822 0.009581003 0.043432485
000370 b8 68 e5 3c 5f 54 48 bd 76 fc 02 bd c0 b1 77 3d
       0.028004035 -0.048908588 -0.031979047 0.06047225
000380 ca cd 15 bd e5 d6 a8 bc 61 a1 25 bb 7a 24 41 3c
       -0.03657321 -0.020610282 -0.0025273191 0.011788482
000390 f4 45 21 3d 82 a4 c7 bb 9a 97 c3 bc 58 5d 84 3c
       0.039373353 -0.006092609 -0.023876 0.016157791
0003a0 df 43 f7 3b 5b 01 0e bd 50 9f b0 bd 99 03 be 3c
       0.0075459327 -0.03466926 -0.086241364 0.023195075
0003b0 44 e5 d2 3c 3c a8 64 3b 7d 32 20 bc 40 9c 3b bd
       0.025744088 0.0034890315 -0.009777662 -0.04580331
0003c0 04 f2 49 bc 99 f9 86 3c 87 64 46 bc a2 02 75 3b
       -0.012325767 0.01647644 -0.0121089285 0.0037385602
0003d0 5c 3d 9a 3d da 10 51 bd 3f 2e a4 bd eb f5 07 3c
       0.075312346 -0.05104146 -0.08016633 0.0082983775
0003e0 85 92 06 bd 31 3d 02 3c 11 9f 8c 3b f6 cb 31 bc
       -0.032854576 0.0079491595 0.004291423 -0.010851851
0003f0 95 eb 72 3a 03 ba 1f 3d 4d 9a cf 3c 7e ce b4 3b
       0.0009266672 0.038995754 0.025342131 0.00551778

LGEBs.0.phi_e.1.weight f4 [72]
000000 37 62 9f 38 9d fd f2 3e fb df 39 ba 72 4f 2e 39
       7.600005e-05 0.47459117 -0.00070905656 0.00016623529
000010 4e 4f 44 3e f2 62 99 3e bc 93 6f 3b 82 a6 8f 3e
       0.19170877 0.29958302 0.0036556562 0.28056723
000020 c1 90 fa 3e 5a 47 48 3e e3 42 d8 39 d9 97 1a 3b
       0.48938563 0.19558468 0.00041248565 0.0023589043
000030 96 e7 d5 3e 31 1b 91 3e b8 68 88 3a 30 b8 c4 3a
       0.4177825 0.28341058 0.0010407185 0.0015008505
000040 e7 69 25 3b 81 be d3 39 bb dc 6c 3e 8f a7 e7 3e
       0.0025240125 0.00040386993 0.23131077 0.45245025
000050 44 ac c7 39 c4 a8 bc 3e fa 9b 5f 39 50 dc 20 3e
       0.00038084586 0.36847508 0.00021325043 0.15709043
000060 6b 78 ae 3e 90 38 85 3a 86 0a 0b 3a f5 08 78 3e
       0.34076247 0.0010163952 0.00053039973 0.24222167
000070 5e c7 00 3e fa 36 0d 3b 23 6b e2 3b fc 9c b1 3e
       0.12576053 0.002154766 0.0069097443 0.34690082
000080 51 6c cb 3a 04 5b 8c 3b 00 a4 e1 39 4c 0c 07 39
       0.0015519952 0.004283311 0.00043037534 0.00012879184
000090 86 c7 15 3f fc f2 e7 b9 c2 4a 99 3e 57 54 d7 3e
       0.58507574 -0.0004424079 0.29939848 0.42056534
0000a0 b3 57 6b 3b 60 86 bd 3e ae 44 95 3a 19 3e 87 3e
       0.0035910427 0.37016582 0.0011388266 0.26414564
0000b0 1f fc 7a 3a 48 c2 55 3e 72 43 94 3a a2 5b b3 3a
       0.0009574312 0.20874894 0.0011311604 0.0013683925
0000c0 94 63 d6 3e 53 23 71 3e 95 e4 46 3b bf 29 d7 3a
       0.41872847 0.23548631 0.0030348648 0.001641564
0000d0 80 26 a6 3b ec f9 c0 3e d5 7a aa 3a 17 1d 54 39
       0.0050705075 0.37690675 0.0013006578 0.00020228732
0000e0 b8 59 7f 3b fa 20 65 3e b7 78 e7 3b dd 07 7e 3e
       0.0038963389 0.22375861 0.007063951 0.24807687
0000f0 de 1c 8c 3e 9d f8 a5 3a 2a 7c 07 38 83 c1 b2 3e
       0.27365774 0.0012662594 3.2302145e-05 0.34913263
000100 e7 3e 4f 3e bb ee 4d 3e 9b 04 ec 3b 6b 5f d1 39
       0.20238839 0.201106 0.0072026975 0.00039934678
000110 a8 06 9c 3d fb 92 28 3a 93 34 be 3e 40 5d 24 3b
       0.07618457 0.0006430593 0.37149486 0.0025079995

LGEBs.0.phi_e.1.bias f4 [72]
000000 3b 38 1d bb 1e fa e0 3c 10 d0 94 bb 4f 41 bb bb
       -0.0023989815 0.027463015 -0.0045414045 -0.0057145725
000010 a2 25 0f 3b c2 02 73 3d 5d 58 fb bc b7 72 8c 3d
       0.00218425 0.059328802 -0.030681783 0.068578176
000020 a1 fa d9 bd de c2 89 be 87 fd 1a bc 72 24 26 bb
       -0.10643507 -0.26906484 -0.00945986 -0.0025351313
000030 8e 65 8f bb ef d1 05 be e6 00 34 bb dc 99 04 bc
       -0.00437612 -0.13068365 -0.0027466356 -0.008093324
000040 6e 16 42 bb bb 77 82 ba 4c 4e 57 3d 2e f4 c0 b9
       -0.002961542 -0.0009953895 0.052564904 -0.00036803022
000050 a1 18 c5 ba a6 dc 7c 3d 14 63 85 bb 65 72 15 bd
       -0.0015037247 0.061733864 -0.004070649 -0.03648605
000060 a0 6a 2c bd 36 23 8b ba da a5 e2 ba b3 1f cd bd
       -0.042093873 -0.0010615352 -0.0017291859 -0.10015812
000070 d3 45 e1 3c af 86 bb bb a2 3b 5d bc 15 d5 ed bd
       0.027499115 -0.0057228426 -0.013502987 -0.11612908
000080 55 1a 68 bb 82 2f e3 bb 2d ec 35 bb 1c fe d6 bb
       -0.0035416086 -0.0069331536 -0.002775918 -0.006561054
000090 49 7b ea bc b5 f3 34 bb d5 90 8a 3d d2 26 25 bd
       -0.02862324 -0.002761108 0.06765906 -0.040320225
0000a0 4a 95 48 bc 42 8d 15 3b 97 dc fd ba 92 7c 83 3d
       -0.012242625 0.0022819792 -0.0019368109 0.06420244
0000b0 a2 7c 16 bc 0a d7 1a bd db e6 6a bb 3c 88 bc ba
       -0.009184988 -0.037802733 -0.0035843167 -0.0014383863
0000c0 80 fb 1e 3d 4b 42 bd 3d c0 1c 77 bc 84 7d c6 bb
       0.038814068 0.0924116 -0.015082538 -0.006057443
0000d0 75 70 87 bb e4 00 39 3d 79 27 a7 ba c0 65 a7 ba
       -0.004133279 0.045166865 -0.0012752853 -0.0012771413
0000e0 b0 69 17 bd c6 c8 1b 3b f4 cb b3 bb b9 6f 3a bc
       -0.036966026 0.0023770793 -0.0054869596 -0.011379176
0000f0 69 38 69 3d fd 28 b9 ba 82 ef a4 ba b6 45 20 bd
       0.056938563 -0.0014126595 -0.0012583586 -0.03912898
000100 07 e1 13 bd 1f da 13 bd 62 c5 61 bc a0 0c fd ba
       -0.036103275 -0.03609669 -0.01377997 -0.0019306131
000110 96 b0 40 bd ae 6e 2a bb f4 b3 16 bd e1 d3 34 bb
       -0.047043405 -0.0026005912 -0.03679271 -0.002759211

LGEBs.0.phi_e.1.running_mean f4 [72]
000000 9b a8 a0 ba a8 93 0b be 26 79 81 3a 65 d5 9f 3b
       -0.001225728 -0.13630545 0.0009878024 0.0048777335
000010 4d 44 5d bd ad 5b 1a 3e f6 df 97 bc 7b 1b 10 3e
       -0.054020215 0.15074034 -0.01853941 0.14072983
000020 72 e6 48 bd 44 27 35 3e 4d 5e 1c 3b 87 29 7a bb
       -0.049047895 0.1769076 0.0023859919 -0.0038171725
000030 72 d5 a1 3d 50 20 57 3c f1 d8 68 bb 46 7c 7d bb
       0.079020396 0.0131302625 -0.0035529698 -0.003867881
000040 b4 d5 bf bb 09 15 6e ba 00 9c e6 3d b4 12 25 3e
       -0.005854333 -0.0009082114 0.112602234 0.16120416
000050 0e e9 ae 3a 0a 0f e3 3b 03 ad 1d 3b 1d 6a 31 3d
       0.0013344602 0.006929283 0.0024059422 0.043314088
000060 4d 7e 1d be c5 3e 56 ba 85 76 48 bb 09 7f a1 3c
       -0.15380211 -0.00081728055 -0.0030588221 0.019713895
000070 4a dd 52 3e ea be 26 bc 8f 62 ed bc f9 d7 9b bd
       0.20592228 -0.010177353 -0.02897766 -0.07609553
000080 54 da 76 bb 01 5a 35 bc 56 fe c4 39 95 5d e0 3a
       -0.0037666755 -0.011068822 0.00037573528 0.0017117733
000090 52 d6 5d be 45 93 9a ba f9 dd 26 3e 93 0c 02 be
       -0.21663788 -0.0011793157 0.16295613 -0.12700109
0000a0 55 4a 95 bc f5 20 54 bd d5 d9 61 ba 87 46 ff 3d
       -0.01822392 -0.051789243 -0.00086155283 0.12464624
0000b0 0b 79 f4 3c 13 4e 81 3e a0 21 2e bb 00 75 06 bb
       0.029842874 0.25254878 -0.0026570335 -0.0020516515
0000c0 7c 85 b4 bd 99 ae 59 bd 7b 54 c8 3b ba 81 99 bb
       -0.088145226 -0.053145025 0.0061135865 -0.004684654
0000d0 a3 32 57 bd a9 dc a4 bd 91 3b 62 bb 81 1c ce b9
       -0.052538525 -0.080499 -0.0034520368 -0.0003931262
0000e0 be d0 9d 3d 3f da 66 bd e3 24 17 bc e6 64 0b bd
       0.0770583 -0.05636048 -0.009225103 -0.03403177
0000f0 26 c2 e5 3d 59 aa 00 bb ce 3f 96 3b d6 cb 0f be
       0.112186715 -0.0019632785 0.004585243 -0.14042601
000100 fa 33 7a 3e 8b bc 7b 3e 45 a9 dc bc 67 fc d1 39
       0.2443389 0.24583642 -0.026936183 0.0004005164
000110 db 00 03 3d e4 19 80 ba 0d 77 13 be 64 40 00 bc
       0.031983238 -0.0009773341 -0.14400883 -0.007827852

LGEBs.0.phi_e.1.running_var f4 [72]
000000 47 c2 ee 37 a0 37 4a 3e a8 85 41 37 f5 00 17 39
       2.8462278e-05 0.19747782 1.1534816e-05 0.00014400839
000010 4b 82 29 3d 23 24 5c 3e 4a ae 9a 3b a1 5f 49 3e
       0.041384023 0.2149816 0.004720484 0.19665386
000020 7e e0 14 3d 73 10 e2 3d ff 3f 9c 38 95 ed 7c 38
       0.036346905 0.11038294 7.45058e-05 6.0302747e-05
000030 9d b4 e2 3d 2c 89 1d 3d 9c 40 d7 38 37 84 d4 39
       0.110696055 0.038460895 0.00010264033 0.000405343
000040 4f 97 4b 39 f6 0a c0 36 c6 e8 17 3e b7 9a 35 3e
       0.00019415955 5.723322e-06 0.1483489 0.177348
000050 0b a1 16 39 2f 3c 0c 3d 1c 9f a9 37 2e b1 97 3d
       0.00014365108 0.034237083 2.0220461e-05 0.07406841
000060 17 0f 1e 3e 69 18 88 36 17 59 e1 38 ac bb 22 3d
       0.15435444 4.0559576e-06 0.0001074543 0.03972976
000070 4f 4f b0 3e 81 d0 7a 3a a6 06 e9 3b ca 31 2f 3d
       0.34435508 0.00095678127 0.0071113883 0.042772092
000080 56 37 2f 39 f2 13 76 3a 8d 37 1e 37 a9 fa 88 38
       0.00016709915 0.00093871274 9.430468e-06 6.5316744e-05
000090 f6 3c d3 3e 93 96 3f 37 08 6b 92 3e 3f 4f de 3d
       0.41257447 1.1419545e-05 0.28597283 0.10854959
0000a0 67 0b 20 3b 52 04 aa 3c 6d b9 e0 36 ca 46 26 3e
       0.0024420859 0.020754013 6.6973066e-06 0.16237941
0000b0 61 08 85 3c 29 2f 18 3f 9a d7 a6 38 ea 8f ad 37
       0.016239347 0.5944696 7.955656e-05 2.0690222e-05
0000c0 93 d9 9a 3d e5 55 6f 3d d6 f7 75 3b 40 e5 0c 3a
       0.0756103 0.058431525 0.0037531755 0.0005374737
0000d0 ea f7 6d 3c e1 f5 a3 3d 51 8b a9 38 1d 4b cd 37
       0.014524439 0.08005882 8.084498e-05 2.4472882e-05
0000e0 6d db b9 3c 17 8d ac 3c c0 d5 0f 3a 0d 95 a0 3c
       0.022687638 0.02106337 0.00054868683 0.019602323
0000f0 67 60 1e 3e d3 18 a9 37 0e 91 99 39 0f 1b 05 3e
       0.15466462 2.015793e-05 0.00029290508 0.12998603
000100 14 ea 0c 3f 21 09 11 3f 94 96 90 3b be 6f 28 37
       0.55044675 0.56654555 0.0044124816 1.0039597e-05
000110 e7 ac 82 3d 86 57 23 37 0b 37 13 3e ff 34 c0 39
       0.06380635 9.735935e-06 0.14376466 0.0003666058

LGEBs.0.phi_e.3.weight f4 [72, 72]
000000 2e e4 4a 39 b2 8c 1f b8 b8 43 08 ba 3f ec e7 b8
       0.00019349225 -3.8039587e-05 -0.0005198079 -0.000110589426
000010 8a 40 69 39 2a 08 ea 38 14 9c 0a b9 79 08 06 37
       0.00022244654 0.0001115951 -0.00013218849 7.988995e-06
000020 6b f0 37 39 e6 1a f0 b9 5c 73 24 b7 07 67 fa 38
       0.00017541803 -0.00045796408 -9.802021e-06 0.00011940119
000030 8d ae 8a 39 28 a1 33 39 5a 33 6c 39 5d 9e e7 b8
       0.00026451462 0.00017130806 0.00022525844 -0.00011044436
000040 07 a2 45 38 93 05 30 36 2d 41 f2 b9 04 48 c8 b7
       4.711936e-05 2.6229288e-06 -0.00046206397 -2.3875393e-05
000050 48 38 e1 39 53 62 14 ba 02 af dd 39 4c 20 16 ba
       0.00042957277 -0.00056604034 0.00042282796 -0.00057268585
000060 74 0b 3f 39 60 9e d6 b9 53 7d 16 39 c4 77 ac b8
       0.00018219446 -0.0004093526 0.00014351802 -8.223907e-05
000070 2a 3e 14 39 0d 3f a3 b9 8a f3 14 39 61 3b 77 39
       0.00014137538 -0.0003113676 0.00014205105 0.00023577876
000080 b7 b2 f9 39 53 ee 79 39 74 dc b2 b9 8c e4 03 ba
       0.00047626134 0.00023835273 -0.00034115056 -0.00050313096
000090 6b 3c 02 b9 29 f7 aa b9 ea 5c 29 ba 4a 8e 12 b9
       -0.00012420274 -0.00032609075 -0.00064606837 -0.00013976652
0000a0 70 df ca 38 09 3a aa b9 c6 94 e6 39 7c dd 0a ba
       9.673729e-05 -0.00032468166 0.00043979863 -0.0005297286
0000b0 e6 d5 39 b8 62 15 e0 b9 bc be 5d 39 00 e8 0d ba
       -4.4306646e-05 -0.0004274054 0.00021147256 -0.0005413294
0000c0 55 ad b2 b9 b6 57 a4 b9 aa 5d ce b9 1a a0 e3 b9
       -0.00034079948 -0.00031345867 -0.00039361167 -0.000434161
0000d0 01 10 0e 39 61 9a e6 38 87 e4 13 b8 ac d3 39 39
       0.00013548137 0.0001099601 -3.5260364e-05 0.00017721829
0000e0 0e db e7 b9 1a a4 f6 b9 b6 08 f0 39 b1 00 81 39
       -0.00044222962 -0.00047043042 0.00045782857 0.00024605313
0000f0 a9 c1 7d b9 b6 c0 07 3a fa 5a d1 b9 a6 01 ab b9
       -0.00024200104 0.00051785575 -0.0003993137 -0.0003261689
000100 72 d4 ec 39 d7 cf 01 ba 38 c1 02 ba 40 a9 09 39
       0.00045171712 -0.000495193 -0.0004987898 0.00013128389
000110 9e 44 da b8 9d 00 1a ba c5 06 a6 38 e5 e8 ed b9
       -0.00010407831 -0.0005874725 7.916758e-05 -0.00045377683
000120 21 6d 85 ba 95 1a 10 3a f1 fd 12 ba 64 8d 95 b9
       -0.0010179618 0.0005497125 -0.0005607298 -0.0002852484
000130 31 47 f4 39 5c 9c 12 3a 0a 71 0c ba 1e 10 15 39
       0.00046592348 0.00055927574 -0.00053574203 0.00014215751
000140 c2 31 a1 38 40 69 72 ba d9 50 ef 39 24 95 c0 38
       7.686346e-05 -0.0009247251 0.00045645869 9.183053e-05
000150 55 59 7b ba 38 75 80 b9 a7 f1 66 ba 07 31 8b b9
       -0.00095882016 -0.00024501397 -0.0008809813 -0.00026548674
000160 a2 05 a0 ba 71 e6 2a ba c7 c1 dc b9 7b 3e c1 b9
       -0.001220871 -0.0006519324 -0.00042106045 -0.0003685838
000170 f2 ed e6 b9 ee 67 38 3a 1d a7 7a b9 de 0d 43 b9
       -0.00044046302 0.00070345297 -0.00023904112 -0.00018601815
000180 ed dd 3b 39 ff 00 1a ba f7 d0 df ba ae c1 a9 39
       0.00017916384 -0.0005874782 -0.0017075826 0.00032378495
000190 21 e9 01 39 10 5a fd 39 5b bf db ba 40 87 38 3a
       0.00012389246 0.00048323022 -0.0016765402 0.0007039197
0001a0 b8 9f 77 3a b1 73 a8 ba e8 54 53 ba ad 21 20 ba
       0.0009446102 -0.0012851862 -0.0008061663 -0.00061085337
0001b0 02 2f 0a 3a 13 93 c6 b9 e7 ad 63 3a 3d 21 c6 39
       0.0005271287 -0.00037875082 0.0008685276 0.00037790267
0001c0 f8 e2 92 3a 98 f8 cd b9 bf 0c 76 39 ce 8b 2e b9
       0.0011206558 -0.00039285864 0.00023465136 -0.00016646014
0001d0 56 a6 cb b7 12 9f c2 b7 56 08 8f b9 4e cd 01 bb
       -2.4276942e-05 -2.3200675e-05 -0.00027281296 -0.001980621
0001e0 c2 6a 06 b9 c4 f0 94 3a 24 0e 4e ba e6 df ad ba
       -0.00012819006 0.0011363258 -0.00078603835 -0.001326558
0001f0 11 06 7f b9 4e 82 2e ba 49 13 2c bb 9b 39 00 3a
       -0.00024320955 -0.000665699 -0.0026256612 0.00048913964
000200 97 af 41 b9 0e 63 0e ba a8 9d 89 b8 90 cd 9c ba
       -0.00018471327 -0.00054316304 -6.562035e-05 -0.0011963118
000210 46 30 7a ba cf 58 24 bb 17 45 09 ba f3 bf 24 ba
       -0.00095439365 -0.0025077348 -0.00052364304 -0.0006284706
000220 57 dc 81 b9 6a 3f 8f ba 1f ef f3 ba bb 82 d2 37
       -0.00024768963 -0.0010928933 -0.0018610692 2.5094827e-05
000230 56 20 a1 b8 1d 7e 5e 3a ff 5d 2a 3a 91 41 93 b9
       -7.683101e-05 0.000848742 0.0006498992 -0.00028086876
000240 0e 98 4c 3b 15 e1 6c 3e 6f c1 09 ba 29 26 7e b9
       0.0031218561 0.23132737 -0.0005254959 -0.00024237543
000250 4e dd d8 bd 29 93 74 bc 8d 4e c0 bb 91 18 b6 bc
       -0.105890855 -0.014927664 -0.005868739 -0.022228511
000260 67 fc b2 3d 13 bc 3b be ee 38 9f 37 0f f5 41 38
       0.08739548 -0.18333463 1.8980787e-05 4.6243014e-05
000270 e9 83 7c 3d a0 88 78 3d f4 55 bc 38 ef 4a 11 3c
       0.061649237 0.06067717 8.9805486e-05 0.008867963
000280 fd 2f cb ba d1 73 af 39 17 6f 35 bd 5a ff a6 3d
       -0.0015501973 0.0003346489 -0.044295397 0.08154173
000290 de b6 98 bb 5d 6a c0 3e 53 e8 3d b9 58 9c e2 3b
       -0.0046604713 0.3758115 -0.00018110992 0.0069156103
0002a0 e8 b5 ad bd 57 29 12 3a 06 f9 44 3a 20 a3 82 3d
       -0.084819615 0.0005575618 0.0007513914 0.0637877
0002b0 e3 90 7f 3d 72 c1 66 3a 23 48 56 bc 2e 96 00 3e
       0.062394034 0.00088026293 -0.013078722 0.12557289
0002c0 5f f2 4f 3a 8c eb 26 bb be a3 98 39 fc da 80 bb
       0.00079325394 -0.0025469987 0.00029113697 -0.003932355
0002d0 e3 c6 3f 3e 7b bc 86 3a 82 d3 09 bc 56 72 bb bd
       0.18728213 0.001027956 -0.008412244 -0.09152667
0002e0 6d 75 8f 3b 0b 49 55 3d bb 3a 4f b9 26 6d 35 3b
       0.004378012 0.052071612 -0.00019762937 0.0027683466
0002f0 bb d2 9c 3c 46 7b 1d be 53 e0 ba 3a a9 8a 64 ba
       0.019143453 -0.15379056 0.0014257528 -0.0008718172
000300 ae 25 b3 bd ec 5d 6d 3e a6 e1 1a bc 71 09 3d bb
       -0.08747421 0.2318036 -0.009453213 -0.002884474
000310 c8 a4 0f bb 50 f8 be bd 7c 70 e9 b9 fe 28 08 3a
       -0.0021918286 -0.093247056 -0.0004452503 0.00051940966
000320 ab 69 c0 bc f6 9f 56 3d 31 89 15 ba 52 6c 86 3d
       -0.023487886 0.052398644 -0.0005704342 0.06563629
000330 35 18 cb bb 33 12 a6 38 1a d5 88 bb e8 c2 a7 bd
       -0.006197954 7.918887e-05 -0.0041757943 -0.08191472
000340 a4 1c 20 be ae 61 1e be 7b 96 88 3c a4 96 35 ba
       -0.15635926 -0.1546695 0.016673317 -0.0006927049
000350 eb f6 cd bb 6a 4c 93 ba d8 f4 af bd 15 7a 0e 38
       -0.0062855384 -0.0011237983 -0.08591622 3.3969136e-05
000360 79 a6 4a ba 4c 96 a3 ba 20 b0 9d bb c6 51 ee b9
       -0.0007730495 -0.0012480705 -0.0048122555 -0.00045455823
000370 c8 07 c5 ba d6 43 1c bb 24 63 b7 ba c5 3d 7b 39
       -0.0015032226 -0.0023844144 -0.0013991338 0.00023960236
000380 2d 29 12 bb 94 a9 a4 ba cc 43 63 ba df 2b c6 36
       -0.0022302375 -0.0012562745 -0.00086694653 5.905967e-06
000390 ec 93 73 ba 6b 7d e5 ba 6c af 8c 3a e2 f2 13 bb
       -0.00092917564 -0.0017508691 0.0010733432 -0.002257519
0003a0 71 c6 29 ba 59 6b c3 ba 92 ac 16 bb 91 b7 88 b9
       -0.00064764085 -0.0014909311 -0.0022991044 -0.0002607671
0003b0 fc 3c 03 bb ab 42 de 39 c9 e6 00 bb b3 87 a2 ba
       -0.0020025363 0.0004239281 -0.0019668809 -0.0012400061
0003c0 83 bd 8a ba cd 47 4b b9 3b d4 35 ba 83 ff b5 ba
       -0.0010585043 -0.00019386336 -0.0006936227 -0.0013885353
0003d0 d2 15 d7 ba 32 1a 00 bb 45 23 56 ba aa 6b cd ba
       -0.0016409701 -0.0019546864 -0.0008168708 -0.0015672345
0003e0 a4 1e 7a 39 6e f0 a3 ba 5e 09 02 38 41 cd c1 ba
       0.00023853272 -0.0012507567 3.100314e-05 -0.0014785902
0003f0 14 a7 dc ba b9 a3 be 38 6e 85 10 bb d2 18 49 ba
       -0.0016834461 9.090402e-05 -0.0022052187 -0.000767124

LGEBs.0.phi_e.3.bias f4 [72]
000000 58 ac 14 ba cf fc 40 bb 00 cc 7c bd ac 78 57 38
       -0.0005671433 -0.002944756 -0.061717987 5.137238e-05
000010 de da 13 ba af eb 23 3e aa 64 37 ba cc 5f b1 ba
       -0.0005640219 0.16007875 -0.0006995896 -0.0013532578
000020 33 46 8a ba e5 80 99 bb 4a ff 85 ba 6d 4b 78 be
       -0.0010549485 -0.004684555 -0.0010223177 -0.24247523
000030 d5 b3 69 ba 46 92 1f 3e a8 fa c9 be 77 4d ee 3d
       -0.00089150417 0.15583143 -0.39449048 0.11635869
000040 54 4e a4 bd 25 89 56 ba 8d 49 1a 3d 4c b3 4d bb
       -0.080227524 -0.0008183888 0.0376678 -0.0031387387
000050 08 9f 25 3e f5 f8 6a bb 88 26 e0 be 4c 05 1a bd
       0.16173947 -0.0035853956 -0.43779397 -0.037602708
000060 63 a0 ee be 2c c5 08 ba 34 d7 da ba 0a af bc bc
       -0.4660674 -0.0005217369 -0.0016696216 -0.023032684
000070 69 c1 b3 3c 5e b1 f7 ba 6c ba bf 3d 3f 0f 73 bc
       0.021942811 -0.0018897464 0.09361729 -0.014835178
000080 c6 fc 85 3d 79 a0 9c b9 93 42 d3 be d3 7c 04 ba
       0.06542353 -0.000298742 -0.4126173 -0.00050540006
000090 48 dd 26 bb c9 f7 8d b7 21 22 9f be 00 fa 65 ba
       -0.0025461484 -1.6923894e-05 -0.31080726 -0.00087729096
0000a0 7f 6d e6 3d 81 18 cf 3c bc 0f b8 b9 7e 71 3f bb
       0.112513535 0.025280239 -0.00035106938 -0.0029211934
0000b0 31 05 21 3e b3 43 a4 bb 6a 9a 78 bc 70 12 16 bb
       0.15724637 -0.005012953 -0.015173534 -0.0022899173
0000c0 7d 1b 93 ba 08 e2 08 ba 89 ac ea be 41 f3 86 b9
       -0.0011223402 -0.00052216696 -0.4583476 -0.0002573971
0000d0 08 ec e9 3d a3 4a 0a 3d 90 d0 ef b9 b9 38 df 3d
       0.114219725 0.033762585 -0.00045741023 0.10899491
0000e0 b3 44 63 ba ec 4b ee 3c ed 22 f7 bc b3 33 09 37
       -0.00086696 0.029088937 -0.030168021 8.1778735e-06
0000f0 9e a6 92 b9 2d ad af b9 c6 47 be ba 6c c7 60 bb
       -0.0002797143 -0.00033507627 -0.001451724 -0.0034298552
000100 ce a8 45 3e a8 46 8b ba 55 e7 c2 b8 3d f2 1d ba
       0.19302675 -0.0010625916 -9.29373e-05 -0.0006025171
000110 aa 14 74 bd 05 f6 93 3d 00 23 17 ba 29 2a 96 b9
       -0.05959002 0.07224659 -0.0005765408 -0.0002864164

LGEBs.0.phi_h.0.weight f4 [72, 146]
000000 db be 54 bb 7d 3b 57 bb 95 20 de ba a7 b1 8c ba
       -0.0032462392 -0.0032841854 -0.0016946966 -0.0010734097
000010 c4 cd 76 bb 44 97 11 3a c5 af db ba 45 55 89 ba
       -0.0037659267 0.00055538514 -0.0016760757 -0.0010477683
000020 54 8e 9e b9 cc b2 6b 3b 92 4a bf 3a f7 cd 84 ba
       -0.0003024215 0.0035964726 0.0014594367 -0.0010132183
000030 a6 ac bd 38 a5 f6 45 bb 8b fe d1 ba 35 74 81 3b
       9.0443806e-05 -0.0030206826 -0.0016021294 0.0039506205
000040 58 e7 98 3a 05 c2 3f bb 99 37 88 ba 12 23 7f 3a
       0.0011665625 -0.0029259932 -0.0010392546 0.0009732704
000050 92 dd 99 ba c5 90 be ba 8e df 75 ba bb 98 d8 b8
       -0.0011739007 -0.0014538994 -0.00093793205 -0.00010328131
000060 7a 31 87 ba f5 87 51 3b 95 bf b0 b7 93 87 70 3a
       -0.0010314428 0.0031971906 -2.1070047e-05 0.00091754756
000070 61 01 e1 39 95 e9 f1 b9 ee 9d 7f 39 98 c6 4d bb
       0.00042916372 -0.00046141134 0.00024377528 -0.0031398889
000080 f9 e8 14 3b 7b d3 7e bb 4d e8 a1 b9 9b b2 66 ba
       0.002272187 -0.0038883376 -0.0003088139 -0.0008800418
000090 88 a1 b1 3a ac 44 38 bb a8 39 4e 3b 70 5f 7d 3b
       0.0013552168 -0.0028117104 0.0031467471 0.0038661622
0000a0 ed d3 56 3b ad 2a 8a bb 71 ef cd ba f6 a0 22 3b
       0.0032780126 -0.004216513 -0.0015711618 0.0024815178
0000b0 4a 82 c8 3a 9e 88 17 bb ee 4c e9 ba 7d e3 f2 ba
       0.0015297618 -0.0023122202 -0.0017799416 -0.0018530932
0000c0 c8 3a 4f bb 5f fc fe 3a bf d0 1b 3a fd 97 4a 3b
       -0.003162073 0.0019453875 0.00059438864 0.0030913346
0000d0 ca d6 d2 3a 87 64 6f 3b 8f 6c 86 b9 31 56 62 3b
       0.0016085741 0.0036528425 -0.00025639354 0.0034536237
0000e0 43 fb 3a 3b e5 81 68 bb e3 ae 0b ba 89 f9 84 39
       0.0028531111 -0.0035477814 -0.00053284894 0.0002536292
0000f0 ac e5 1f 3a 58 d1 31 3b 2b 71 76 b9 8e 52 e2 38
       0.00060995924 0.0027132835 -0.00023502547 0.00010791897
000100 95 bc db b8 74 6a 7f 39 7a 29 20 3b 3c 45 e0 ba
       -0.0001047786 0.00024358352 0.0024438784 -0.0017110477
000110 6c 14 9e ba a6 c1 aa 38 6e ec 5b 3b e5 db bd ba
       -0.001206053 8.1423015e-05 0.003355767 -0.0014485089
000120 98 69 08 39 3b ef 54 ba b5 e9 2f ba f2 7b ce 3a
       0.00013009307 -0.00081228063 -0.0006710545 0.0015753491
000130 95 36 6b b9 f8 66 5c bb 94 37 93 b9 19 ae 7a ba
       -0.0002243168 -0.003363071 -0.00028079434 -0.0009562686
000140 32 cf 97 3a 2e a3 f6 b8 53 18 d1 39 d1 04 7c ba
       0.0011582135 -0.00011760589 0.0003988171 -0.0009613755
000150 0c d5 2d b9 65 a0 90 b9 e9 c1 60 bb 0c 3a d6 3a
       -0.00016577932 -0.00027585324 -0.0034295267 0.0016344204
000160 7b eb 43 bb 32 a1 12 b9 6e 8c 0e 39 22 7e a3 bb
       -0.0029894996 -0.00013983695 0.0001359449 -0.0049894014
000170 a3 2b 6d bb d8 a8 39 b9 09 b8 18 bb 0a c2 8d ba
       -0.003618934 -0.00017705874 -0.0023303053 -0.0010815274
000180 ff 5e 76 bb d9 0e 80 b8 d5 de a9 39 83 31 a0 3a
       -0.0037593243 -6.106281e-05 0.00032400215 0.0012221787
000190 d1 be 1c 3a 68 e1 18 39 fc 4f a1 3a 20 a8 ca b8
       0.00059793616 0.0001457982 0.0012307162 -9.663426e-05
0001a0 85 01 03 bb 1c d8 f7 ba 30 0b 64 bb c8 e0 b8 39
       -0.001998992 -0.001890901 -0.0034796707 0.0003526269
0001b0 c5 eb 7b ba 63 fe 21 ba 5d 9b 29 ba 4e 32 20 37
       -0.00096100225 -0.0006179569 -0.00064699893 9.548456e-06
0001c0 20 57 9a 3a 47 8d f8 38 0a fb 6e b9 8d e2 8e b8
       0.0011775233 0.000118518765 -0.00022790968 -6.813286e-05
0001d0 4d ec 7b 3a ec c9 90 ba a4 d3 5d ba 0a 4f a5 37
       0.00096101017 -0.0011046506 -0.0008462018 1.9706338e-05
0001e0 32 48 19 3a f8 30 f3 b9 ab 19 2e bb 68 41 5c b8
       0.0005847245 -0.00046385056 -0.0026565592 -5.2513e-05
0001f0 6a 56 15 3b 52 f9 19 b9 6d 7d c8 b9 2b 65 21 b8
       0.0022787102 -0.00014684096 -0.00038240422 -3.847961e-05
000200 99 3e f5 37 11 23 88 bb 67 b1 91 3a d5 50 4e 39
       2.9235425e-05 -0.004154571 0.0011115492 0.00019675803
000210 1b 24 6e 39 09 55 0e ba 42 8a 67 3a b3 9f df b9
       0.00022710899 -0.00054295413 0.00088325527 -0.0004265286
000220 17 62 a3 3a 7b b5 b6 39 12 f3 ff 38 5e a9 65 b9
       0.0012465146 0.0003484896 0.00012204623 -0.00021902236
000230 a4 ef 57 ba 85 93 8b ba 91 21 38 b9 64 e5 18 3a
       -0.00082373084 -0.0010648823 -0.00017560112 0.0005832522
000240 86 93 c6 39 f3 8e 83 bb 49 b9 35 bc a8 06 be 3b
       0.00037875416 -0.0040148436 -0.011091539 0.0057991333
000250 31 0a 60 bb 0a e8 ae 3c fd 45 fd 3a 69 af 7b 3c
       -0.0034185762 0.02135088 0.0019323226 0.015361645
000260 65 0d 68 bc 52 23 23 3a 49 35 bf 39 6e a3 9e 3b
       -0.01416335 0.00062232197 0.0003647006 0.0048412597
000270 10 5b c9 3b d4 c8 97 3c 07 55 37 3c 6c c3 6f 3c
       0.0061448887 0.01852838 0.011189706 0.014633995
000280 eb 3a 26 3c 25 60 7a bc 77 e2 8a 3c 7b 45 25 3b
       0.010145883 -0.015281712 0.01695369 0.0025218416
000290 e9 89 b5 bc 49 df 2e bc d3 53 c4 ba 36 75 1c bc
       -0.022160487 -0.0106733525 -0.0014978595 -0.00954943
0002a0 75 e4 15 3b 43 44 c3 bc 23 ca fb 3b 7f 0b da 3b
       0.0022871767 -0.02383626 0.0076840087 0.0066542025
0002b0 8d 89 7d bc 56 8e f5 bc 6d 14 88 3c 40 29 62 bb
       -0.015474689 -0.029975098 0.016611302 -0.003450945
0002c0 4e d4 4f 3c 06 0f 00 bc 19 e0 a8 bb 11 f2 2a bc
       0.012684895 -0.007816082 -0.0051536676 -0.01043369
0002d0 3a ae 57 bc bb ff 8d bc 2f b4 e8 ba 8e 66 b2 3b
       -0.013164097 -0.017333856 -0.0017753894 0.0054443544
0002e0 51 80 95 bc 1b cb 96 3b e0 f1 e0 3b be 11 ee bb
       -0.018249663 0.004601849 0.0068647712 -0.0072652986
0002f0 94 fd 58 3b 22 11 11 3c b8 a3 e4 bb c1 ea 5d bc
       0.0033110129 0.008854182 -0.0069775246 -0.013544739
000300 6f 56 b7 bc 8b 18 48 3b ef 64 8c 3b d3 0c 98 3c
       -0.022380082 0.0030532207 0.004284493 0.018560803
000310 9f 02 4f 3c 2a 41 ab 3b 63 0e e9 bb 0d 36 c3 3b
       0.012634902 0.005226274 -0.0071123107 0.005957371
000320 65 f6 6c bb 81 d2 fc ba d5 ba 91 3c 91 6c a0 bc
       -0.0036157605 -0.0019288809 0.017789284 -0.019583018
000330 47 18 1e 3c a1 ba f3 3c 6a 1e 5e 3c fc 41 c5 3a
       0.009649343 0.029752078 0.013557056 0.0015049572
000340 93 f1 e1 3b 40 a4 5d bc ff 17 12 3d c0 6c 36 bc
       0.006895253 -0.01352793 0.035667416 -0.011134326
000350 0a 1a a0 ba 2a 79 81 bb fc 08 4f bc ab 59 df 39
       -0.0012214791 -0.0039512115 -0.012636419 0.00042600682
000360 ef d5 6a b9 0f 15 86 bc 07 44 4c 39 d0 51 82 ba
       -0.00022395675 -0.016367463 0.00019480298 -0.0009942595
000370 00 a5 38 bb 19 0c fb 39 50 9b 5f ba c0 3f ac bc
       -0.002817452 0.00047883464 -0.0008529918 -0.021026492
000380 27 71 d4 39 e2 ea e1 ba c0 42 e3 3b 90 ba d4 ba
       0.00040520096 -0.0017236138 0.0069354475 -0.0016229916
000390 11 d0 f4 ba 6e a7 b9 bb 41 0c d8 38 ac 9c b6 3b
       -0.0018677731 -0.005665711 0.00010301965 0.005572876
0003a0 98 fa 04 bd 0f f8 a1 3c 9b f6 8d bc b8 c7 86 ba
       -0.032465547 0.019771604 -0.017329505 -0.001028291
0003b0 b5 29 a5 3b 25 a4 e4 ba 45 32 bc bc fd 58 b1 b8
       0.0050403723 -0.0017443938 -0.02297319 -8.456593e-05
0003c0 64 93 1d bd 6c 72 69 bd 05 eb 19 bd 1d 0b 1a 3a
       -0.03847064 -0.056993887 -0.037577648 0.000587629
0003d0 38 86 85 ba 05 83 ac bb a2 ba d7 3b 76 56 31 bb
       -0.0010187095 -0.005264642 0.0065835277 -0.0027059591
0003e0 5f 40 11 bd 3a 45 a2 39 68 83 8f bd b5 de 4e bb
       -0.03546178 0.00030950626 -0.07007486 -0.003156585
0003f0 00 6f 04 bd d7 1f fc b9 43 f3 91 bb b7 07 01 37
       -0.03233242 -0.00048088908 -0.004454048 7.690795e-06

LGEBs.0.phi_h.0.bias f4 [72]
000000 75 cd 7b 39 27 bc 60 39 dd c3 1b 39 e2 cf 2a b9
       0.00024013764 0.00021432397 0.00014854917 -0.00016289906
000010 03 04 9f 38 49 dc fc b7 48 db 3f 39 f3 0c 83 b9
       7.582458e-05 -3.014332e-05 0.00018296868 -0.00024995915
000020 20 2e 6b b9 c8 d2 d0 39 14 27 9e 39 26 06 9e b8
       -0.0002242853 0.00039829896 0.00030165224 -7.535172e-05
000030 a8 4a 29 ba d2 9f a2 38 5c b9 41 3a 84 22 86 b8
       -0.0006457963 7.754531e-05 0.00073899864 -6.396047e-05
000040 53 2f 22 39 85 91 99 b5 42 58 a8 3a a8 d3 c1 39
       0.00015467154 -1.144174e-06 0.0012843686 0.00036969525
000050 31 a8 59 39 46 51 11 b9 aa 26 3b 39 ac 9c 6f b8
       0.00020757389 -0.00013858554 0.00017848113 -5.7127952e-05
000060 5c 20 bc 39 ad 1d 1e b9 a3 e0 ef b8 d7 0e b3 b9
       0.00035882264 -0.0001507911 -0.0001143825 -0.00034152597
000070 bf 1b 2f ba c5 62 c8 b9 97 f8 55 b9 b7 e9 a1 39
       -0.00066798547 -0.00038220562 -0.0002040587 0.00030882444
000080 51 26 89 39 63 cd ab b9 04 7b 86 ba 69 2c 9d b9
       0.00026159224 -0.00032768687 -0.001026005 -0.00029978462
000090 5c 39 79 3a 3c 0d 6b 39 1d 80 80 b9 fb e3 00 39
       0.00095071434 0.00022416277 -0.00024509514 0.0001229196
0000a0 25 d9 89 39 7b 7f bf 38 75 67 03 b8 8f ac 57 b9
       0.00026292462 9.131335e-05 -3.1329186e-05 -0.00020568281
0000b0 b4 84 d9 b7 55 a1 33 3a 71 ba 4e b9 c0 cd c7 b9
       -2.593021e-05 0.00068523485 -0.00019715146 -0.00038109533
0000c0 0c fb b5 b6 f5 47 35 b8 f3 4f 98 39 04 eb e9 38
       -5.423446e-06 -4.3220778e-05 0.00029051266 0.00011154081
0000d0 50 38 d4 39 5e 42 e9 39 2c 33 92 b9 25 61 ea 37
       0.00040477747 0.0004449067 -0.00027885416 2.794021e-05
0000e0 28 2b a5 39 39 34 cd 38 24 ce 17 ba 5b 33 0e b8
       0.00031503406 9.784889e-05 -0.000579091 -3.3903267e-05
0000f0 10 fb bb b8 c2 9c cb 38 6a eb 6a b9 ed f9 e3 39
       -8.963619e-05 9.708993e-05 -0.00022403678 0.00043483023
000100 f4 1e a2 39 41 f4 85 b9 84 93 4e b9 d0 7b 2f 39
       0.0003092211 -0.0002554972 -0.00019700645 0.00016735424
000110 79 1f ac b8 6d 13 16 b8 02 43 00 3a 4c 09 17 38
       -8.207461e-05 -3.578088e-05 0.00048927974 3.6009864e-05

LGEBs.0.phi_h.1.weight f4 [72]
000000 7b 09 a4 3a 5c d8 20 3c e4 23 86 3a d1 97 8a 3a
       0.0012515032 0.009817209 0.0010234085 0.0010573809
000010 2a fe 90 3b a4 4b 26 3e ab 62 9f 39 f8 9c e1 3a
       0.00442483 0.16239792 0.00030400357 0.0017212918
000020 9f 22 d4 3d 40 94 dd 3a 92 84 80 b8 b9 b5 95 3a
       0.10358166 0.0016905144 -6.128209e-05 0.0011421955
000030 02 d6 78 3e c6 b5 a5 3a af 6d 1d 3e 85 be 16 3a
       0.24300388 0.0012642674 0.15373872 0.00057504355
000040 3d e6 50 3a c1 9e b4 3d fb 89 5e 3e 60 4d 58 b8
       0.00079688785 0.088193424 0.21732323 -5.1570474e-05
000050 e1 d9 a5 39 69 75 85 3a 92 ab b3 ba a4 7f 38 37
       0.00031633585 0.0010182086 -0.0013707748 1.0996973e-05
000060 d2 23 d2 38 dd 6c 3e 39 56 60 bb 3a 23 35 3b 3b
       0.000100202524 0.00018160367 0.0014295678 0.0028565607
000070 11 3e 31 3e df 90 aa ba 33 31 25 3a a9 14 e0 3a
       0.17308833 -0.0013013146 0.0006301582 0.0017096001
000080 c5 55 80 39 63 0c 2b 3e d2 34 96 3e d6 13 0b b9
       0.00024477966 0.16703944 0.29337174 -0.00013263462
000090 68 f8 82 3d d8 1b 11 3b 5b cf e1 39 fa 2a 17 3b
       0.06395036 0.002214184 0.00043069836 0.0023066388
0000a0 00 5f a1 3a 10 52 86 b8 1d ce cc 3a e7 09 3e 3a
       0.0012311637 -6.404903e-05 0.0015625391 0.00072494004
0000b0 13 3b 07 3a 2d f0 c0 3d 8e c3 bb 3a f8 a7 9b ba
       0.0005158644 0.0942081 0.0014325248 -0.001187562
0000c0 65 d5 ad 3a 29 aa 39 3b a9 f0 a0 3a 2b 00 f8 39
       0.0013262449 0.0028330183 0.0012278754 0.0004730237
0000d0 96 70 83 b8 2f 8f f9 3d 4a 7e 2d 3a 6c a3 a9 39
       -6.2675375e-05 0.12185513 0.0006618245 0.0003235595
0000e0 82 0b af 3e 27 7d c6 3d 7a 82 58 3e c5 3b 20 3b
       0.34188467 0.0969184 0.21143523 0.0024449688
0000f0 a3 fd 80 38 b9 c6 1a 3a be 92 14 b8 38 b1 5b 3e
       6.150759e-05 0.0005904246 -3.5422614e-05 0.21454322
000100 ea 40 8f 39 bb 3e 23 3a 76 35 a2 39 8a 84 e9 3a
       0.0002732345 0.0006227304 0.0003093888 0.0017815989
000110 28 52 68 3e fa de 70 39 c6 b2 16 3e 05 42 16 3a
       0.2268759 0.00022971249 0.14716634 0.00057318836

LGEBs.0.phi_h.1.bias f4 [72]
000000 69 f9 01 bb c4 e4 6f bc 0f 3a 1d bb 1e 14 74 bb
       -0.0019832498 -0.014641944 -0.0023990904 -0.0037243436
000010 8b 92 be bc b3 2d 8f 3d f5 cf e1 ba 18 cf 4c bb
       -0.023263237 0.06991138 -0.0017228114 -0.0031251367
000020 db b7 3d bc 1d 07 c1 ba 31 1e 4b bb 47 42 2a bb
       -0.011579479 -0.0014726851 -0.0030993337 -0.0025979446
000030 94 1b 8b 3d 9d b0 9c bb 2d 4e e8 bc 67 46 57 bb
       0.067923695 -0.004781796 -0.02835759 -0.003284836
000040 d4 b3 93 bb e3 02 d7 bd fa 6e 35 ba 17 66 38 bb
       -0.004507521 -0.104985975 -0.0006921139 -0.0028137022
000050 08 57 86 bb f2 ec 61 bb f3 1e 6d bc 43 54 45 b9
       -0.0040997304 -0.0034473506 -0.014472711 -0.00018818774
000060 ee e0 b3 ba c3 b0 0e bb 0a 59 f0 ba 84 42 c7 bc
       -0.001372365 -0.0021772839 -0.0018337083 -0.02432371
000070 2c b5 7a bd 0b 25 49 bc f1 94 a6 ba a6 d9 16 bb
       -0.061207935 -0.012276898 -0.0012709183 -0.0023017912
000080 bf 4b b0 bb 5e 8b aa bd 1c 3b 79 bd fe 2b 51 bb
       -0.0053801234 -0.083273634 -0.060847387 -0.003191709
000090 fe 1c b8 bd b3 2c 76 bc 65 70 44 bb 96 a5 af bc
       -0.08989905 -0.015025306 -0.002997422 -0.021441262
0000a0 8a b4 2d bb 77 5e 93 bb 23 53 62 bb f9 82 3d bb
       -0.0026505315 -0.004497345 -0.0034534417 -0.0028917177
0000b0 f1 2e 8d bb 86 e8 05 bd d6 3d 3e bb dd 47 ca bb
       -0.0043085744 -0.032692455 -0.0029028556 -0.0061731176
0000c0 0b c0 2b bb 18 d3 c9 bb b2 df 13 bb fb aa 8d bb
       -0.0026206996 -0.0061591975 -0.0022563753 -0.004323361
0000d0 64 64 98 ba 6f 32 86 bd 42 0c 4c bb bf e7 9f ba
       -0.0011626598 -0.06552588 -0.0031135236 -0.0012199803
0000e0 c3 94 87 3d 53 1e 77 bd 42 b8 f5 3d ba 50 25 bc
       0.06620171 -0.060331654 0.11998035 -0.0100900475
0000f0 41 22 22 bc ea 05 46 bb be 0f 14 ba 3f cc 9b 3d
       -0.009895862 -0.0030215927 -0.0005648098 0.07607316
000100 61 bf 9b bb 27 a4 a0 ba 49 74 19 bb 28 e0 4c bb
       -0.0047530388 -0.0012255952 -0.0023415259 -0.0031261537
000110 fb 04 01 be 8e 87 e6 ba 4c 70 b3 bc df 87 ee ba
       -0.12599556 -0.0017588006 -0.021904133 -0.0018198452

LGEBs.0.phi_h.1.running_mean f4 [72]
000000 dd b6 d7 3a 70 9a 4a bd f1 22 21 bb 6f 89 32 3c
       0.0016457696 -0.04946369 -0.0024587477 0.010897025
000010 d5 0a d7 bd 98 9c fc 3e 77 7c 67 bb 6d 43 f0 3b
       -0.10500113 0.49338222 -0.003532199 0.0073322565
000020 fb ed e6 3e 20 5e 1c 3b c7 af 76 bb 07 55 cc bb
       0.4510344 0.0023859814 -0.0037641393 -0.006235722
000030 96 4d 00 3e c6 6a c6 bc d8 84 fd bb cf c5 f1 3b
       0.12529597 -0.024220835 -0.0077367835 0.007378317
000040 a8 c2 a9 3b 74 48 5f be 85 e5 55 3e 7b 56 00 bc
       0.0051806755 -0.21804982 0.20888336 -0.007833119
000050 f5 71 0e bc e5 bd 11 bc a7 f8 c9 3d c7 11 bd 3b
       -0.008694162 -0.008895372 0.0986188 0.0057699415
000060 57 ca ee 3b 43 64 29 bc 15 76 28 3b 40 92 36 bd
       0.0072873044 -0.010338846 0.0025705148 -0.04457307
000070 28 1b c7 3e 61 9f 95 bd 14 2a 42 bb 02 49 6e bb
       0.38887906 -0.0730579 -0.0029627131 -0.0036359434
000080 b0 be cb 3b e9 72 79 be 92 9c 32 bf fa e2 61 bb
       0.0062178 -0.24360241 -0.6977016 -0.0034467564
000090 1d b5 cf be bd 59 54 bf d2 89 ae bc cb 13 46 3d
       -0.40567866 -0.8294943 -0.021305952 0.04835872
0000a0 7a 0e ea 3b 2c b5 35 3c b4 d9 9a 3b 84 55 cb 3b
       0.007142839 0.011090558 0.0047256593 0.0062052626
0000b0 ca f6 4d 3b ab 24 9b 3d fc 09 17 bb ee 10 4b bc
       0.0031427615 0.07575353 -0.0023046723 -0.012394173
0000c0 39 4d a8 39 63 2d b1 3d 46 95 6e 3b 52 93 e8 bb
       0.00032100992 0.08651235 0.0036404892 -0.00709764
0000d0 4a 23 cc 3c 56 15 3c bc 88 03 37 bc ea 8d 15 ba
       0.02491917 -0.011479696 -0.0111702755 -0.0005705046
0000e0 da e4 fa be 25 5b 1f 3f 9c ec 05 3f 3a c3 e4 bc
       -0.49002725 0.6224845 0.5231416 -0.027925123
0000f0 55 1c 1a bd 25 cb e8 39 bc 65 0a 3b 7c 34 8b 3e
       -0.037624676 0.00044401843 0.0021117767 0.2718848
000100 a2 6b e8 bc 32 2a dc 3a ef 51 79 ba 24 1d 64 bb
       -0.028371636 0.0016797243 -0.0009510805 -0.0034807408
000110 4b e4 d8 3e f0 b5 82 3a 99 7b 74 be fd 6f 93 bb
       0.42361674 0.0009972434 -0.23875274 -0.004499434

LGEBs.0.phi_h.1.running_var f4 [72]
000000 e3 c8 e9 37 c5 51 9d 3b 3d 2a d7 37 c1 16 1c 39
       2.786931e-05 0.0048010075 2.5649666e-05 0.00014885796
000010 41 7c 6c 3d 95 bd 62 3e d7 5e 9e 37 b5 16 1c 38
       0.057735685 0.22142632 1.8879231e-05 3.7214446e-05
000020 6a 09 56 3d bb a1 74 37 e3 83 ee 39 88 7f 95 38
       0.05225507 1.4581189e-05 0.0004549316 7.128628e-05
000030 ac c8 2f 3e 28 af a6 3a ca b6 c9 3d 57 21 0f 38
       0.17166394 0.0012716996 0.09849317 3.4124907e-05
000040 08 87 ef 38 89 99 dc 3d 29 13 78 3e 45 45 64 38
       0.000114215596 0.10771472 0.24226059 5.442395e-05
000050 f0 b3 9f 38 b1 c1 0f 38 5e ea 39 3b 05 12 97 38
       7.615227e-05 3.4274246e-05 0.0028368453 7.2035975e-05
000060 a6 e1 59 38 e9 c2 2b 38 a2 4c 07 37 5f 8e cf 3b
       5.1946983e-05 4.09511e-05 8.0644695e-06 0.0063341106
000070 24 ef 24 3e 47 be 51 3b 38 a5 72 38 31 6e d7 37
       0.1610685 0.0032004283 5.7851168e-05 2.568131e-05
000080 bd 90 f2 38 16 0e 72 3e 3a 5d 10 3f 64 7d e4 37
       0.00011566419 0.23638186 0.5639225 2.7238108e-05
000090 1e 48 8b 3d a3 c5 94 3e a0 1e 88 3a 80 d4 1d 3b
       0.06800865 0.29057035 0.0010385104 0.0024082959
0000a0 33 dd d5 37 61 1b ae 38 23 75 9f 39 ce 30 5e 38
       2.5494583e-05 8.302066e-05 0.00030414117 5.2974377e-05
0000b0 96 06 44 38 c4 45 b8 3d 37 bf 93 38 a2 f6 50 39
       4.6736175e-05 0.08997682 7.045123e-05 0.00019928304
0000c0 19 50 8a 37 b4 57 5b 3c 82 8d 09 38 71 12 87 38
       1.648818e-05 0.013387609 3.2795135e-05 6.4407366e-05
0000d0 d0 e3 2b 39 16 ad ac 3d 62 54 aa 37 51 4f 93 38
       0.00016392698 0.08431451 2.0304873e-05 7.02428e-05
0000e0 0e 75 2b 3f 5b 88 04 3e 38 6c a4 3e e6 8b 4f 3b
       0.66975486 0.1294264 0.32113814 0.003166908
0000f0 a1 2e 4f 3a f7 52 0e 38 6e 41 c8 37 3a e8 d9 3e
       0.00079033716 3.3932705e-05 2.3872326e-05 0.42559987
000100 d4 93 7e 39 1c cc 97 39 b8 c5 dd 38 08 15 d4 37
       0.00024278398 0.00028953038 0.00010574929 2.5282163e-05
000110 21 ff 1b 3f 37 02 10 39 66 40 e3 3d 82 ab 08 38
       0.6093617 0.00013733735 0.110962674 3.2584656e-05
