data/LorentzNet_model_2023Feb20.pt (torch, 947588 bytes, 117 tensors)

embedding.weight f4 [72, 2]
00000000: 77ba 94be 2044 adbe 52b5 b5be 453b c93d
00000010: b01c 66be f6ce 81be 6dcc 443e 97aa fabd
00000020: c935 d2be 5724 64bd 3776 e0bd 8799 a4be
00000030: d412 00bc 1f8c 833d 69e6 9cbd 5223 af3b
00000040: b56b c6be 15ca 9dbe 1c9f 493e 2d73 1e3e
00000050: 20b4 b1be 5940 323e 0981 37bc 7f4a 75bb
00000060: ddfa 53bc 58a6 85be 8cc0 5bbc eb96 a4bb
00000070: 0034 073a 845b e0bb 3b4c 06ba 1af3 f53d
00000080: 9c26 413e 755b 35be 1cf3 903e 2aa8 253e
00000090: 934d 643e 95e1 153e ce11 0d3e 57f9 353e
000000a0: ee75 22bc be22 bf39 22d2 073c 450b ccbe
000000b0: 0fbd 833e b452 603e 125f 8dbe 36e9 503e
000000c0: 0323 dabd 3e5c c6be 6fa1 92bc e1d7 823b
000000d0: c264 cd3e 18c8 8ebe d413 c93e 3bb5 903c
000000e0: 5af0 4bbb c4b0 a8bb 4fe8 91be 3f18 2c3d
000000f0: 58e6 20bb 69b8 31bd 1695 85bd 0be4 a0bd
00000100: 24d6 dcbd 97e1 c7be 2f34 1a3e 8be8 533e
00000110: 1e2e 293b 2279 9b3b e963 b03e b5e0 573c
00000120: 288c aebe 2e04 193c 934a 123a 9a30 4dbc
00000130: 9acf d93e 6280 bdbe f104 933d da96 6c3e
00000140: 0f8b 89be a575 523e a487 be3d 15f3 81be
00000150: 5af2 a9be a3a1 8fbe c6ec 513d fed0 90be
00000160: 9539 82bb 8bf7 393c dc1b 3cbe b74a 4fbe
00000170: 7164 a5bd b1d9 413e 9bbf 10bc 78e7 fbba
00000180: 84ce 963e 941b fabd 4d99 c2be 6c2c 65bd
00000190: cb5f 87bb 0da6 bcbb 6dd8 cabb 643f b33b
000001a0: ec74 89be 6674 91be 1791 f83e 3f52 aa3e
000001b0: 9790 99bc 93cc 973e 3227 a83d aa4e 6fbe
000001c0: 3914 b03d 0e67 2abe 3350 893e 2929 ab3e
000001d0: 57d7 b73e 0ba6 94be 9a98 27be 359a 243e
000001e0: d892 c23d a2e1 8fbe 59f4 d3bb d9d2 d8bb
000001f0: ae7c 203d dc00 8abe a3c4 f43b 4f91 0abc
00000200: fec3 543e 76ba 8c3c ad17 8d3e 9753 733e
00000210: 4157 8d3d a014 ad3e 3029 7d3e 54f2 cb3e
00000220: a0fd bb3e 9a50 23bd 62f3 2ebe 124d 06bd
00000230: b979 cebe f37d e5be da0c 9f3e 1098 613e
-0.2904851 -0.33841038 -0.354899 0.09825758 -0.22471881 -0.2535321 0.19218607 -0.12239569
-0.4105666 -0.05569872 -0.10960048 -0.32148382 -0.007816989 0.0642321 -0.07661135 0.0053447867
-0.3875405 -0.3081824 0.19689602 0.15473624 -0.34707737 0.17407359 -0.011200198 -0.0037428436
-0.012938228 -0.26103473 -0.013412606 -0.0050228736 0.000515759 -0.006846847 -0.00051230536 0.120092586
0.18862385 -0.1771067 0.28310478 0.16177431 0.22295217 0.14636834 0.13776323 0.17770897
-0.009915812 0.00036456244 0.008289846 -0.39852348 0.25730178 0.21906549 -0.27611595 0.20401463
-0.10651209 -0.3874225 -0.017899243 0.00399302 0.40115935 -0.27887034 0.3927294 0.017664542
-0.0031118602 -0.005148025 -0.2849755 0.04201531 -0.0024551358 -0.043388758 -0.065225765 -0.07855996
-0.107830316 -0.390393 0.15058969 0.20694177 0.0025814842 0.0047446648 0.34451225 0.013176133
-0.34091306 0.009339375 0.00055805704 -0.012523795 0.425412 -0.3701201 0.07178677 0.2310442
-0.26863906 0.2055269 0.09303215 -0.2538077 -0.33192712 -0.28053007 0.051251195 -0.28284448
-0.0039741495 0.011350523 -0.18370003 -0.20243345 -0.08075798 0.18930699 -0.008834745 -0.0019218763
0.29454434 -0.12212291 -0.38007584 -0.055950567 -0.0041312925 -0.0057570995 -0.0061903507 0.0054702032
-0.26847017 -0.28409117 0.48548195 0.33265874 -0.018745704 0.29648265 0.08210601 -0.23369852
0.08597607 -0.16640875 0.26819 0.3342984 0.3590648 -0.2903293 -0.16366807 0.1607445
0.095006645 -0.28101832 -0.0064683375 -0.006616932 0.039181404 -0.2695378 0.00746973 -0.008457496
0.2077789 0.017178755 0.27557126 0.23762356 0.06901408 0.33804798 0.24722743 0.3983332
0.36716938 -0.03987179 -0.1708503 -0.032788344 -0.40327242 -0.44822654 0.31064492 0.22030663

embedding.bias f4 [72]
00000000: c04e 1f3e 3d30 393e 13cb 90be b5b7 793d
00000010: 693e 7c3d 17d4 223c f3e3 65be d1ae b0be
00000020: 26c8 b93d acdf 5fbe d204 9e3e 3088 7cbe
00000030: 4708 a93e 5c57 b43d 2a11 01be b852 6f3e
00000040: dfcf 34be 3e74 9fbe 6e45 003e c1af 2dbe
00000050: e9ce 0abe 277c 2d3e 0ae8 89bd dc7f c73d
00000060: 78d2 adbe 288b e6bd 5d76 ccbd 222e 5dbe
00000070: ed67 9b3d ab27 843e ad38 02bc d159 163e
00000080: 52f1 833e 4e88 32be cc74 16bd 590e 5ebe
00000090: e518 a5be 82c3 3abe 772f 49be 9d23 8bbe
000000a0: bdd9 823e 2251 8abd 326b 843e efec 063d
000000b0: b868 483e fbcf 0bbe 58c6 373d ca73 553e
000000c0: 10b7 34be 6eee 333e 7437 503e b7e0 aa3e
000000d0: 9e2c a4be c4d9 73bc f3af 643e befc 5e3e
000000e0: 1eb2 84be 2b93 0abc e0e3 813e c088 863e
000000f0: 40b7 debd 2df0 90be 71ca 89ba 8a92 6b3e
00000100: c37c 293e 4146 96be 2795 6b3e e3d8 a53e
00000110: b811 a03d a06a 09be 5769 a1be 8e6d a63d
0.15557384 0.18084808 -0.28279933 0.060966212 0.061582956 0.0099382615 -0.22450237 -0.34508374
0.090713784 -0.21862668 0.30863053 -0.24661326 0.33014128 0.08805725 -0.12604204 0.23371398
-0.17657422 -0.31143373 0.12526485 -0.16961576 -0.13555492 0.16941892 -0.06733711 0.09741184
-0.33949637 -0.11257011 -0.099835135 -0.2159963 0.07588182 0.25811514 -0.007948083 0.146827
0.2577005 -0.17434809 -0.03673248 -0.2168516 -0.32245556 -0.18238643 -0.19647013 -0.27175608
0.25556746 -0.06753756 0.25863034 0.0329408 0.19571197 -0.13653557 0.04486689 0.20844951
-0.17647958 0.17571422 0.20333654 0.3337457 -0.3206529 -0.014883462 0.22332744 0.21776101
-0.25917143 -0.008457939 0.25369167 0.26276207 -0.10874796 -0.2830824 -0.0010512603 0.23005119
0.16551499 -0.29350474 0.23006116 0.32392034 0.078158796 -0.1341958 -0.3152568 0.08126365

LGEBs.0.phi_e.0.weight f4 [72, 146]
00000000: e798 653d 322e e5bd 4fbf 91ba 2033 1e3e
00000010: 0718 3cbd 5edb 033e 3456 87be 4b61 bbbd
00000020: 8f04 aa3c 9137 093c 0c11 f9bd 918f 103e
00000030: 327d 643e 94f0 38bc f83a 4cbd 85ea 86be
00000040: 74a5 0e3e 8a24 2d3c dc57 3cbc 11a5 48bd
00000050: 8b22 f8bd 5744 903e 2491 94bc 05e3 2dbe
00000060: 1fff 4c3e 1f56 753c a114 513e 29b2 343d
00000070: 6961 d03d a108 9cbd 46a0 9c3e f1e8 99bb
00000080: 18a6 2e3e adb6 d9bc a894 01bd abaf df3d
00000090: 8364 07be e39c 463e 9f3d 553e 6e60 0cbe
000000a0: 4a5c 18be 293c 8b3e 5217 623d 182b 833e
000000b0: 6de8 5abe 69e6 e83b 42b1 8dbe 8ee4 413e
000000c0: a04c f73d f414 7bbd 23b5 33bd cc8a 873c
000000d0: 56a6 983c 6208 c23c bd5d 9abe 158b 5d3e
000000e0: 245b 703e b847 8ebd 9f14 5e3e e245 54be
000000f0: 9a0e 903e 08ce dbbc a80a 9d3e 4637 1e3d
00000100: 3ffd 823d 1c11 bb3c dd8d 21be 0665 6cbd
00000110: b593 a63d a9f8 90bd bec2 3a3c cf9f e53c
00000120: d73b 02bf d401 2f3e b61b d1be 2713 84be
00000130: b958 7a3d b928 2fbf f110 003f 0df0 023e
00000140: 85a1 97be 3d49 843e f8d2 463e 77cb eabe
00000150: 5372 12bf c4cf 0dbe 26c4 5abd d93b 0f3f
00000160: 10c2 8fbe bff2 fe3d 8f25 563e 0edd ef3e
00000170: 2e36 5a3e 61ad 1fbf b130 8d3e fe25 973e
00000180: 6601 2dbf 5b1a 7dbe cd90 98be 8398 f9bd
00000190: 4b49 c1be d17a ee3d 2fb4 24bf 51b0 95be
000001a0: 4f56 1ebf f133 ec3e dbc2 ad3d 8f7d 32bd
000001b0: f27a e53d d7ee fcbe 5cbf 8dbe eb93 283f
000001c0: 5323 9f3e 615d e9be f527 9bbe 7716 0ebf
000001d0: 7800 d73e b44f d4be 68ff ea3e b981 fabe
000001e0: f34a 69be 7487 373d 99ea 1ebe ed9c 2bbe
000001f0: d10c dfbe 6ad1 553e ab79 033f f305 fcbe
00000200: 0b08 cabe 61d3 ce3e f69f 98be 58c9 9b3e
00000210: b384 debe b34f 3bbe ce3c 08bf 4291 c53d
00000220: 3c20 dabd 8f58 a13e 6dca 1f3f 1cd5 193f
00000230: 0db0 1dbe 4777 8f3b 1f0d d5be 42a6 683e
00000240: a366 e5bd 40c0 e93c 4131 a1bc 1c5e a4bd
00000250: c8f8 58bc bf73 393d 0c74 a7bd 9e87 033d
00000260: 153c f3bd a186 22bd 5014 a7bd 44e6 cb39
00000270: b75d 48bd 9c83 8a3d bb68 b33d ac1a b83c
00000280: 201d fe3c 536e 19be 73da 7e3d 7ede 323d
00000290: 1d50 5f3d 718b db3b 1ae7 183d c67a e93d
000002a0: 3125 303c ecd9 dbbd 674c 2a3d d094 0abd
000002b0: 317f 943d ec60 9c3d d50e 8b3d 1737 81bd
000002c0: f334 aa3d 9db0 823c 282f c23c de36 173c
000002d0: 44f0 d9bc 7a88 b83d 308b 85bd 53df ce3d
000002e0: ed92 ec3d bd14 90bd f372 afbd 7b0e ac3d
000002f0: 8509 00bd b1f6 e93d dc08 cdbd 497c 7a3c
00000300: d2bb a5bd e9d6 c23c 445d f23d 2206 c1bd
00000310: 31e0 653c 5917 3cbd 86c4 acbc ad91 123d
00000320: 4465 b7bd 6d0c 7a3d aab0 663d f5c5 6b3d
00000330: de41 b83d 62fe 2dbd fb5c a73d 9dc0 943d
00000340: 637e ab3d 0575 623d 2375 523d 073a 973d
00000350: fa40 04bd 2d6e 503d 327c ac3d 8617 83bd
00000360: d1c9 7abc 0118 973d 205a 48be 2d6f 9bbe
00000370: 0025 14be ce85 593e 634e 6cbe a2bb ddbd
00000380: a4ec cbbd 4b5d 73be c253 5ebe 56e4 433e
00000390: dfca 9bbe 68c0 483c 8ed1 3d3d 9f05 e6bc
000003a0: 1d02 13bc 09bb b7bd 286b 883e ea2d 3c3e
000003b0: 44c3 3b3e 0bd9 d13d c6a8 d7bc 99c2 bb3d
000003c0: 98e6 633e 79c4 95be f52d c1bd 990d 48bd
000003d0: 6e23 993e 074d 993e ec23 963d 08de 71be
000003e0: 678c 913d ada0 edbd 0810 77bd f9fa d63d
000003f0: 11e6 7abb 5951 823e 7977 93be 2315 933d
0.056054022 -0.11190452 -0.0011119636 0.1544919 -0.04592135 0.1287665 -0.26432955 -0.091494165
0.020754127 0.0083750645 -0.121614546 0.14117266 0.22313383 -0.011287827 -0.049860924 -0.263508
0.13930303 0.010567794 -0.011495557 -0.048985545 -0.121159635 0.2817714 -0.018135615 -0.16981132
0.20019196 0.014974146 0.20418026 0.04411522 0.101748295 -0.07618833 0.3059103 -0.004696958
0.17055547 -0.026576364 -0.03163591 0.10922178 -0.13221936 0.19395785 0.20824288 -0.1370866
-0.14878955 0.27194336 0.05519802 0.25618815 -0.21377726 0.007107545 -0.276743 0.18934843
0.12075162 -0.06129928 -0.043873917 0.016545676 0.018634003 0.023685638 -0.30149642 0.21635087
0.23472267 -0.06947273 0.21687554 -0.20729783 0.2813614 -0.026831642 0.30672193 0.03862693
0.06395959 0.022835307 -0.15776773 -0.05771353 0.08133642 -0.07078678 0.011398969 0.028030304
-0.5087256 0.17090541 -0.40841454 -0.25795862 0.06111977 -0.6842151 0.5002585 0.12786885
-0.29615417 0.25837126 0.19416416 -0.45858356 -0.57205695 -0.13848788 -0.053409718 0.55950695
-0.28077745 0.12448644 0.20912765 0.4684834 0.2130973 -0.6237393 0.2757621 0.29521173
-0.6758026 -0.24717085 -0.29797974 -0.121872924 -0.3775123 0.11644519 -0.6433744 -0.2923608
-0.61850446 0.46133378 0.08484431 -0.043576773 0.112050906 -0.4940097 -0.27685058 0.65850705
0.31081638 -0.45579055 -0.30303922 -0.5550303 0.41992545 -0.4146706 0.45897985 -0.48927096
-0.22782497 0.044806913 -0.1551918 -0.16759081 -0.43564466 0.20880666 0.51357526 -0.4922329
-0.3945926 0.40395644 -0.2980954 0.3042705 -0.43460616 -0.18292122 -0.5321778 0.09646846
-0.106506795 0.31512877 0.6241825 0.60090804 -0.1539919 0.0043782326 -0.41611573 0.22719672
-0.11201217 0.028534055 -0.019676806 -0.080257624 -0.013242908 0.0452764 -0.08176431 0.032111757
-0.11876694 -0.039679173 -0.08158171 0.00038890739 -0.0489175 0.06763384 0.0876021 0.022473656
0.031019747 -0.14983492 0.06222005 0.043669216 0.05451976 0.0066999723 0.03732977 0.1140037
0.010751055 -0.10734925 0.04157677 -0.033833325 0.07250822 0.07635674 0.06789938 -0.06309336
0.083108805 0.015953356 0.023704126 0.00922939 -0.026603825 0.09010406 -0.065206885 0.101011895
0.11551461 -0.070352055 -0.08566847 0.084011994 -0.03125908 0.11424006 -0.100114554 0.015288421
-0.080924645 0.023784118 0.11834195 -0.09424998 0.014030502 -0.045920704 -0.021089803 0.03578346
-0.08954862 0.061047006 0.056320824 0.057561833 0.08996938 -0.042478926 0.081720315 0.072633006
0.08373716 0.05528738 0.05138124 0.07384115 -0.03228853 0.05088632 0.08422126 -0.06400971
-0.015306906 0.07377625 -0.1956563 -0.30358258 -0.1446724 0.21242449 -0.23076777 -0.10826804
-0.09957245 -0.23766057 -0.21711639 0.19130072 -0.30428216 0.0122529045 0.046342425 -0.028078852
-0.008972672 -0.08971221 0.26644254 0.1837689 0.18336207 0.10246476 -0.026325595 0.09167976
0.22255933 -0.2925146 -0.09432594 -0.048841093 0.29909843 0.2994158 0.0733107 -0.23619854
0.07106858 -0.11602912 -0.060318023 0.10497088 -0.0038284103 0.25452688 -0.28802088 0.07181766

LGEBs.0.phi_e.1.weight f4 [72]
00000000: b787 f93e 7ff5 2d3f 3b06 0a3f c885 aa3e
00000010: ee71 e13e 0f04 ef3e 85b4 b53e 481f 413f
00000020: 0c6b e33e 1011 ed3e 7b30 193f be4e 0d3f
00000030: 9fa9 283f 6967 c53e 9717 0d3f 0f92 af3d
00000040: bc79 f43e 5ff7 113f 8a9a c43e 1597 173f
00000050: fd10 c53e e46a 1a3f 0518 ad3e 77a0 a63e
00000060: ae21 ed3e 49c8 3c3f e6ca 2c3f cd56 063f
00000070: 7faf ee3e 10a3 d03e 57b2 d43e adf0 943e
00000080: e214 f13e 3fbb 233f d84e 7f3e cb81 313f
00000090: 6d1f 503f 7d6c 2b3f f90a 0f3f 1b0e 683e
000000a0: 3d17 313f caf4 243f ae40 503f 1e13 1e3f
000000b0: ce4d 9f3e b18f 593f 4569 a93e 1683 0e3f
000000c0: 6fb6 f93e 7539 a93e 9f27 b43e 8c60 373e
000000d0: 1343 af3e 8530 313f 6784 a83e ea8a 233e
000000e0: 12e2 de3e f91a d33e 6780 c83e ba81 053f
000000f0: f434 2e3f 30fd f53e 5e13 ae3e 7d02 a23e
00000100: 9057 5e3e 2516 3b3f 7af9 3e3f e34d 453f
00000110: 1d5e 1c3f 8c53 313f 7c0a 0f3f d120 bd3e
0.48736355 0.6795272 0.53915757 0.33305192 0.44032234 0.46682784 0.35489288 0.75438356
0.44417608 0.4630208 0.598396 0.55198276 0.6588382 0.38555458 0.5511412 0.0857278
0.47749126 0.57018083 0.38399154 0.5921491 0.38489524 0.6031935 0.33807388 0.325443
0.46314758 0.7374311 0.674971 0.524762 0.46618268 0.40749407 0.41542313 0.2908987
0.47086245 0.6395759 0.2493242 0.69338673 0.8129795 0.66962415 0.5587612 0.22661631
0.69176084 0.6443602 0.81348693 0.6174792 0.31114048 0.8498488 0.33088127 0.5566877
0.48771998 0.3305165 0.35186478 0.17907923 0.3423086 0.6921466 0.32913515 0.1597096
0.43531853 0.41231516 0.39160463 0.5215107 0.6804955 0.4804473 0.3399915 0.31642523
0.2171309 0.73080665 0.7459942 0.7707197 0.61081105 0.6926811 0.5587537 0.369391

LGEBs.0.phi_e.1.bias f4 [72]
00000000: 6898 82bc 80de e0bd 7b52 b7bb e33c e4bd
00000010: f9d7 edbd 15e9 b3bc 4fa7 e5be 6da4 2bbe
00000020: 81ef 92bd 97b5 953c 8259 eabd a11d 0abe
00000030: 02cb 71bc b3fa fdbe d8f7 573d 5c9a 01be
00000040: 8f90 64be 0bd0 79bd 49de a2bd 35f3 7fbd
00000050: e102 12be 15ed a5bd e36c 8abd 225f 7cbd
00000060: 8e42 43bd 392d 2fbe 6fc4 5fbd 3b88 a9be
00000070: c589 8dbd 5862 163e 7721 eabe 512e e4bd
00000080: 8c1f 86be 9fcb b9bd 2771 1ebe 2ce2 5abd
00000090: 70d3 703d 1aac 1b3d c713 99be a79a e8be
000000a0: c2a7 e6bd 6f5a 95bd 8cbe 933d 2851 f93b
000000b0: aa98 c9bd 2dbd 4bbc d48c 24be 4eb8 623c
000000c0: 67c4 81be d250 14be bd80 74be b06b 08bd
000000d0: d3dd eebe e475 0fbd 3def 07bf c0f5 54be
000000e0: e50c d0be 8412 56be 8572 97be 56a0 acbc
000000f0: 4263 d8bd ca4f aabd f8ac 99bd 92ed c4bd
00000100: 6586 f6bd f2f8 4dbd 864b 4d3c 1718 973d
00000110: 3c45 d5bd fd88 503d 5c84 26bd 506d 2fbd
-0.015941814 -0.109799385 -0.0055945492 -0.11144426 -0.11613459 -0.021961728 -0.4485421 -0.16761942
-0.07174588 0.018275065 -0.114428535 -0.13487865 -0.0147578735 -0.4960533 0.052726597 -0.1265654
-0.2232077 -0.06098942 -0.07952554 -0.0624878 -0.1425891 -0.081018604 -0.0675905 -0.061614163
-0.047670893 -0.17107095 -0.054630693 -0.33111748 -0.06911043 0.14685953 -0.45728657 -0.11141647
-0.26195943 -0.09072041 -0.15472852 -0.05343835 0.058795393 0.038005926 -0.298979 -0.4543049
-0.11262466 -0.072926395 0.07214078 0.0076085515 -0.098435715 -0.01243524 -0.16069347 0.013837887
-0.25345156 -0.14483956 -0.23877235 -0.033305824 -0.46653613 -0.03502454 -0.53099424 -0.20796871
-0.40634838 -0.209055 -0.2957956 -0.021072548 -0.10565807 -0.08316 -0.07503694 -0.096156254
-0.120373525 -0.05028624 0.012530213 0.07377642 -0.10413596 0.050911892 -0.04065357 -0.042828858

LGEBs.0.phi_e.1.running_mean f4 [72]
00000000: 442d be3e 20c5 20bf 1b72 c1bd 8d5f c7bd
00000010: 0d3f a2bf a870 053f 1d4a 03bf cd46 30bf
00000020: 114f f43e af42 58be da0f a1bf c8fa e3be
00000030: 36d0 c3be e65e 063c 6add bdbe 0d40 89bd
00000040: ce65 b33e 7be2 63be 09a3 423f 4a68 9cbf
00000050: 0073 a63e 2b8d 34bf 48e5 393f 0c06 043f
00000060: 8bdb 82bf 81b9 27bf 6e53 85bf 28fb 313f
00000070: 852c 97bd 39ca 873f d366 383e c8be 0ebf
00000080: 5da1 3f3f bc12 b5be 50fd 01bb 330b 8ebf
00000090: bc30 79be 748a a43d 16fd 5fbf 665c 24be
000000a0: b09c 33be 5260 0ebe 072b 05bf ee3f c33e
000000b0: 8714 54bf 5ac4 9a3d c421 cd3e 8de9 153f
000000c0: 924e 2c3f 1204 b43e 04bc 9bbd 95d1 e7be
000000d0: e291 783e 78bc 0abe cdb6 b2be ece0 033e
000000e0: 0056 993d fcf1 513f 317c 903e e8c3 333f
000000f0: bf60 1bbf d6b0 06be f3b0 18be 89c9 2e3e
00000100: 03b7 b73d 20eb 4cbd 89a5 6fbd b272 b2be
00000110: c8f6 933e 199c cb3e 2145 c63f 7553 943f
0.3714391 -0.6280079 -0.09445592 -0.09735022 -1.2675492 0.52125025 -0.5128496 -0.68858033
0.47716573 -0.21119188 -1.2582963 -0.44527268 -0.3824479 0.0082013365 -0.37082988 -0.0670167
0.35038608 -0.22254364 0.7603002 -1.2219326 0.32509613 -0.70527905 0.7261548 0.51571727
-1.0223249 -0.6551743 -1.0416086 0.6952386 -0.07381538 1.0608588 0.18007974 -0.5575986
0.74855596 -0.35365856 -0.0019834824 -1.1097168 -0.24334997 0.0803422 -0.87495553 -0.16050872
-0.1754024 -0.13903931 -0.5201878 0.38134712 -0.8284382 0.07556982 0.40064824 0.58559495
0.6730739 0.35159355 -0.076042205 -0.45277086 0.242744 -0.13548458 -0.3490509 0.1287877
0.07487106 0.82009864 0.2821975 0.70220804 -0.606945 -0.13153395 -0.14911251 0.17069067
0.089704536 -0.05002892 -0.058507476 -0.3485313 0.28899217 0.3976753 1.5489846 1.1587969

LGEBs.0.phi_e.1.running_var f4 [72]
00000000: 4cac fc3e 3ad8 cb3d b91b 113e 1a26 2b3c
00000010: 70fa d83e ccb5 813e 42fd 7b3e ca6a 4a3e
00000020: 8bf0 613e 46ac 0b3e f4a3 8b3e 99d0 3f3e
00000030: fe7d 153e 09ac 9e3e 46bb a43d 8b98 723d
00000040: 4083 9b3f 17f2 0a3e e6d9 4b3e 6266 7c3e
00000050: f300 033e 2d4f 013e 782e 043e 2a30 ee3d
00000060: c4bb 6a3e e85e 4f3e af2f 7b3e 3610 b23d
00000070: 83ba d93d 1416 963e 21f4 ca3e ee9e b83d
00000080: 4cf1 d13d a764 253e 5331 113e 5333 763e
00000090: 6b5f 113e da01 113e 8994 083e 998f 9e3e
000000a0: 62ce aa3d 512f 0b3e e5a7 d53d 2550 393e
000000b0: 252a fa3d 6ba5 863e 2352 1b3f 2212 833e
000000c0: ccc1 ba3d d3e6 913c 3ba5 de3d 2b77 523e
000000d0: f9f6 2c3e 54ae a53e 932c 9d3e 96ca e03c
000000e0: e59c ca3e dd02 e63d 6d20 d73e 553b 2b3f
000000f0: 0c0c c73d 118f 0c3e 97b8 033e 0ed5 073e
00000100: 8191 ca3e 8d79 c03d 5595 d43d da15 f33d
00000110: 50c4 8e3e ab72 3d3e 0a3d d93f cd5d b03e
0.49350202 0.09953351 0.14170732 0.010446096 0.4237857 0.25334013 0.24608329 0.197673
0.22064416 0.13639936 0.27273524 0.18731917 0.14598843 0.30990627 0.08043532 0.059227508
1.2149429 0.13568912 0.1990734 0.24648431 0.12793331 0.1262786 0.12908351 0.1163028
0.2292319 0.20251048 0.24529909 0.08694498 0.106312774 0.2931372 0.3963938 0.090146884
0.10251102 0.16151677 0.14178972 0.24043016 0.14196555 0.14160863 0.13337912 0.3096893
0.08340146 0.13592269 0.10432414 0.18096979 0.1221507 0.2629808 0.60672206 0.25599772
0.09118995 0.01781026 0.10871359 0.20553271 0.16891088 0.32359564 0.3069807 0.02744035
0.39572826 0.11231015 0.42016926 0.6688741 0.09719095 0.1372645 0.12863384 0.13264868
0.39564136 0.09398184 0.10380045 0.11869402 0.2788415 0.18500774 1.6971753 0.34446564

LGEBs.0.phi_e.3.weight f4 [72, 72]
00000000: 5b4a 5e3c 5b36 9dbb b20e d5bd afff 54bd
00000010: f286 d6bd c500 edbd a69b c9bb 2b75 62bd
00000020: 5ce6 07be 9830 7d3b eab9 f0bc 30ae a5bd
00000030: c5b7 95bd f183 df3b 69a6 9a3d c215 b5bc
00000040: cc6c b3bb a836 a1bd a583 c9bd 96fa 82bd
00000050: 0a80 27bd 8fe9 3bbd 9266 8fbd 6171 6bbd
00000060: 343c 83bd 813a acbd 2820 bcbc f2be 94bd
00000070: d5f9 75bb b668 81bd 6938 7abc 943f 06be
00000080: 2828 00bd 0c7f 55bd c1ac c63c b891 bfbd
00000090: 7d5c 36bd d73b dabd 9f74 babb aa6c 293d
000000a0: 16fd a1bc c1f5 3dbe c674 24bd 4c58 283d
000000b0: 28ce 973b 7b6e 00be 7170 5cbd 2cb2 d73c
000000c0: e501 4f3d 599a e6bc edd9 59bd d1c6 13bd
000000d0: 37ba 2ebd 8016 06bd cdd8 93bc 98d2 103d
000000e0: e37e 6fbd af2f c3bc 4005 173b 24af 943c
000000f0: 3467 1abd b005 05bd eb21 59bd 03ac 71bd
00000100: b36e 3ebd 6564 fa3c d3f6 45bd 9d88 b1bb
00000110: 5a1d 20be 9200 b3bc 7459 a93c 85ce 373d
00000120: 0e6f 333d 4da8 d23c 1b78 3d3d 8720 7cbd
00000130: 3911 af3c f886 143d de3e 8cbb c345 b73c
00000140: 746b 3ebd faff 4b3d e926 2f3d 3a85 4bbd
00000150: 8d20 81bd 820c 0f3d 030b 29bd f7d0 6f3c
00000160: 3359 a4bb e1d3 66bd d7cc 0f3d 31eb 613c
00000170: 0ad6 4e3c 28dd 80bd fdcb df3c a202 1abd
00000180: 5078 0abd 5a2e 9f3a 1809 a43c da6a 4fbc
00000190: 15bf 72bc 131e 233d ac0e 1bbd d723 b33c
000001a0: 9dab 40bd e8a1 4bbd e87a 1f3d 2c94 ba3c
000001b0: e642 dfbc 8d3a 9cbd 6bd4 c1ba cf00 b63c
000001c0: a257 68bd 34aa 3bbd 6815 24bd 91f4 e83b
000001d0: 9e4b 13bd 7dca ed3c 1ae5 03bd 3b66 1b3b
000001e0: ec31 a43c 3386 333d 5ae2 033d 587a e6bb
000001f0: 8d03 7fbd a5ea e03c 4333 4dbd 6be4 5abc
00000200: 2555 d33c 3842 9c3c df6b 6abd 52a8 6dbd
00000210: 3696 20bd e13b 63bd b68e 4c3d c852 413d
00000220: e4d3 eabc 96c5 75bd c924 563d e15a 9abb
00000230: b4cb 4fbd 3990 0f3d 502d a6bc ecad c53b
00000240: 6790 bdbe 0587 05bf c256 b83c aa95 7a3b
00000250: a1a5 fabe 5d5c 10bf e9e3 8f3d 2ca1 4f3e
00000260: a401 1abf 3c60 d8bd f91e 183e 60e2 4f3e
00000270: 0c3d 3b3e 94ac 803d 44b9 b7bd 8f04 9cbb
00000280: b3dc dfbd e1b0 d4be 9ed7 ddbe 550e 12bf
00000290: 9a24 2c3e b944 a2be 2fad d13d 5183 c73d
000002a0: de0e e3be a095 763e 3eae 16bf f697 d23d
000002b0: 8ba9 593d 846d d9be 3b98 73bc 65a7 aebd
000002c0: 2f1d 2e3e c4cf d2be 013d 71bd bb0e c9be
000002d0: 16fb d9be f551 003e 63f1 2bbf 2232 a13d
000002e0: ce56 fcbd bcde e7be ae36 25be 5543 13bf
000002f0: 2200 81be 3410 5ebf b0aa 92bd be50 d3be
00000300: 1a46 903d b2fb 3ebd 3f37 283b 63b3 cdbd
00000310: 26d2 cd3d 8d25 663d bd99 3f3d 2022 a9bd
00000320: 2760 32bc b1f8 2d3d 16fb 9abd 8a5c a5be
00000330: 8ef4 b0be 50b3 e0be 188e c2bd ad2d ed3d
00000340: 536f d8bd a546 84bd e984 8fbd c09a 1cbd
00000350: 2c88 28bf 3749 1bbf d9b2 acbe d967 8fbe
00000360: 2148 d0bb b4d6 a2bd 2c82 843c 7a93 6bbd
00000370: bd25 d3bb bd87 55bd 6016 80bc 4759 773c
00000380: 0c8a 313c ad4d 73bd ca5f 0dbd ac80 a0bc
00000390: da34 00bd 35a5 003d bbce 19bc 1840 843a
000003a0: 07ba cc3c 9c2c 5ebd a7c4 a73c ae0b 89bc
000003b0: 3094 463d dbc8 94bd 779d f7bb f7eb 0ebd
000003c0: 9ded 1cbd c62a 2dbd e97a 51bd b19f 54bc
000003d0: 1406 7ebd 3bf1 883c 34b0 e53a 86b7 8b3c
000003e0: 8073 cbbc c099 59bd 1828 ab3c d5c5 0b3d
000003f0: 6459 69bb e777 babb cfe3 183d 74aa 95bd
0.013567532 -0.0047977394 -0.104031935 -0.05200165 -0.104749575 -0.115724124 -0.006152588 -0.05528752
-0.13271469 0.00386337 -0.029385526 -0.08089864 -0.07310442 0.0068211486 0.075512715 -0.022105101
-0.005475616 -0.07871753 -0.09839562 -0.06395452 -0.040893592 -0.045877036 -0.070019856 -0.057481173
-0.06407967 -0.08409596 -0.022964552 -0.072629824 -0.0037532945 -0.063188 -0.015272238 -0.1311019
-0.031288296 -0.052123114 0.024252297 -0.093539655 -0.044521797 -0.10655945 -0.005690172 0.041363396
-0.019774001 -0.18550779 -0.040150426 0.04109983 0.00463273 -0.12542145 -0.05381817 0.026330076
0.050538916 -0.02814977 -0.053186346 -0.036078278 -0.042658057 -0.0327363 -0.018047715 0.035357088
-0.058470618 -0.023826448 0.00230439 0.01814992 -0.03769608 -0.032476127 -0.053010862 -0.059001934
-0.04649229 0.03056545 -0.048331093 -0.005417897 -0.15636197 -0.021850858 0.020672537 0.044874687
0.043807082 0.025715018 0.04625712 -0.061554458 0.021370517 0.03626153 -0.0042799553 0.022372132
-0.046489194 0.049804665 0.042761717 -0.0496876 -0.06305037 0.034924038 -0.041270267 0.014637223
-0.005015516 -0.056354407 0.03510746 0.013788984 0.012624273 -0.06292182 0.027318949 -0.037600167
-0.033806145 0.0012144551 0.020023867 -0.012659753 -0.014816065 0.039823603 -0.03785579 0.021867676
-0.047038663 -0.049714953 0.038935572 0.022775732 -0.02725358 -0.07628355 -0.0014788037 0.022217182
-0.0567242 -0.045816615 -0.040059477 0.0071092327 -0.035960786 0.029027218 -0.03220091 0.0023712057
0.020043336 0.043829154 0.032198288 -0.0070336275 -0.062259246 0.027455637 -0.050097715 -0.013360123
0.025797436 0.019074544 -0.05723178 -0.05802185 -0.039205752 -0.055477027 0.049940787 0.047198087
-0.02866549 -0.060002886 0.052281175 -0.0047105406 -0.050731376 0.03504965 -0.020285279 0.006032696
-0.37024233 -0.5215915 0.022502307 0.003823618 -0.4895449 -0.56390935 0.07025892 0.20276326
-0.60158753 -0.1056523 0.14855565 0.20301199 0.18285006 0.06282917 -0.089708835 -0.0047612856
-0.10930767 -0.41541198 -0.43328565 -0.5705312 0.16810837 -0.31693056 0.1023811 0.097418435
-0.4434728 0.24080515 -0.5885962 0.102828905 0.053140204 -0.42466366 -0.014867838 -0.08528022
0.1700332 -0.41174138 -0.05889607 -0.3926905 -0.42574376 0.12531264 -0.671652 0.0787089
-0.12321244 -0.4528712 -0.1613414 -0.57524616 -0.25195414 -0.86743474 -0.07161462 -0.4127254
0.07044621 -0.046626754 0.0025667695 -0.10043981 0.10049848 0.056188155 0.046777476 -0.08258462
-0.010887182 0.0424735 -0.07567422 -0.32297164 -0.3456158 -0.43886805 -0.094997585 0.115809776
-0.105681084 -0.06458787 -0.070077725 -0.03823352 -0.6583278 -0.6065859 -0.337302 -0.28008917
-0.0063562547 -0.079511076 0.016175352 -0.05751369 -0.0064437077 -0.052131403 -0.01563567 0.015096969
0.010836136 -0.05940025 -0.03451518 -0.019592606 -0.031300403 0.031407554 -0.009387667 0.0010089902
0.024991048 -0.05424176 0.020479513 -0.016729202 0.048481166 -0.07264873 -0.007556613 -0.034893002
-0.038312543 -0.04227712 -0.051142607 -0.0129775265 -0.062017515 0.01671659 0.0017523826 0.017055284
-0.024835348 -0.053125143 0.020893142 0.034124214 -0.003560626 -0.005690563 0.03732663 -0.07307902

LGEBs.0.phi_e.3.bias f4 [72]
00000000: 149c 623c 12c1 59bd 77af babe a6c9 5ebc
00000010: f76c 80bd 1fbe d9bd dbcd f1be 5712 b9be
00000020: ef30 12bd f67b c9bc c75f 65bd ac19 53be
00000030: 3c6d 483e e0c1 0b3c c46d 2bbe e0da 23be
00000040: df8a bebe 2047 a2bd 141a 62be 2553 573c
00000050: 26e3 69be 61fe 19bd 7242 10bd 1885 fabe
00000060: 8f58 82bc 149f b13d 97af 083c 9ece 7ebe
00000070: b6fd 2bbe a2fd 4ebd df63 fa3d 4968 9fbd
00000080: 39ee 19bd 03bb 18bc e749 f3bd 7741 b33d
00000090: bd1e acbc e6f8 9dbe 38e0 88be aaea 93bd
000000a0: c782 65bd 9ad8 13bd 5200 99be bb68 99be
000000b0: 70e3 95bd 912f b03d ebe7 a0bd 9de4 04bd
000000c0: 3b4a 1cbb 93f6 59bd edc4 043b 8630 a4bb
000000d0: 01c3 733d 131c 12bb 20b0 41bd 9a62 413e
000000e0: e4a7 c2bd 5569 83be b8db 27be 51df 99bd
000000f0: 5cb0 1cbe adb8 06bd c3a7 cabe 37c2 f5bd
00000100: 86ab 11be 4bda 70be 8200 19bb 3e96 e5bd
00000110: 8f51 fa3b 2282 e3bd b2b1 73bc 4555 5a3e
0.013831157 -0.05316264 -0.36461994 -0.013597881 -0.062707834 -0.10631966 -0.47227368 -0.36146805
-0.035691198 -0.024595242 -0.055999544 -0.20615262 0.1957292 0.00853011 -0.16741091 -0.16001463
-0.37215325 -0.07923722 -0.2208026 0.013142382 -0.22840557 -0.03759611 -0.035219617 -0.48929667
-0.015911369 0.0867292 0.008342645 -0.24883506 -0.16796002 -0.05053485 0.1222608 -0.07783563
-0.037580702 -0.009321931 -0.1187933 0.08752721 -0.02101075 -0.30853957 -0.26733565 -0.07222493
-0.056032922 -0.03609524 -0.29883057 -0.29962716 -0.07318771 0.086028226 -0.07856735 -0.032444585
-0.0023847956 -0.053213667 0.0020258978 -0.0050106673 0.059512142 -0.0022294566 -0.047287107 0.1888527
-0.09504679 -0.256663 -0.1639241 -0.07513297 -0.15301651 -0.032890964 -0.39581117 -0.11999934
-0.14225587 -0.23520772 -0.002334625 -0.11210297 0.007639117 -0.11108805 -0.014873909 0.2132159

LGEBs.0.phi_h.0.weight f4 [72, 146]
00000000: ec9c 593e f333 db3d 21bc 1f3e 63a8 8cbd
00000010: 847c 613e d96e 173e afa3 2cbc bab0 553e
00000020: 6eb5 763e 8088 3cbe ca77 f93d ad27 1bbe
00000030: 91fc 053e 485e 0bbd c9f3 71be 0cf6 0abd
00000040: 3927 c8bd cfa3 62be 07ff 7cbe acbb 1fbe
00000050: 4baf ffbd 934a 4c3d a492 46be 2368 953d
00000060: 082e d13d 49db 15be 43d3 07bd 4d81 61be
00000070: 1430 30be 3b97 073e 2c4b 433c c950 533e
00000080: 2a8d 243e 2ca2 3cbe 0055 873e 521c 1ebe
00000090: a494 3a3e cb09 9fbd 0428 16bc 180b c7bd
000000a0: 6a4b df3d c1ac f23c e2b8 6f3e f651 363d
000000b0: f6bb c13d cc44 6d3e c9db 0a3c 6b6c afbd
000000c0: 9032 9fbd ccc6 433e 9303 83be 341f 023d
000000d0: dfaf 363e a74f 4bbe f31d d6bc bfb1 4f3b
000000e0: bc58 83bd 88ff 2fbe 2d6e 1abd 58da a43d
000000f0: 25ac 923b b964 62be a5fe 043c ee0f 863e
00000100: 5d92 68be afa2 5bbe 56af f6bd 716e 4bbe
00000110: f39f e8bd 747e 513e 4fdb 3b3e d522 79be
00000120: 5737 9fbd e06a 1bbd c32a b6bd 7ad6 4c3c
00000130: e7fc 243c 48bf f33e 10a4 1bbe b143 0f3e
00000140: a711 d7ba 0878 58bb 8804 713c 92c6 333e
00000150: 7008 f13d 1865 e73b e330 f73d 2c27 833e
00000160: 94f4 6ebc fdee f03d 752a 033e 8793 343e
00000170: 3c26 9d3e 4c7f e23c 1600 dc3b 872e 993d
00000180: e261 48bd 25e7 f43e 5314 e53d 32a5 313e
00000190: 4b04 493e e0fb a6bc 818b 093e 5bde b13c
000001a0: 5c1b 3ebd d365 87ba 9ecc 263d 1434 6c3e
000001b0: 25ee 263d 6413 683e 8918 453e 5135 40bd
000001c0: e7c5 e1bc 8824 5b3e a820 a83d bba0 683d
000001d0: c106 ed3d 807b 423e 1d96 823e b098 6ebc
000001e0: c04e 2b3d 7b33 04bd a81c 2a3e c798 c03c
000001f0: 4df5 283e 29dc 89bd db3e 263c ef1e e6be
00000200: d789 ba3e 3c3c 6a3d 20d9 3f3e f4e8 a43c
00000210: 6cd6 693e 9326 e13c b6da 553d e382 a03d
00000220: df96 2b3d c8a1 aa3d d950 513e 34ed 293d
00000230: 4663 943a 6a3f c73e b3ad 69be bebb eabe
00000240: da40 1dbe 35f9 a1bd 9af3 b2bd 6449 73be
00000250: c73f eebd 9a61 853e f2a6 82be 0d76 493d
00000260: 7e72 4abe bcd8 70be 1ae4 24be a84f f43d
00000270: eee8 9cbe afa7 a53e 5f4d 0e3e 92d3 9c3e
00000280: ac3a a83d cf5f 1dbe 465c a03e 7e8b 603e
00000290: 8220 f73d 5b0c 9d3d 383a 043e 28d6 1b3e
000002a0: a484 033e e585 72be b84e fd3c 175a 173e
000002b0: a6ea 7f3e b322 8d3e 18ca b63e 644b 8bbe
000002c0: 3ed9 6a3e f81a a0bd e5f7 583d a03b 8a3d
000002d0: eaaf 88be f88b 8e3e 9073 87be ee94 4b3e
000002e0: d582 773e 4e9f 43bc d15f 93be 245d 813e
000002f0: ea25 18be b12d 303e a7d8 8bbe c4ad 74bd
00000300: e721 84be d823 7c3e 458c 883e 8278 47be
00000310: fc3b 9e3e f392 d43c 40aa 23bd 7622 1a3e
00000320: 0387 50be fc4b 533e f448 833e 3f15 3d3d
00000330: d3e4 7a3e f3ab 83be 812c 563e 5cdb 323d
00000340: 5db5 5c3e 344b 013e c422 8e3e f4dc ce3d
00000350: 761a a5bc 681f 553b 0286 7e3e 6e9d 88be
00000360: 2afc 89bd f999 2f3e ee46 603c 866e ca3b
00000370: 0dce 3bbe 4c2f 503c 1f8c 26bd 1be3 3b3e
00000380: f64d 84be 87de 413f d37c 003d 8908 383c
00000390: 1fd8 bcbc a06f 823d e8c2 4b3d 498f 5abc
000003a0: 9d8c 39bd a1c4 6a3c c3f3 adbd 5bb3 a9ba
000003b0: ad5e c23d 269a ddbd 1911 f93d 20dc 9b3c
000003c0: 7c80 223d 6117 0ebd a8b3 dfbc 839d d43d
000003d0: 455a 31bd 9284 2fbc e63f 213d 8ead 21bd
000003e0: 0a1b 063e 9a7b cbbc 3c04 423c 1ccb 6f3b
000003f0: 3efa c43c 8341 c93b e8fa 493e 4d6f 063f
0.21251267 0.10703268 0.15599109 -0.06868055 0.22020155 0.14788379 -0.010537072 0.20868197
0.24092647 -0.18411446 0.12181051 -0.15151854 0.13084628 -0.03402546 -0.23628153 -0.033926055
-0.09773106 -0.221328 -0.2470666 -0.15598935 -0.12484606 0.049875807 -0.19391876 0.07295253
0.10213858 -0.14634432 -0.03316046 -0.2202198 -0.1720584 0.13241284 0.011919778 0.20636286
0.16069475 -0.18421239 0.26432037 -0.15440491 0.18220764 -0.0776554 -0.009164814 -0.09718913
0.10903056 0.029623391 0.23410371 0.044511758 0.09459679 0.23170775 0.008475252 -0.08565601
-0.07773316 0.19118804 -0.25588664 0.03176804 0.17840527 -0.19854604 -0.026137328 0.0031691638
-0.06413409 -0.17187321 -0.037702728 0.08049458 0.0044760876 -0.22108735 0.008117353 0.26184028
-0.22712083 -0.21448778 -0.120451614 -0.19866349 -0.11358633 0.20458394 0.18345378 -0.24329694
-0.07774227 -0.03794372 -0.08894875 0.012502307 0.010070062 0.47606874 -0.15199304 0.13990666
-0.0016408459 -0.0033030529 0.014710553 0.17556217 0.117691875 0.007061612 0.12069871 0.25615823
-0.014584679 0.117643334 0.12809165 0.17634402 0.30693233 0.02764859 0.0067138774 0.074795775
-0.048921473 0.478326 0.11185517 0.17348173 0.19630544 -0.020383775 0.13432123 0.021712473
-0.04641281 -0.0010330029 0.040722482 0.23066741 0.040754456 0.22663647 0.1924764 -0.046925846
-0.027560188 0.21400654 0.08209354 0.05679391 0.11573554 0.18992424 0.25505152 -0.014562771
0.04182315 -0.032275658 0.16612494 0.02351035 0.16499825 -0.06731445 0.010146822 -0.44945475
0.36433288 0.05718635 0.1873517 0.020130612 0.22835702 0.027484214 0.052210532 0.07837465
0.04189193 0.083316386 0.20440997 0.04148598 0.001132109 0.3891557 -0.22820167 -0.4584636
-0.1535677 -0.079088606 -0.087378696 -0.23758465 -0.11633258 0.26051027 -0.25517994 0.049184848
-0.19770238 -0.23520178 -0.16102639 0.11929256 -0.3064646 0.32354495 0.13896702 0.30630165
0.08214316 -0.1536858 0.313204 0.21928212 0.12066747 0.07668372 0.12912834 0.15218413
0.12843567 -0.23683889 0.030921325 0.1478046 0.24991855 0.27565536 0.3570106 -0.27205956
0.22934434 -0.07817644 0.052970786 0.06749654 -0.26696712 0.27841163 -0.26455355 0.19881031
0.24171002 -0.011939837 -0.2878404 0.25266373 -0.14858213 0.1720493 -0.2731373 -0.05973603
-0.25807115 0.24623048 0.26669517 -0.19479564 0.3090514 0.025948977 -0.039957285 0.15052208
-0.20364003 0.20634454 0.25641596 0.04616284 0.24501352 -0.25717124 0.20915414 0.04366623
0.2155356 0.12626344 0.277609 0.10100737 -0.02015422 0.003251994 0.24855807 -0.2668261
-0.067375496 0.1714858 0.013688786 0.006177726 -0.18340321 0.012706589 -0.040660974 0.18348353
-0.2584073 0.75730175 0.03136904 0.011232504 -0.023052273 0.06368947 0.049746424 -0.013339826
-0.045300115 0.014329107 -0.084937595 -0.0012947129 0.09490714 -0.10820417 0.12161464 0.019025862
0.039673313 -0.034690265 -0.027307346 0.103816055 -0.04329898 -0.01071276 0.03936758 -0.039472155
0.13096252 -0.024839211 0.01184183 0.0036589568 0.024045106 0.006141843 0.1972462 0.5251358

LGEBs.0.phi_h.0.bias f4 [72]
00000000: 6cb6 52bc 8562 31bd 6c06 3dbd a844 1b3d
00000010: 7393 a7bb fe13 1abd 0d14 b03b 3eed d538
00000020: d6b6 173d 8877 df3c 86ed f7bc de31 86bc
00000030: 0aef f03c 8018 debc c357 2cbd a22f 83bc
00000040: 7b06 0cbd 9468 163d 35eb 383b bb78 1e3d
00000050: 7ebb 0c3d d53c 993c 9cb4 2dbd 2a95 003d
00000060: 6190 ae3c f10a b03b 7225 193c 4abb c43c
00000070: e10a 353c a86a 80b9 2dbf 673c da95 0cbd
00000080: 7eff 2fbc 9f08 2b3d 6bc3 a03c d123 1cbc
00000090: 14ce f4bb 9b64 193b 3f99 fa3b a90d 443c
000000a0: a89c 3a3d 4e38 9cbc 4dbf 9bbc 6197 f43c
000000b0: caa5 cbbc 9a03 203d 3d8c a5bb 15e3 6f3b
000000c0: 9b45 cf3c c93b b8bc 9cf8 a53c d00a 6cbb
000000d0: 2b9f 2e3d 9a5d 73bc f936 6d3c 8887 9ebc
000000e0: 3926 8a3c 6b14 42bc 59d0 d93c cb15 063d
000000f0: 3e56 013d 37bc f6bc 6868 c1bb 0fa1 f8bc
00000100: d2f1 8dbc b5e7 843c 0f4a 143d 3868 1abd
00000110: 073c b93c 793e 8ebc 1968 5d3c c1e6 17bd
-0.012860876 -0.043306846 -0.046148703 0.037907273 -0.005114013 -0.037616722 0.005373484 0.00010200821
0.0370396 0.027278677 -0.030264627 -0.0163812 0.029410858 -0.027111292 -0.042075884 -0.016013924
-0.034185868 0.036720827 0.0028216366 0.038689356 0.034358494 0.018705765 -0.04240857 0.031392254
0.02130908 0.005372398 0.009347307 0.024015088 0.011049957 -0.00024493528 0.014144701 -0.034322597
-0.010742066 0.04175627 0.019624433 -0.009530024 -0.0074708555 0.0023405913 0.007647663 0.011966147
0.045559555 -0.019069817 -0.019012118 0.02985734 -0.024859328 0.039065935 -0.005052118 0.0036603857
0.025301745 -0.022489445 0.020260148 -0.0036017187 0.042632263 -0.014853859 0.0144784385 -0.019351736
0.01686393 -0.011845688 0.026588606 0.032735627 0.031576388 -0.030119045 -0.005902339 -0.030350236
-0.017327223 0.016223768 0.03620344 -0.037697047 0.022611631 -0.017363774 0.013513588 -0.0370853

LGEBs.0.phi_h.1.weight f4 [72]
00000000: 33da 193e 9ef3 db3e 9e5c b63e 68d2 ae3e
00000010: af38 c43e 5486 923e 6e5b 113e 5c7c fb3e
00000020: 1fa7 ee3e 7db2 ca3e 15b3 023f 103b c53e
00000030: 77a3 933e 3fcd 933e baf2 7d3f 1330 c93e
00000040: 408b 483e ad93 313f 10e0 cc3e 8915 f03e
00000050: a8e9 ed3e dce4 b63e c4f5 db3e c4e5 db3e
00000060: 77fd 2d3f 2555 503e b7c9 ab3e 9879 f03e
00000070: f2df 053f 38a1 b63e e48a b73e ad7c d13d
00000080: 954c ca3e ae07 d23e 2c39 f33e ad20 d53e
00000090: 4f29 973e c321 ce3e 5ac0 093e 5c8b b23e
000000a0: fbb7 003f 3a10 003f eeb4 263f 9739 453f
000000b0: 0180 ae3e 1d30 003f b645 ce3e de52 3a3f
000000c0: d521 893e 01e4 113f 751a 793e e368 613e
000000d0: e29b be3e 27a7 fe3e 3ccf df3e d243 ed3e
000000e0: f7fe 023f d01f e93e 18ec cb3e 2eed 5e3e
000000f0: f21d 133f d1e6 093f c815 103f eae3 673e
00000100: 1066 f33e 8850 973e 683c 743e e949 e93e
00000110: 657c 0f3f 8743 0f3f 0c6f 8f3e 9323 b43e
0.15024643 0.42959303 0.35617536 0.34144902 0.38324496 0.2861811 0.14195034 0.49118316
0.46611878 0.395893 0.5105451 0.38521624 0.2883565 0.28867528 0.99198496 0.3929449
0.1958437 0.6936596 0.40014696 0.4689143 0.46467328 0.3572148 0.42960942 0.42948735
0.6796488 0.2034498 0.33552334 0.4696777 0.5229484 0.35669875 0.35848153 0.10228858
0.39511552 0.41021484 0.47504556 0.41626492 0.29523703 0.40260133 0.13452283 0.34871948
0.5028073 0.5002476 0.65119827 0.77041 0.34082034 0.50073415 0.4028756 0.72782695
0.26783624 0.5698853 0.24326499 0.22012667 0.37228304 0.49736902 0.43712795 0.46340805
0.51170295 0.45532084 0.39828563 0.21770164 0.5746757 0.5386782 0.56283236 0.22645536
0.47538805 0.29553628 0.23851168 0.455642 0.56049186 0.55962414 0.2801441 0.3518339

LGEBs.0.phi_h.1.bias f4 [72]
00000000: 10ea c3be 7e59 f4bd 788d 30bd 40ce d5bd
00000010: aa6d 6cbe d2e9 3abe 763e 3ebe 1f68 e8bd
00000020: 9f31 46be 34b2 31be 64e1 1fbe 1117 84be
00000030: b787 46bd 8928 54bd 3d97 f53c 9c4a 13be
00000040: b0f4 6bbe e8b6 49bd b796 a4bd 4b9d 15bd
00000050: c0ea 19be cf25 86bc f762 50bd dcdd 25bd
00000060: 85e9 54bd 75a8 67be d4f2 3ebc 524e 0abd
00000070: 132f efbd 6cbd 72bd 7dcc 05be 3420 39be
00000080: 3c50 50bd d9f8 39be 7206 d6bc 5037 50bd
00000090: 17a9 78be a92a 32be 216f 25be 0699 d0bd
000000a0: 410f 833d 9a80 0ebe 1f36 163e e0ca 363d
000000b0: 555f 893d f3d3 36be ad41 75be 7f81 0f3e
000000c0: afa1 5cbe c815 f4bd e507 98be 2b89 9fbe
000000d0: 2474 1dbe 0e82 f5bd c56d 88bd c1c9 03be
000000e0: cd6b 73bd bfe7 bdbd ce85 86bd 4a25 4bbe
000000f0: be31 dfbd 647b c1bd 3644 8cbe 2e6f 0ebe
00000100: 36ad 05be 5e9b 4cbe fbc9 e6be d431 19be
00000110: 4a72 05bd 9f40 b6bd 38a1 11be 6bfd 84bd
-0.38264513 -0.11931132 -0.043103665 -0.1043973 -0.23088709 -0.18253258 -0.18578514 -0.113479845
-0.19354866 -0.17353135 -0.15613323 -0.25798848 -0.04846927 -0.05179647 0.029979343 -0.1438393
-0.2304256 -0.0492467 -0.08036559 -0.03652696 -0.15030956 -0.01637545 -0.05087563 -0.040494785
-0.051980514 -0.22622855 -0.011654574 -0.0337661 -0.116789006 -0.059262678 -0.13066287 -0.18078691
-0.050857767 -0.18161334 -0.02612612 -0.050834 -0.24283253 -0.17399086 -0.16155674 -0.10185437
0.06399394 -0.13916245 0.14669083 0.04462707 0.06707636 -0.1785429 -0.23950835 0.14014243
-0.21546052 -0.11918217 -0.29693523 -0.31159338 -0.15376335 -0.119876966 -0.06661562 -0.12869932
-0.05942898 -0.09272718 -0.0656849 -0.19838443 -0.108981594 -0.09447363 -0.2739579 -0.13909599
-0.13054356 -0.19981143 -0.45075974 -0.14960414 -0.032579698 -0.08899044 -0.14221656 -0.06493648

LGEBs.0.phi_h.1.running_mean f4 [72]
00000000: 9060 ec40 8585 e840 1f0c 2bc0 b09c 9ec0
00000010: 8483 7ac0 2b21 b0bd dbd4 55c0 b57c 3abf
00000020: f9cd 02c0 b802 a33e 7f2d 98c0 53df 5ec0
00000030: cb63 82c0 dd51 2540 f56f 1cc0 d2cf 69c0
00000040: fad9 7dbf a6d1 dac0 43fe 91c0 cd17 87c0
00000050: a9cb 58bf 763f d5be 3ec3 82c0 4308 88c0
00000060: dce8 9bc0 d322 c6bf f5cf ffbf 4dc2 6a40
00000070: 2a38 67c0 4eb8 83c0 c48e 98c0 b39b 0fbf
00000080: aa3b 2e40 df89 e8bf 4b0f 27c0 b0ec 4f40
00000090: 1e91 5d40 7355 98be 66cd 3ac0 d50b 8ec0
000000a0: 8c35 0ac0 2166 f1c0 230b d8bf 90c9 fdbe
000000b0: 4231 ab3e adf4 40c0 c336 0c40 75cf 9dbf
000000c0: c638 87c0 b108 1cc0 07fc 0a3f fcb9 0040
000000d0: 148f afc0 8388 873f c94c 03c0 34aa c0c0
000000e0: c449 c43f 9d24 743f c29a 9ec0 b83e 45c0
000000f0: 5fdd 6cc0 c604 28c0 662b 9040 b84b 62c0
00000100: 4af4 fec0 28e2 d93e 8e26 a340 bf7f 2e3f
00000110: 73d3 89c0 09ae bdc0 7361 38c0 5386 73c0
7.3867874 7.266299 -2.6726148 -4.956627 -3.914277 -0.08600076 -3.3411167 -0.7284654
-2.0438216 0.31838012 -4.7555537 -3.4823806 -4.0746818 2.5831215 -2.4443333 -3.6533093
-0.9916073 -6.838092 -4.562288 -4.2216554 -0.8468576 -0.4164998 -4.0863333 -4.2510085
-4.872175 -1.5479378 -1.9985338 3.6681092 -3.612803 -4.116248 -4.7674274 -0.56096953
2.7223916 -1.8167075 -2.6103084 3.2488213 3.4619823 -0.29752693 -2.9187865 -4.4389443
-2.1595182 -7.543717 -1.6878399 -0.49567842 0.33436018 -3.0149338 2.1908424 -1.2328936
-4.2256804 -2.4380305 0.54290813 2.0113516 -5.4862156 1.0588535 -2.0515616 -6.0207767
1.5335011 0.9536837 -4.9563913 -3.081953 -3.7010114 -2.6252913 4.5052977 -3.5358715
-7.9673204 0.42555356 5.0984564 0.68163675 -4.3070617 -5.9274945 -2.8809478 -3.8050735

LGEBs.0.phi_h.1.running_var f4 [72]
00000000: f6e7 3d41 4d78 e841 0aa6 3e41 0718 f741
00000010: e0da 3842 b73a d840 8eb6 5141 6814 ec41
00000020: 0ffb 9341 8e31 2a41 dbf1 d841 0a16 ce40
00000030: 000e 0b42 426a da41 2867 c042 9930 0741
00000040: 38d4 a241 24be 0242 b3fc 2942 5e0e ed40
00000050: 0f98 a341 5cae 1242 165c 0042 3cb8 7041
00000060: 32d2 1442 35b8 4a41 1571 2342 dee5 ab41
00000070: c855 0342 cad6 bb41 9d63 9b41 606b 9741
00000080: 37cd 7b41 f683 2742 3b8f 0641 755e 9441
00000090: d414 0642 0062 0341 3881 8841 844e 4842
000000a0: 7f7c 1e42 07ca 7242 6d71 4d42 a6e2 6b42
000000b0: 57bb 5741 2262 a741 dbe4 6b41 b033 7c42
000000c0: 4ae1 1d42 02cf 1442 9284 9841 6ebe c740
000000d0: ef38 2142 2de7 8141 f9fb b241 019a 6242
000000e0: 4f65 a141 1267 9741 a4ec 0842 b194 c841
000000f0: 1ce8 ea41 0f8e 1742 35b6 7a41 c5b9 8a41
00000100: 982b 9742 425a 9a41 1428 1d41 1acb 9640
00000110: 16c5 9941 22c4 1642 80fe fa41 a1a6 dc40
11.869131 29.05874 11.915537 30.886732 46.213745 6.7571673 13.107069 29.509964
18.497587 10.637098 27.118093 6.4401903 34.76367 27.301884 96.20148 8.449365
20.353622 32.685684 42.496777 7.408004 20.449247 36.670273 32.089928 15.044979
37.20527 12.669972 40.86043 21.48724 32.83377 23.479877 19.42364 18.92743
15.737601 41.87887 8.409968 18.546122 33.52034 8.211426 17.063095 50.076675
39.62158 60.697292 51.360767 58.971336 13.483237 20.922916 14.743373 63.050476
39.47001 37.202156 19.064732 6.241996 40.3056 16.237879 22.373034 56.650394
20.174467 18.925327 34.231094 25.072603 29.363335 37.88873 15.669484 17.340708
75.585144 19.294071 9.822285 4.7122927 19.221233 37.691536 31.374268 6.8953404

LGEBs.0.phi_h.3.weight f4 [72, 72]
00000000: 4090 06be 782a 00be 0b08 d13d ff4a be3b
00000010: 7ad7 10be b9e1 71bd 3073 dfbd 9e18 83bd
00000020: 150f 0abe cb58 c33d 8a21 503c f2e2 04be
00000030: d9ef fe3d e9d7 c5bc e3b6 373f 6b59 d7bd
00000040: e7c6 e3bd 8a32 7c3e 9ffe 97bd be93 8e3e
00000050: 5b8e f83d d5a4 7d3e 4159 a83d 4669 d33d
00000060: 02ea 1c3e 83b6 bb3c a735 0f3e cbb1 523d
00000070: aff0 573d 0a37 0c3d 30ce be3c 17ba debd
00000080: 52f1 86bd 4100 94be 4ebb 32be bd9d 023e
00000090: 5ca6 58be ee1b 2fbe aec6 9ebd d82a 983c
000000a0: 5196 69be e32c ad3d 529b aebd ee0c 0c3f
000000b0: 67df 8e3d cc2f 0ebd 3033 42be ddfc c53e
000000c0: 4376 a2bd 8c71 e43e bbe7 5abe eeaf 5e3d
000000d0: 6eee 0c3e d198 c53d 69d6 8c3d 548d de3d
000000e0: 4ded af3d 0d83 663c 1dfd a83d dc44 813d
000000f0: 3030 5ebe a4c0 27bd 46c4 86bd 29f7 123d
00000100: fd64 b13d c0d1 99be 68e6 433c 0d3f a43d
00000110: 49ef a03c 57e4 2c3e c0d1 3ebd 64cf 59be
00000120: 3992 a33d 58d1 78bd c724 ac3d 1cf9 cbbd
00000130: 9dc0 2c3c d35a 19bd 48bb 25be 6a83 323e
00000140: 25e3 5f3e 9acf 22be 5a14 a13d 4ed1 793b
00000150: 37c5 3dbd abc5 72bb 12fc a43e 3619 95be
00000160: dbc6 67bd 1ea3 4d3e db0b c73d 1c24 6b3d
00000170: 43ea 263d bfa8 c43d 358f c63a 3027 4fbe
00000180: 5c29 7f3e 4f8a e93d 0d1b 46be fe1a 88bc
00000190: efb7 043e d612 07be 9fe1 27be 1d6f ebbb
000001a0: e5dc dcbc 2d02 c3bd 028f 64bd ee20 a33c
000001b0: 52c7 9dbd e9cc 93bc dcf8 af3d 4f67 f4bd
000001c0: 6a31 993c f1aa 833e afa2 c0bd d350 533e
000001d0: 37e7 1b3e b84a 043d 2e97 b53d 4ad5 193e
000001e0: 2e53 3fbb 1428 7c3e 2104 82bd 131c 1a3c
000001f0: bb72 edbc 23e7 f53d ce59 eb3d f096 4fbd
00000200: c172 82bd e386 aabc 2853 babd 8c1d 9dbd
00000210: 0257 c73c fd58 7a3e 28ff 393e 2e8a 273d
00000220: b702 283e 6de8 60bd 4f32 153e 8a63 05be
00000230: 50d3 5e3e ea7a 9c3d 7ae8 a6bd 03b9 8fbd
00000240: 242e 58be 154b 153c 2366 a03c 577e d3bc
00000250: 3921 c23d 42ea 2d3e 808e ce3d 0e6a c7bc
00000260: 9d74 6dbd d92f 873e 0bfa 52be 67d6 35bd
00000270: f8e9 d2bd 85ff 203d 0c6f a4be 6576 a03e
00000280: 3714 c73c 8d4d 79be ecd5 89bd 6ec2 66be
00000290: 0bd6 8a3d 4959 d2bc b98e babd 9a8a bebd
000002a0: 232c 5dbe 8a9f ce3d a0f8 133e 6c97 4fbc
000002b0: 6385 2bbe 3d0c 8b3c 325e 19bd b90e d73d
000002c0: 3ffe 5ebd 7592 193e 22eb e03c 24b2 28bc
000002d0: f49f ef3c 5593 a7bd 8c30 5fbd c0f4 cdbd
000002e0: 9206 b23d c937 10be f4cd 88bc 0260 d6bd
000002f0: d575 acbc 273c 5fbd 45b5 023d 478c c8bd
00000300: bd21 16bd 9b28 63be ca02 db3d f841 8fb8
00000310: e95f 97bd 7b02 9cbd ca7f 10be b979 01be
00000320: 6cfa e0bc 18d0 87bc b502 093d 9c0d 133d
00000330: 2f26 22be e1dc 04be ffae 25be 7fc0 4a3d
00000340: c5d0 16be 7e65 cf3d 8e73 01be a856 c83d
00000350: 731b 17be 19a6 d2bd d3b6 213c fedd 033d
00000360: 0690 993e 72cb 653d 511a 28be ed2e 47be
00000370: dfd7 be3d 925a 643e a1f6 dc3d fa80 49be
00000380: b9d6 633e 6b18 25be 748b 1b3e 5850 bb3e
00000390: 713d a9bd de7f 7dbd 54eb aabe 9ac8 68bd
000003a0: c1a7 073e 0942 d3be 8bfc 0a3e 98e5 83bd
000003b0: 096f 54be 09c0 7cbe 4f9d 8cbe b2e6 f6bc
000003c0: aca0 bdbe 48ba 0abe 4df0 343e f58a 14be
000003d0: 0335 5cbe b55b 7bbe 32c6 f6bd a399 df3d
000003e0: 432c 823e 6d6a d23d dbaf 743e 1d4b 2bbe
000003f0: 51c9 323e 04ab b93e 3386 c9bc 1cbd 30be
-0.13140965 -0.125162 0.10206612 0.00580728 -0.14144698 -0.059053157 -0.10910642 -0.0640118
-0.13482316 0.0953842 0.012703309 -0.12977198 0.12448091 -0.024150806 0.7176344 -0.10515102
-0.11121922 0.24628654 -0.07421612 0.27847093 0.12136527 0.2476991 0.08220149 0.10322814
0.15323642 0.022914177 0.1398531 0.051439088 0.052719768 0.034232177 0.023291677 -0.108753376
-0.06588997 -0.28906444 -0.17454264 0.12755485 -0.21157211 -0.17100498 -0.07752739 0.018575117
-0.22811247 0.08455827 -0.08525719 0.5470723 0.06976204 -0.03471355 -0.18964839 0.38669482
-0.07932713 0.4461788 -0.2137746 0.054367 0.13762829 0.09648288 0.06876833 0.108668
0.085901834 0.014069331 0.082514025 0.06311962 -0.2169807 -0.0409552 -0.06580405 0.03588024
0.0866184 -0.3004284 0.011956789 0.080198385 0.01964535 0.1688398 -0.046586752 -0.2127052
0.07986874 -0.06074652 0.08405452 -0.09959623 0.010543969 -0.037440132 -0.16184723 0.17432943
0.21863993 -0.15899506 0.0786521 0.003811914 -0.046330657 -0.0037044089 0.32223564 -0.29120797
-0.056586128 0.20081756 0.09719058 0.057407483 0.040750753 0.09602498 0.001514888 -0.20229793
0.24918121 0.114033334 -0.19346257 -0.016614433 0.1296079 -0.13190779 -0.16394661 -0.0071848766
-0.0269608 -0.09521899 -0.055800445 0.019913163 -0.07704033 -0.018042045 0.08592388 -0.11933767
0.01870032 0.25716355 -0.094060294 0.206363 0.1522492 0.03229782 0.08866726 0.1502277
-0.0029193866 0.24624664 -0.06348444 0.0094061075 -0.028985372 0.120069765 0.11491738 -0.050681055
-0.06369544 -0.020816272 -0.09097892 -0.07671651 0.02433348 0.24448009 0.1816374 0.040903263
0.16407286 -0.05490916 0.14569972 -0.13026252 0.21760297 0.076406315 -0.0814981 -0.0701771
-0.21111351 0.009112139 0.019579953 -0.02581708 0.09478993 0.16983894 0.100857735 -0.024342563
-0.05797254 0.26403692 -0.20603196 -0.044393923 -0.10298532 0.039306182 -0.32115972 0.31340328
0.024301631 -0.2434599 -0.067302555 -0.22535107 0.06779107 -0.02567734 -0.091092534 -0.0930378
-0.21598868 0.100890234 0.14450312 -0.012670379 -0.16750102 0.01697361 -0.037443347 0.10500855
-0.054441687 0.14997275 0.02745587 -0.010296378 0.029251076 -0.08182398 -0.054489657 -0.10056448
0.086926594 -0.1408378 -0.016699769 -0.10467531 -0.02105228 -0.054500725 0.031911153 -0.09792381
-0.03665327 -0.22183459 0.10693891 -6.831059e-05 -0.0739134 -0.076176606 -0.14111248 -0.1264409
-0.02746316 -0.016578719 0.033449847 0.03590165 -0.15834878 -0.12974884 -0.16180037 0.049499985
-0.14728077 0.1012678 -0.12641737 0.09782153 -0.14756565 -0.10285587 0.009870249 0.03219413
0.29992694 0.056102224 -0.16416289 -0.19451495 0.09318518 0.22300175 0.10789228 -0.19678107
0.22249879 -0.16122596 0.15189916 0.36584735 -0.08263672 -0.06188952 -0.33382666 -0.056831934
0.13247587 -0.41261318 0.135729 -0.06440276 -0.20745482 -0.2468263 -0.27463767 -0.030139301
-0.37036645 -0.13547623 0.17669792 -0.14506133 -0.21504597 -0.24546702 -0.120495215 0.10917976
0.25424394 0.10274205 0.23895209 -0.16727872 0.17459609 0.36263287 -0.024600124 -0.1725964

LGEBs.0.phi_h.3.bias f4 [72]
00000000: 179e a7bd 1dc0 57bd 782c 093b caac ec3d
00000010: d3e1 cfbd 4789 d33c dff3 813c 0c65 a4bd
00000020: b072 61bd a451 6f3d 700f 623c f140 cfbb
00000030: 3d85 c6bb 3ab3 d6bd 00de e13c 2fa8 993d
00000040: 1f0e 9c3d 970c 173d 35da 4cbd d1a1 e5bc
00000050: 968c 61ba 0480 08be 7657 083c b83a 5abc
00000060: 28c5 c5bb 5abc 173d 4452 4abd 9bb1 983d
00000070: 10ea e73d 6e6b 8b3d 9d75 31bd 79bb 883b
00000080: 1468 36bd 3c7a e6bc 8803 afbc 72a2 2bbd
00000090: 08fe 263d 3009 b5bd 8361 173e 4f4c 86bc
000000a0: 1f9c 0d3d 5dde 68bd 957e f6bc 4fa6 cabc
000000b0: c62a dc3a 92b3 813d 9026 35bd 621a 49bd
000000c0: b410 113e 7c2d a6bd e0d9 233d a504 503d
000000d0: d209 523c 4159 c2bd 8f7f b0bd f7f1 eabd
000000e0: 8b65 e53d 13e3 0b3e 1309 8c3d 059b 5fbd
000000f0: f983 bbbc 0264 96bc 0a28 cf3c 458c c8bd
00000100: 0d35 80bd 3358 153d fd32 17bd 5a84 aebc
00000110: b5c5 4cbd 4dc5 05bd e16b 5d3d 931a 49bd
-0.0818445 -0.052673448 0.0020931046 0.115563944 -0.101504944 0.025822295 0.015863357 -0.08027086
-0.055041015 0.058427468 0.013797626 -0.0063248803 -0.0060583637 -0.104834035 0.027571678 0.075027816
0.07619881 0.03687724 -0.050012786 -0.028031262 -0.0008604018 -0.13330084 0.008321634 -0.013319664
-0.0060354657 0.03704486 -0.04939486 0.074557506 0.11323941 0.068076 -0.043325055 0.004172739
-0.04453285 -0.028134458 -0.021363989 -0.041902967 0.040769607 -0.08839643 0.14783292 -0.016393809
0.034572717 -0.056852687 -0.030089656 -0.024737505 0.0016797415 0.063330784 -0.04422623 -0.049097426
0.14166528 -0.08114144 0.040002704 0.05078568 0.012819724 -0.0948968 -0.0861808 -0.114719324
0.112010084 0.1366084 0.06837668 -0.054591198 -0.022890078 -0.018358234 0.025287647 -0.09792379
-0.06260119 0.036461066 -0.03691386 -0.021303345 -0.049993236 -0.032658864 0.05405796 -0.04909761
