data/LorentzNet_model_wReweighting_2023Mar13.pt (torch, 948273 bytes, 117 tensors)

embedding.weight f4 [72, 2]
00000000: 8a9d 073d 6bcd a0be becd 53bd f426 9abd
00000010: c83c 823b c4a1 913c f2f7 43bd 5181 23be
00000020: 69a9 80be 158e 4abe e027 37bc c297 3a3d
00000030: 20b1 083e f147 06bb 1e52 89be 9d7b a73e
00000040: 920f 69bb 5100 903c f10d 003e 4d4b 213e
00000050: 3841 0ebb f0ad 0ebc 0cb8 a436 25d4 0cbb
00000060: 756c 35be 11d4 97be fab2 ba3d 67bc a0be
00000070: e27c 5fbc b67d 25bc c31e 38bc fc72 1d3d
00000080: bccb babc 296c 61be 430d 18be bcdd 0bbe
00000090: 1f3e 3e3b a38f 9ebc 9239 9e3b b830 cbbd
000000a0: 0c15 72bb 23b4 163d 3899 923b 035b 65bc
000000b0: 2e12 dabc ca1c 8a3e d01a cebc fe07 5cbe
000000c0: ed39 89bd fdc2 8fbe f8aa 543d d511 7ebe
000000d0: 9ce2 453e e7ba 223e 4db8 243c e5ab 973b
000000e0: 876e 9dba d368 733b 7019 273d 64f9 67be
000000f0: e0c1 dfbd 0883 a4be 1d5b 0d3e b6d2 25bd
00000100: d265 7b3c d140 b53b bd0b e9be e6c6 523e
00000110: 44aa a83d 368d 4fbe 4a4f a23d db31 08be
00000120: d970 1d3a e314 14bb ada7 bf3e d985 423e
00000130: 8781 1f3c 9db3 343c 9567 10bc b14d 313c
00000140: ed25 dbbb 51e4 3a3a e5e6 893e 9170 2e3d
00000150: 6de4 643c c874 0a3c 0795 aebd eebe 703e
00000160: 95b0 2dbc a93f 2bbc f786 7bbb 0b72 2239
00000170: 0818 2f3c 9703 ce3a e8b7 6f3c 28ab 9a3a
00000180: 8ce0 e0bc 0439 883e e01b 003b 3f59 9d3e
00000190: 6d3a f23b 1bb4 153b 723b 5dbe 2823 e4be
000001a0: 38d1 85be aaa6 0cbe b11e f6bb 96f3 9b3d
000001b0: 4fd3 333e d528 413e c848 0dbe e85a 62bc
000001c0: f607 b3bb a0cc 1b3c 75b4 53bb 37b1 a03b
000001d0: ac23 2fbe a3c5 49be 7be1 6c3e 257c 843d
000001e0: 30df d8ba 7928 11bc 0bf5 243c 247a 323a
000001f0: f51d b8be 63f5 abbd 239b 633d 480e 9bbe
00000200: 63cb b2bb d232 333e 1aa4 1d3d bfed 7ebe
00000210: bbd2 af3c 3139 12be 2148 e83e bb23 293e
00000220: e03f 9ebb 7bc5 c5bb 0650 89bc 1bbd 59be
00000230: 29c8 113e 7f9f 333e 21c6 8cbc 5709 0f3b
0.033109225 -0.3140672 -0.051709883 -0.07526961 0.003974531 0.017777331 -0.04784388 -0.15967299
-0.2512925 -0.19780762 -0.011178941 0.045554884 0.13348818 -0.0020489658 -0.26820463 0.32711497
-0.003556226 0.017578276 0.12505318 0.15751381 -0.0021706354 -0.008708462 4.9090067e-06 -0.0021488753
-0.17717154 -0.2965398 0.09116168 -0.3139374 -0.013640614 -0.010100773 -0.011237803 0.038439736
-0.022802226 -0.22013916 -0.14848809 -0.13658804 0.0029028726 -0.0193556 0.0048286403 -0.09921402
-0.0036938814 0.036792886 0.0044738315 -0.01399875 -0.026619997 0.2697509 -0.02515927 -0.21487424
-0.067005016 -0.28078452 0.05192086 -0.2481149 0.19324726 0.1589161 0.010053706 0.0046286457
-0.0012011089 0.0037141338 0.040795743 -0.22653729 -0.109256506 -0.3213122 0.13804288 -0.040484153
0.0153441 0.0055314084 -0.45516768 0.20583686 0.082356006 -0.20268711 0.079252794 -0.13300268
0.00060058903 -0.0022595457 0.37432614 0.18996371 0.009735472 0.011029151 -0.008813758 0.010821746
-0.0066878707 0.0007129359 0.2693397 0.04258782 0.013970477 0.008450694 -0.085245185 0.23510334
-0.0106011825 -0.0104521895 -0.0038380006 0.00015492008 0.010686882 0.0015717623 0.014631249 0.0011800276
-0.027450822 0.26606 0.0019547865 0.30732152 0.007392219 0.0022842947 -0.21604708 -0.44558072
-0.26136184 -0.13735452 -0.007510983 0.0761482 0.17561077 0.18863232 -0.13797295 -0.013815619
-0.0054635955 0.009509236 -0.0032303606 0.004903938 -0.17103451 -0.19704299 0.23132889 0.06468991
-0.0016546007 -0.008859747 0.010068188 0.00068083615 -0.35960355 -0.08396413 0.05556787 -0.30284333
-0.0054563745 0.17499855 0.038486578 -0.2489538 0.021462789 -0.1427963 0.4536753 0.16517536
-0.004829392 -0.0060355044 -0.016761791 -0.21263544 0.14236511 0.17541312 -0.017184319 0.0021825635

embedding.bias f4 [72]
00000000: 29c7 853d 936f 04be 7d67 27bd 711a 033b
00000010: 49cb 653d eec2 28bd 1bc0 aa3d 6460 2b3d
00000020: f797 88bd 233b ea3c aad0 d63c 732d 0cbd
00000030: e907 c7bd d8f4 773d fdf0 323d 5884 48bd
00000040: 03f6 163d cb89 a43d 7457 873c be94 9d3d
00000050: 0b96 bebc 8aff 233d d421 99bd d2da 543c
00000060: 0643 183c 094c 9c3d d571 f63c 9444 f1b9
00000070: 9bb4 7a3d 75c0 a1bd 39be a9bd 0611 d13c
00000080: 937d 793c 8476 0ebd 1722 72bd 1490 113e
00000090: e85c 7b3d f3f9 823c 8812 833d 4571 083c
000000a0: ef0c 723d b546 50bd 9c7f be3d 4fa2 fc3a
000000b0: bc52 90bc f551 2c3d 1bb8 e2bd c9f4 7b3d
000000c0: 7667 4ebd 69d8 a5bd 3244 1e3b cb7a fa3c
000000d0: dd21 153e e3d2 8abd 7065 7e3d c486 e6bd
000000e0: 5e70 49bd f304 17bd 362b 373c a108 7f3d
000000f0: 0038 903d e0d2 45bd 0be9 f93c 63a6 f13d
00000100: 5b5a 9bbd eb3c 393d 00c2 043e cca7 f6bc
00000110: 104e 773d 0fcc 19bd ef1d 7dbd 707b cfbd
0.065321274 -0.12933187 -0.04087018 0.0020004774 0.05610207 -0.041201524 0.083374225 0.041839972
-0.0666961 0.028592652 0.026222546 -0.03422303 -0.097183056 0.060536236 0.043686856 -0.048954338
0.03685571 0.080340944 0.016521193 0.07694386 -0.023264905 0.040038623 -0.07477155 0.012991624
0.009293323 0.0763169 0.030083576 -0.00046018197 0.061207395 -0.078980364 -0.08288235 0.025520813
0.015227693 -0.034780994 -0.05911454 0.14215118 0.0613679 0.015988326 0.06400019 0.008327787
0.059094366 -0.05084868 0.09301683 0.0019274446 -0.017617576 0.042070348 -0.110702716 0.061512742
-0.050391637 -0.080979176 0.0024149534 0.03057613 0.14563699 -0.06778505 0.062108457 -0.11256173
-0.049179427 -0.036869954 0.011179736 0.06226409 0.07041931 -0.04829681 0.030506631 0.11799314
-0.07585593 0.04522411 0.1296463 -0.030109309 0.06037718 -0.03754812 -0.061796125 -0.10130966

LGEBs.0.phi_e.0.weight f4 [72, 146]
00000000: c606 f53d 251a d93d f942 5f3b 7325 ec3d
00000010: dff1 cf3c b7fd debd 434c 5d3d 1d92 d4bd
00000020: 5d76 a9bd e43a 86bd b257 14bc 41bb fc3c
00000030: 8f9b 013e 762e 0b3e c56c b3bc 5be5 dcbd
00000040: 56d1 d33d f168 aa3d d50e 5d3d e5de e53d
00000050: 9249 f3bd 5cbb 173d e29e f6bd 31e8 ef3d
00000060: 335d ef3d f96a e23d 6432 91bd 4bcf e6bc
00000070: 22b9 46bd 3560 0a3e 1bb7 f33d 246b 923d
00000080: 93ec 77bd 24ee 8bbd f67a ff3d 8711 de3d
00000090: 51f5 8b3d e3c8 ccbc ce9a b8bc 4545 42bd
000000a0: f620 d6bc 1dd3 993c 298d 553d 42e4 fcbd
000000b0: 46c8 6dbc c073 24bc 747f d13c 6abc 0e3c
000000c0: 7f46 f2bd c0d0 0cbe a471 023d ad44 023e
000000d0: d10a 173d 1ebf fcbd 6154 a8bd d612 37bd
000000e0: 4d95 a43c 08f0 83bc 1932 cd3d db05 0fbd
000000f0: 98f9 2b3a ebaf 11bd de1a 733c e880 e43d
00000100: f821 00be 0778 d63d 8bc3 f33d f5c1 8cbc
00000110: 7ee0 b53d 457b d93d 36f6 c7bd 6652 3bbd
00000120: 2274 f93d 87ee 123e a4af 42bd 8c65 343e
00000130: caeb 153e 1d3b 93bd 19cd 8dbd ca7a 2abd
00000140: debd bebd 2560 2ebe d46a fabc 2b2b 4bbc
00000150: 673f 203e 58b4 da3d 411a a7bd ca28 d6bd
00000160: f4cd 0f3e 5d13 203e fe34 a13d f20e fb3d
00000170: 6359 a8bd 03dd 513c fb80 d0bd 3163 1d3e
00000180: 2807 2d3e 3904 973d 0f34 2dbe e896 1d3b
00000190: 44be 09bd 152e c63d db3d 183e 227f 9abd
000001a0: 8f23 ca3c 7f0d b43c 6f1d b53d fb16 453d
000001b0: 2bac 053c 9344 25be 8262 89bc 42b3 2d3b
000001c0: 9848 d03c 2616 e6bd c867 a7bc c14b 96bd
000001d0: 8507 303c 72c6 233d d01a f43c 6a45 c0bb
000001e0: 1692 e4bd cde9 d7bd 87e7 cebd a702 193e
000001f0: 74d4 1f3e 3791 c3bd 33a1 3abe 56d7 d03d
00000200: 8f42 3b3d 19b5 2e3d 063d 323e 969c 1abe
00000210: d857 823d cf08 ba39 7467 0e3e f967 bc3d
00000220: 4636 f0bd 0514 e43d 8b6e d33d 4ea7 13be
00000230: 9391 e13d cccb 063e 6add 22be ccd7 91bd
00000240: 7890 cbbd c89b 103d d1ba 1e3d 2b66 a23d
00000250: ae6d 3bbd 8626 9e3d 2d71 0e3e f9af e43c
00000260: f397 08be ddc1 fc3c af30 8ebb 2f98 cabd
00000270: 3288 4bbd 1f76 04be ad2a bd3d 3410 cf3c
00000280: f850 06bb bd50 2dbd eee5 bf3c 9e5e 023e
00000290: 8dd4 d2bc 66cd 913c 4ccd b23c 3511 c83c
000002a0: 521c 64bd 0ade 863d eaae 993d 0121 cf3c
000002b0: 3a78 fbbd 91c7 9e3d 5c53 9b3d 05d1 033d
000002c0: 85f7 a43d 8934 d6bd a25d 8cbc b50a e03d
000002d0: a4df d83c 77fd e3bc f157 093d 87ac 47be
000002e0: caba 383c 5388 bcbd f32d bfbd 7357 26be
000002f0: 8ab8 9b3d ac6e adbc 90bd ef3d 7817 373c
00000300: bccc a7bd ed36 5d3d f8c8 9ebc a08d 10bd
00000310: 8f17 b5bd 874a c83d 2839 373e 5d35 0cbd
00000320: e959 e8bd a4a4 0e3e 8cf1 0abe 2001 be3a
00000330: 4853 0b3e 7348 35be ab62 1f3c 640c ee3c
00000340: 472f 2c3e c79e c43c d020 32bd 7f79 473b
00000350: 5a76 833c 3c2f 53be a4b5 27bc 4a4e 093d
00000360: b468 d2bd 9afb a83c bad5 d93d 5aaf 323e
00000370: 8065 2a3d 8787 443e b035 453e 75ae 38bb
00000380: af0f 05be 7855 ca3c e97f ed3b 0cc3 41be
00000390: 5b43 abbd 402f d0bd 3ae2 673e 1646 913d
000003a0: 9e20 b6bd 5dd3 84bd c8a8 f23d 6c2e 423e
000003b0: e1e5 25bd bbb0 c13d 609e 2bbc ab89 d0bc
000003c0: 8b57 b0bd 42f1 3f3e 21f1 483e 701e 3d3d
000003d0: cbed 46be 8069 9b3d 7ce6 d93c ac98 a43d
000003e0: b680 2c3e c914 0fbe ea6d a03b 70fd c13d
000003f0: 4086 453d 31b7 a9bb df04 a03d 6e64 50be
0.119641826 0.1060069 0.0034067018 0.1153058 0.025383888 -0.10888236 0.054027807 -0.103794314
-0.08274529 -0.06554201 -0.009054111 0.030851008 0.12656997 0.13591942 -0.021902451 -0.107859336
0.10342662 0.08320797 0.053969223 0.112241544 -0.11879267 0.037043914 -0.12042023 0.11714209
0.11687698 0.1105556 -0.070896894 -0.028175017 -0.0485164 0.13513263 0.11900159 0.07149342
-0.06052835 -0.06832531 0.12474625 0.10843187 0.068339 -0.024998134 -0.022534754 -0.04742934
-0.026138764 0.018777424 0.052136574 -0.12348224 -0.014513081 -0.010037363 0.02557347 0.008711914
-0.11829852 -0.13751507 0.031846657 0.1272151 0.03687555 -0.1234114 -0.08219219 -0.044695698
0.020090723 -0.016105667 0.10019321 -0.034917694 0.00065603247 -0.03556816 0.014837949 0.111573994
-0.12512958 0.10472112 0.11902531 -0.01718233 0.08880709 0.10619215 -0.09763758 -0.04573288
0.12180354 0.14348803 -0.047530785 0.17616862 0.14640728 -0.07189009 -0.06923885 -0.041621007
-0.09313558 -0.17028864 -0.030568518 -0.012400429 0.15649186 0.10678929 -0.081593044 -0.10456999
0.14043409 0.15632387 0.078714356 0.1225871 -0.08220174 0.012809041 -0.10180851 0.1536987
0.16897261 0.07373852 -0.1691439 0.0024046246 -0.033628717 0.09676758 0.14867346 -0.0754378
0.024675159 0.021979092 0.08843505 0.04811762 0.008158724 -0.1613944 -0.016770605 0.002650455
0.02542524 -0.11234693 -0.020435229 -0.07338668 0.01074398 0.039984174 0.029797941 -0.00586765
-0.11160676 -0.10542641 -0.10102754 0.14942418 0.15608388 -0.09549182 -0.18225555 0.10197322
0.045717772 0.042653177 0.17406091 -0.15098795 0.06364411 0.00035483247 0.13906652 0.09199519
-0.11729102 0.11136631 0.10323819 -0.1441929 0.11014094 0.1316368 -0.15904775 -0.07121238
-0.099396646 0.035304815 0.03875238 0.07929643 -0.045758896 0.077221915 0.1391036 0.027915942
-0.13339214 0.03085416 -0.0043392996 -0.09892308 -0.049690433 -0.12935685 0.092366554 0.025276281
-0.0020495038 -0.042313326 0.023425069 0.12731406 -0.025736118 0.017798137 0.021826409 0.024422267
-0.05569107 0.06585319 0.07504065 0.025284292 -0.12278791 0.07752908 0.07584259 0.03218176
0.08055023 -0.10459239 -0.017134491 0.10939542 0.026473828 -0.027830822 0.033531133 -0.19499408
0.011275003 -0.09205689 -0.09334936 -0.16244297 0.076035574 -0.021170937 0.11706078 0.011175029
-0.08193347 0.05400746 -0.019382939 -0.035291314 -0.08842384 0.0977984 0.17892897 -0.03423058
-0.11345274 0.13929993 -0.13568705 0.0014496185 0.13605988 -0.17703418 0.009728114 0.029058643
0.1681491 0.024001492 -0.043488324 0.0030437408 0.016047645 -0.20623487 -0.010236178 0.033521928
-0.10273877 0.020627785 0.10636468 0.17449704 0.041600704 0.19192325 0.19258761 -0.0028180156
-0.12994264 0.024698958 0.007247914 -0.1892206 -0.083624564 -0.10165262 0.22644892 0.07093446
-0.0889294 -0.06485627 0.11848599 0.18963021 -0.040502433 0.09457537 -0.010474771 -0.02545627
-0.086104475 0.18744376 0.19623233 0.046171606 -0.19426648 0.07588482 0.026599161 0.08036932
0.16845974 -0.13972773 0.0048959153 0.094721675 0.048223734 -0.005179309 0.07813429 -0.20350811

LGEBs.0.phi_e.1.weight f4 [72]
00000000: 4177 3b3c 5319 773e ecec 1f3f 7386 613e
00000010: d88b 3c3e 6c69 f33c a4d2 cd3e b32a cd3e
00000020: 7ef4 d63e 66cb d83a 6ee5 973c 9505 ea3c
00000030: bb29 b33e 932a e13c 180f be3e 62ff 713e
00000040: b049 9d3e dc0a ad3c 21ab bfbb 9984 3f3f
00000050: 0ad7 ca3e dc4e cf3e c501 093f 07dc 343e
00000060: 39a4 bd3e 9756 c73e 1bdd 1d3f 23b7 853e
00000070: 547f 8a3e dcd7 d13e 0289 8a3e b473 5a3d
00000080: ab8d 0a3d 9457 473d f0c3 873e 4de9 d13e
00000090: 9beb 2e3e 054a 403d 9e51 943e edee ec3e
000000a0: 92e8 853d b0d8 c33d 7958 9c3e 3f31 9e3e
000000b0: 76a1 f73d 9dd8 5b3e e3f1 ab3e 896a 9e3e
000000c0: e2a2 173e 22fe 40ba 6fd9 203d cc7c 6b3f
000000d0: 15ce b83e 4f65 633d e036 193e 0f1b a73e
000000e0: e620 853e cc35 b43e e57a bb3e c63b d13e
000000f0: 553f b13e ea8e f73c c882 483d 789c 623e
00000100: d150 8a3e aa2b 183f 7829 ad3e a320 0b3e
00000110: 1510 eb3e c0ae f13e ed9e cd3e 46b3 bf3e
0.011442007 0.24130754 0.6247089 0.22023945 0.18412721 0.029713355 0.4019977 0.4007164
0.41983408 0.001654011 0.018542018 0.028567115 0.34992775 0.027486121 0.3712089 0.23632577
0.30720282 0.021123342 -0.0058492576 0.748117 0.39617187 0.40489852 0.53518325 0.17662059
0.37039354 0.3893325 0.61665505 0.26116285 0.2705027 0.40985 0.27057654 0.053333
0.03382651 0.048667505 0.26516676 0.40998307 0.17082064 0.04694559 0.2896852 0.46276036
0.065385 0.09562814 0.3053625 0.30896947 0.12091343 0.2146935 0.33582982 0.30940655
0.14808229 -0.00073620875 0.03926986 0.919873 0.36094728 0.055516537 0.1496234 0.32637832
0.26001662 0.35197294 0.366172 0.40865916 0.3461863 0.030219514 0.048952848 0.2213
0.27014783 0.59441626 0.338207 0.13586669 0.45910707 0.47203636 0.40160313 0.37441462

LGEBs.0.phi_e.1.bias f4 [72]
00000000: 8323 52bd 5e27 a3bd b3d0 f03c 7f7f 95bd
00000010: c92f 42bd 7494 87bd 14ae a13d 11b2 c03d
00000020: 24ae a53d 7491 43bd e325 84bd ada6 59bd
00000030: 953d abb9 7f25 37bd a340 b1bd 513f f2bd
00000040: 3bff aebd bc47 6bbd b809 3fbd b854 ca3b
00000050: 6103 9fbc 84f7 a8bc 4902 42bd 4425 d13a
00000060: 7061 7e3d eb87 963d 4d04 f0bb 75e5 ffbd
00000070: 6722 9b3c d92a a73d dad9 5ebd 37a4 97bd
00000080: 2b1c a6bd feea 52bd 946b 87bc ece6 b23d
00000090: fe15 a0bd cb5e 92bd 9562 d9bb 19ea f43d
000000a0: 45c8 8ebd cf6c f5bd 4578 6dbd 6e87 a53b
000000b0: dd94 08be bf57 dbbe 1968 e13b 648d 3ebe
000000c0: 8b50 46bd f373 acbd 8516 28bd 86a2 a53d
000000d0: b90a 6b3c eacb 31bd 345f 0cbe 3ef6 9fbc
000000e0: 9cab 85ba 528a e1bd d282 d03c 16a5 1f3a
000000f0: 93f0 20bd d243 7abd be47 bbbd 6bba 1abd
00000100: 1c4a db3b 25a5 eb3d fb60 0bbe 6a9e 8cbc
00000110: 2f65 b13d f9d3 b13d e0b2 323e af77 bc3b
-0.051303398 -0.07966493 0.02939639 -0.072997086 -0.047408853 -0.06620112 0.07894531 0.094089635
0.08089855 -0.047746137 -0.06452539 -0.05313747 -0.00032661544 -0.044713493 -0.086549066 -0.11828483
-0.08544775 -0.057441458 -0.046640128 0.00617465 -0.01941079 -0.020625837 -0.04736546 0.0015956541
0.062104642 0.07350143 -0.0073247314 -0.12494937 0.018937303 0.081624694 -0.05440698 -0.07404368
-0.08110841 -0.051493637 -0.01653079 0.08735451 -0.07816695 -0.071469866 -0.0066340663 0.11958713
-0.06971792 -0.11983644 -0.057976026 0.005051545 -0.13338037 -0.42840382 0.0068788645 -0.18608624
-0.048416656 -0.08420553 -0.0410371 0.080876395 0.014345818 -0.04340736 -0.13708192 -0.019526597
-0.0010198238 -0.11012711 0.025453005 0.00060899684 -0.03929193 -0.061099835 -0.09144543 -0.03777544
0.006692184 0.11506108 -0.13611214 -0.017165381 0.08661877 0.08683009 0.17451048 0.005751572

LGEBs.0.phi_e.1.running_mean f4 [72]
00000000: ab75 df3d c7c1 5f3d 9ad8 fcbd 2e23 a83d
00000010: 89ec cf3e d18e e23d 3b97 81bd 418f bebe
00000020: 1be8 d8be 9e0b 383e 8b0b a6bd 1381 cb3c
00000030: 45c9 813e f3a4 4a3d 4e79 c23e 0a2a 083f
00000040: bc67 973d 2649 963d e22f fb3d 5f18 64be
00000050: fc42 f5bd 160e e5bd 909c 25be 51d3 e33e
00000060: be89 8fbe 7950 c1bc 7805 aebe 4e0f 643e
00000070: 9a6c 0a3e cdea 043e 2210 af3e afe6 133b
00000080: ce30 f63c 5ff7 82bd e13d 38bd abf4 e1be
00000090: 49e2 223d 23f6 22bd 1f86 063f 696e a0be
000000a0: a597 203d e28d 8e3d 29c7 e33c 4d84 37be
000000b0: 27b7 3c3d a989 a83e 431f 383e 371a fc3e
000000c0: f727 5c3e 2723 273d 1d6d ca3d 5eff f6bb
000000d0: 3e3c abbe 1a49 463d 72bd d73b 4a55 0d3e
000000e0: 8e08 c73e 47f6 8f3e 6049 38be 2794 43be
000000f0: 28be c8be 5af8 6c3d 53da 183e 94d2 7f3d
00000100: d136 e33e d4a9 2e3e c2a5 103e b66b dd3d
00000110: 9ae2 d3be 0058 a9be 87d1 46be 5d42 1ebe
0.10911115 0.05462816 -0.12346001 0.08209835 0.4061015 0.11062396 -0.06327673 -0.3721867
-0.42364582 0.17973182 -0.081076704 0.02484182 0.2534887 0.049473714 0.37983173 0.53189147
0.07392833 0.07338171 0.12264992 -0.22274922 -0.11975667 -0.11184327 -0.16173005 0.4449716
-0.28034776 -0.023597943 -0.33988547 0.22271463 0.1351799 0.12980194 0.34191996 0.0022567918
0.030052569 -0.063948385 -0.044980887 -0.4413198 0.039766584 -0.039785516 0.525484 -0.31334236
0.03920712 0.06960656 0.027804928 -0.17921562 0.046073105 0.32917526 0.17980675 0.4923875
0.2149962 0.04080501 0.09884093 -0.0075377664 -0.334444 0.04840956 0.006583863 0.13802066
0.38873714 0.28117582 -0.1799674 -0.19099484 -0.39207578 0.057854034 0.14927034 0.062456682
0.4437776 0.17056972 0.14125732 0.1081156 -0.4138382 -0.3307495 -0.19415866 -0.15455003

LGEBs.0.phi_e.1.running_var f4 [72]
00000000: 8ee1 5e3d b186 3b3e 2223 553f a5d6 593e
00000010: a184 2f3e c9a6 c83c 7437 463f ef2f fc3e
00000020: 2398 0e3f b9aa d63d 3a09 d23c e9a1 843d
00000030: 2220 ea3d ade9 e53c 59b4 983e cd76 193e
00000040: 2ef9 b73d 3adc 753d 8f56 293d c9d5 4d3f
00000050: 513f 123e 8ed5 183e 32bc 263f 6fbd 333e
00000060: 9792 e13e bce1 233f cf33 f43e 7222 193e
00000070: e1c4 da3d d50b 303e f0af 9a3e 69e0 b43c
00000080: eac5 b63c b082 683b ede8 153e eb18 4d3f
00000090: 63d7 ed3d a287 4e3d 5da1 523e e38e 773e
000000a0: 2ee6 973c ec7e 003e d09b 033e 429c 123e
000000b0: 9488 7b3e 85c4 113f db15 233e 7a26 173e
000000c0: 4d2b 153e e165 9a3d b3b9 cd3c 71a2 593f
000000d0: 6590 fb3e 4b63 153c c547 323e cbd0 0e3e
000000e0: dfd7 2d3e 44fc 523f 4277 073e a665 2d3e
000000f0: 0ea7 703e fac4 ed3c 31f9 1b3e 5309 c53e
00000100: d03b 423e aaa9 5b3e f070 dd3e 9358 d83d
00000110: ee16 253f 2131 b73e 61ed 6e3e 073f 1c3e
0.054414324 0.183131 0.83256733 0.21273287 0.17140438 0.024493592 0.77428365 0.4925532
0.5570089 0.104817815 0.025639165 0.064761944 0.1143191 0.028065527 0.29825094 0.14986725
0.08983074 0.060024478 0.041342314 0.80404335 0.14281966 0.14925215 0.65130913 0.17552732
0.44057152 0.6401632 0.47695777 0.14954546 0.10682083 0.17192014 0.30212355 0.022079663
0.02231117 0.0035478286 0.14639635 0.80116147 0.116133474 0.05042232 0.20569368 0.241756
0.018542375 0.12548417 0.12852407 0.1431742 0.24563819 0.5694049 0.15926306 0.14760771
0.14567299 0.07538963 0.025112962 0.8501349 0.49133602 0.009117912 0.1741019 0.13946836
0.1697688 0.82416177 0.13229087 0.16933307 0.23501226 0.02902459 0.15231778 0.38483676
0.18968129 0.2145144 0.43250227 0.10563769 0.6448811 0.3577967 0.2333274 0.15258418

LGEBs.0.phi_e.3.weight f4 [72, 72]
00000000: 2976 973b 89b3 27bc 54fc 56bc 8e7e 87bb
00000010: 246b 863c 670a 063c 64ba e1bc eadc a53c
00000020: 5b2d 0a3c 9091 90bb b18e 36bc bf57 d9bd
00000030: fd43 e93b 421b e7bd 031a 8bbc cec0 80bc
00000040: afe6 7bbd 966b 12bd 013c 2aba d630 08bc
00000050: 2bef 023c 2295 32bd 4115 0cba 85e3 00bc
00000060: d8b6 11bc 9489 a2ba 8549 bebc f016 4a3c
00000070: af2e 0f3c 7d6e 373b b531 debb 6858 ecbb
00000080: d9ff ec3b a204 5d3c 4d48 a03c b37b cabc
00000090: f77f d0bb ce5e fd3b af04 41bd a6b7 47bc
000000a0: 0851 c13c 24c5 41bc 697b 9c3c 9b64 28bc
000000b0: 609a 023c 41c2 04bd a5ad 38bd 2365 54bc
000000c0: 6102 963c c6e3 a0ba f232 8e3c c8bd 50bc
000000d0: 1168 15bb 04bd 1aba e097 2ebc f2d8 3c3c
000000e0: 9ac1 da3b 4a78 8bbc 09fa e93a 044e 82bd
000000f0: e0ce 9d3c e8c8 c1bb 6b84 bf3b d0ba 403c
00000100: 523f 65bc 6acd 89bb 461a 86bc 984a 363c
00000110: 4e95 92bc 4653 62bc 8cee 31bd 8396 18bd
00000120: 6418 093b fbac a13b 571e 6bbc 9430 d7bb
00000130: 1778 74bc e67e a7bb 3775 e0bc 2283 89bb
00000140: 8a74 32bd f5fc cabc b5e4 fcbb 899e 8b3b
00000150: 0ab5 ef3a 16c6 fc3a b706 cc3b 67d5 3ebb
00000160: 10e9 ccba a8d4 a4bb c47f 91ba ffe8 013c
00000170: 4a13 783b 39c5 813b 372b 88bc f1fe 44bc
00000180: 5f0a 87bc 4408 293a 0d2d ba3b a060 5b3c
00000190: 1900 17bc efa5 0f3c 6e74 85bb c679 753a
000001a0: bfc6 85bc 2e4c a6bb afc4 0dbc e609 c5bc
000001b0: 8af6 693b 3b89 5a3c 52db 9cbb b2fc 81bc
000001c0: 9d5c 9ebc 56ab 82bb 4e96 d6bc c1a3 343c
000001d0: 55cc babb 224c 1ebb 57c8 c7bc e850 5cbc
000001e0: 6627 2b3c d63d 32bb 9027 6dba 1172 79bc
000001f0: 1b23 513c c6f9 dfbc 098a 43bb 4e48 b8bb
00000200: 4909 ce3b 4e8f 1fbc 39ae 463a 0d59 e03b
00000210: 7b2b 573c c8d6 2c39 283c abbc e647 0bbc
00000220: 5f44 6abc 3aa8 8bbc ba75 edbc b20d 2abd
00000230: 536a 3abc ad0e 2e3c e398 1fbc 4bfc 1f3c
00000240: dde4 963c c9d9 a0bc 7034 0e3c f2c8 ecba
00000250: 3e6e c93b 3ace 78bc ed58 0abc 2579 913b
00000260: 52ca e6bb 35e8 163c 4098 393c d7f1 c8ba
00000270: 42e3 c839 38be 5c3b 64f8 3dbc ab9a 6b3b
00000280: 983d 98bc 77fc dcbb 5d95 99bc 9fd9 42bc
00000290: d7b2 82bc 6e4b 563c 79fb 163c d47b a9bc
000002a0: 82f1 28bb 6e55 acbb 2246 873b 5a26 213c
000002b0: f746 abbb 91c6 0c3c 9706 073c 1679 923a
000002c0: 9970 13bc ac25 24bc e144 91bc af2b dbbb
000002d0: 7e15 86bc 5348 4fbc 7d17 83bc 60da ec3a
000002e0: 1ab9 30bc d48f 6ebc d847 803a cb52 9dba
000002f0: 5037 89ba e089 84bc e85f 3a3c f737 053c
00000300: 5264 15bb 073d 71bc f9e0 02bc d3b2 1dbc
00000310: ca81 f63b 2ce7 cbba a82a 513c 7e0d 63bc
00000320: 9225 553c 848d 51bc 134d 453c 255e 243c
00000330: e91c 8fbc 8fb8 93bc 2ad3 b1bb e6f4 363c
00000340: c19e bcbc 6eff 853c 5a47 5dbc 6d00 ce39
00000350: 6fe7 5e3b a99b f53b 4faa 36bc 08c1 c33b
00000360: 0e0f 3bbc 436d d23b 2339 d43c 8f95 79bc
00000370: ba05 40bb 7f7e fdba 6f3b 27bc fde5 3abc
00000380: cdcd e4bb f428 bbbc 613d acbc d947 83bc
00000390: d1e2 203c aef6 8dbc 1546 1ebd ab68 a23b
000003a0: 1536 36bc ec13 3fbc ed73 4cbc 1fb8 f83b
000003b0: 6aef d1bb 7123 02bc f308 803b 63ff c9bb
000003c0: ab7c 3abc 98b0 1b3b 164e 203c 0b21 a1bb
000003d0: 2408 efbc a9e9 9cbc a846 cabc 2d75 de3a
000003e0: ef3c 95bb 6036 b8bc 6075 1fbd f6eb 9dbc
000003f0: ff87 95bc d839 26bb 7067 53b9 0c2d 0e3c
0.00462224 -0.010235676 -0.013121683 -0.0041349595 0.01640851 0.008181191 -0.027554698 0.020246942
0.008433665 -0.0044118837 -0.011142419 -0.10612439 0.0071187005 -0.11284496 -0.016980177 -0.015716936
-0.061499294 -0.035747133 -0.00064939266 -0.008312425 0.007991592 -0.043599255 -0.0005343743 -0.007866745
-0.008893691 -0.0012400621 -0.023228416 0.01233457 0.008739158 0.002798944 -0.006780828 -0.0072126873
0.007232648 0.013489874 0.019565726 -0.024717188 -0.006362911 0.007732249 -0.047123607 -0.012189781
0.023598209 -0.011826787 0.019101815 -0.010277892 0.007971376 -0.032411817 -0.045087475 -0.012963566
0.018311681 -0.0012274913 0.017358277 -0.01274056 -0.0022797624 -0.00059027993 -0.010656327 0.011526333
0.006675911 -0.017025132 0.0017851006 -0.063625365 0.019263685 -0.0059138425 0.005844643 0.01176329
-0.0139921475 -0.0042053955 -0.01636995 0.011126183 -0.01789346 -0.013813799 -0.043440387 -0.037252914
0.002091908 0.004933951 -0.014350495 -0.0065670703 -0.01492121 -0.005111563 -0.027399642 -0.0041965405
-0.04356817 -0.024778822 -0.0077176937 0.004260842 0.0018288207 0.0019285108 0.0062263864 -0.0029118897
-0.0015633423 -0.0050302334 -0.0011100699 0.007929086 0.0037853294 0.0039602784 -0.016622169 -0.012023673
-0.016484438 0.000644807 0.00568164 0.013389736 -0.009216332 0.008767589 -0.0040727174 0.0009364154
-0.016330121 -0.0050749993 -0.00865285 -0.024052572 0.0035699927 0.013338382 -0.004786887 -0.015867565
-0.01933127 -0.00398771 -0.026194718 0.01102537 -0.005700628 -0.0024154265 -0.024387522 -0.013447024
0.010446405 -0.0027197502 -0.0009046728 -0.015224949 0.012764717 -0.027340781 -0.0029836914 -0.0056238538
0.006287728 -0.009738756 0.0007579062 0.006846553 0.013132925 0.0001648321 -0.020902708 -0.008501029
-0.0142985275 -0.01704799 -0.0289868 -0.041516967 -0.011377889 0.010623616 -0.009741041 0.009764741
0.018419677 -0.019635098 0.008679494 -0.0018065257 0.006147175 -0.015185887 -0.008444053 0.0044394904
-0.0070431614 0.009210636 0.011327803 -0.0015330863 0.00038316293 0.0033682715 -0.0115948655 0.0035950344
-0.018584058 -0.0067439633 -0.01874798 -0.011892705 -0.015954418 0.013079507 0.009215229 -0.020688929
-0.0025778715 -0.0052592074 0.0041282335 0.009835804 -0.0052269655 0.008592264 0.008241317 0.0011175002
-0.008999013 -0.010018747 -0.01773304 -0.006688557 -0.01636767 -0.012651521 -0.016002411 0.0018070452
-0.010786319 -0.0145606585 0.0009787036 -0.0012002824 -0.0010468755 -0.016179025 0.011375405 0.008131019
-0.0022795391 -0.014724023 -0.007988208 -0.009625155 0.0075227963 -0.0015556565 0.012766518 -0.013858197
0.013009446 -0.012790088 0.012042302 0.010032211 -0.01746984 -0.01803234 -0.005426784 0.011166787
-0.023024919 0.01635715 -0.013505781 0.000392917 0.0034012457 0.007495363 -0.011149003 0.005973939
-0.011417164 0.0064217164 0.025906151 -0.015233411 -0.0029300288 -0.0019340067 -0.010207041 -0.011407373
-0.006982541 -0.022846676 -0.021025361 -0.01602547 0.009819702 -0.01732954 -0.038641054 0.004956325
-0.011121293 -0.011662465 -0.012478811 0.0075903083 -0.006406714 -0.00794302 0.003907317 -0.0061644777
-0.011382262 0.002375638 0.009784242 -0.004917269 -0.029178686 -0.019154387 -0.024691895 0.0016972177
-0.004554383 -0.022486866 -0.038930297 -0.019277554 -0.018253325 -0.0025364067 -0.00020161062 0.008677732

LGEBs.0.phi_e.3.bias f4 [72]
00000000: ae92 2bbc 5761 61bc 109b 9fbc f6ed 3abd
00000010: 0538 833e fe9c d13d 4ca7 00bd c159 59bc
00000020: aa3d 253e 8d17 b13b c2e7 4c3d 22ad 22be
00000030: 3aea 223e 9180 cfbd 9491 95be d3f0 9fbb
00000040: 06e3 a1bb e208 1b3a 25b4 d9bb 7e7a a63e
00000050: 5465 d4bc 43da 8dbd 0fa3 583e aaec a6bc
00000060: 67f1 223e 2ed7 b83e 104f a7bc 645a abba
00000070: 1150 41bc c02b f4bc d93f 113b 4753 42bd
00000080: c23b 30bd 2065 abbc 9e6a e9bd 4991 15bc
00000090: 3ca2 b3ba 839e 51bd 383b 31bc 259f e7bd
000000a0: eee5 88bd c7c6 40bc 9c82 f7bc cc84 81bb
000000b0: cbbf ab3c 0bf1 8fbd 4d92 80be 13bc c63d
000000c0: bc64 353c 02a2 c5bd 69ca 75bc 76be e4bc
000000d0: 0f6a a1bd 5c0a d7bc a523 75bc c8af 95bc
000000e0: 2da1 9cbe e5dc 07bd d405 5abc 692e 9a3e
000000f0: 0088 dabc 5e0d 84bc 6382 f6bb 0a24 8cb8
00000100: 5d88 00bc 126f 64be 6c9c 07be 43fa 813c
00000110: f8db ed3d 3953 89bc 18ad 273b 054d 18bc
-0.010471983 -0.013756118 -0.01948312 -0.045637093 0.25628677 0.10235022 -0.031409547 -0.013266028
0.16136804 0.005404419 0.05002571 -0.15886357 0.15909663 -0.10131944 -0.2921263 -0.0048810034
-0.0049403934 0.00059141044 -0.0066437894 0.3251533 -0.025927223 -0.06926396 0.21155952 -0.020376522
0.159124 0.3610167 -0.020423442 -0.0013073203 -0.0117988745 -0.029806018 0.00221633 -0.0474427
-0.04302574 -0.020922244 -0.11397289 -0.009128877 -0.0013704966 -0.05117656 -0.0108173415 -0.11309651
-0.066844806 -0.011766142 -0.030213647 -0.003952598 0.020965477 -0.07028397 -0.2511162 0.09703841
0.01107138 -0.09650041 -0.015001872 -0.02792285 -0.07881557 -0.026250057 -0.014962112 -0.018272296
-0.30591717 -0.033169646 -0.013307054 0.30113533 -0.026676178 -0.016119655 -0.0075228675 -6.682433e-05
-0.007845012 -0.22307995 -0.13243264 0.015866404 0.11614221 -0.016763316 0.002558535 -0.009295707

LGEBs.0.phi_h.0.weight f4 [72, 146]
00000000: 0831 183e ba89 71be 7998 c0be 94c7 6cbe
00000010: 6eaf a5be 40bd 27be 8885 a43e f769 cdbe
00000020: b47a 333c a0cb 893e ccc5 883e 4ac5 ebbe
00000030: b742 97be 4c5d 753e 3546 6a3c 832c 30be
00000040: 3a25 bb3d ba43 9dbe 61ab 193e 280b 663d
00000050: f4dc 7fbe f642 9cbd 9ff3 7bbe c2d5 6ebe
00000060: 05c1 69be 2d63 a43e edd4 a93e 058b c3be
00000070: 59b0 8a3d 0cc4 993e 8fd8 42be e549 a83e
00000080: a625 443c 4ab3 d9be 7013 b13e 2ff6 9f3e
00000090: c120 d0be 5eb4 b73e 5800 9a3c d314 7e3e
000000a0: eba2 7dbe 74f3 aa3e e360 a53e 14c7 cebe
000000b0: 4860 053d 8932 2d3d 9788 963d a59e 043d
000000c0: 24cf 22be feda 48be 84b5 703e 5472 77be
000000d0: 5984 b9be e816 37be 0ad6 ab3e e514 abbe
000000e0: fd15 a33e 2355 033b 6301 acbe 77b3 a93e
000000f0: 60b2 5d3e 7463 87bd 84ba b2be 04d3 a63e
00000100: 87b7 19be 7ee7 8d3e f631 ab3e 1d5c b63e
00000110: c005 9bbd f3ee 9f3d a677 963e d8a8 7abd
00000120: e510 36ba fd18 df3b f5b2 6e3c 2ef1 2bb8
00000130: 7cdc a43e 4ebf 20bd 5255 b83b 97c4 63bb
00000140: 4f47 4b3d f859 413d 9715 853d a4a4 f23d
00000150: 11ba 92bc 6245 04be 5274 a43d 3205 5e3a
00000160: ccb9 ebbb 09bb fabb 506c 543b 210e 163d
00000170: 65f9 173c 0b7f 07be cdc0 55bc 8730 813c
00000180: 0d21 aabd 3ce9 edbd 7e1a 223c bd4d 45bb
00000190: 4512 4dbc 11ef 56bb 916a 893a 8687 383d
000001a0: 5848 b63d 163d 273c 0840 05be 99af 943b
000001b0: 2dbf 883b d976 a33c 9dfc b23b 8b2f db3d
000001c0: 5ef4 0dbc 9df1 27bc 9904 47bc 6a92 2f3c
000001d0: 3e9e a3bb 53c4 023c eb4b a53d c02c 2a3d
000001e0: 7623 163e 56ae 4bbd b83c cc3b 6891 c73a
000001f0: 598d e73d acb7 95bb 5a9c a83b 6d3d d9ba
00000200: f20d 2a3c de68 02bc 318b 4bbb bc1b 18be
00000210: bb27 54bc 78e8 043c 5a17 f5bb 3b60 843b
00000220: 19ec 4a3c 90a7 f2bd 3081 66bc 9596 713e
00000230: 8009 66bd 8d89 273b fc33 f53b c60f 6dbc
00000240: e9ca c73e ad2f c03d 40a0 183e ee5f c43c
00000250: ebee 5dbe 0794 403c ed4d 8ebd 3e45 2fbe
00000260: 47f9 ba3d 8cd1 20be 0768 02be 4c9b af3c
00000270: ad8d b43d b75e 53bd 3994 743c c738 343e
00000280: 7b82 983d b31f 44be 763d 953d c99f 90bc
00000290: ed9e ba3d 9c91 a53d 4c44 39be 5dab b13d
000002a0: 84bb 3bbe 33cf 953b 9764 2d3c 97e8 3a3e
000002b0: bb41 de3c 8891 4bbe c251 0cbe 057c 3b3e
000002c0: 8420 383d fff2 983d baa6 243d aec1 ffbd
000002d0: 3d0e 353e f606 153e 3dbf f4bd 0d00 603d
000002e0: 2adb 213d 510b fd3b cb66 29bc 03ee 983d
000002f0: 1488 c7bc 5cef 3cbe 86a6 d2bd 702f da3d
00000300: 0160 053e a922 2fbe 6e57 29be a5b3 55be
00000310: fbe8 5b3d 4904 523d c077 4dbd a379 30be
00000320: 5741 043d 4b4f acbd bde6 483d cb08 ddbc
00000330: 6d69 50bc 10e0 6b3d def8 6ebd cbf8 fbbb
00000340: ac10 75bd 9157 363e 046e 0abe 57fd 443e
00000350: ca20 353e 10da 8a3d 6f07 a83d da28 c73d
00000360: dd7a 993c e01d 10be 600f 013d c5a6 493c
00000370: 187e 38bc 1042 a63c 0b0d 8d3c 1308 073d
00000380: d334 e63b c94d 08bb a9a6 c1bb e9dd 1b3d
00000390: 156f c8bc 9bdf 45bd 86ac 05bd 1d77 3abc
000003a0: 9a40 cebd 25de ce3b 15b1 a8bc baf4 e3bb
000003b0: e42b 38bc bafe 07be 541d 00bc 6e5e 9cbb
000003c0: 3798 b4bd 3ef4 c5bb e2d3 0d3d 38de 5ebe
000003d0: 9d71 8a3d 25cb 503d 238c dc3b a848 6abd
000003e0: 7f7a a23b 68c5 053a 3561 e73d db03 17bc
000003f0: 4616 eb3c dcc9 173b 6163 713b 4521 e1bc
0.14862454 -0.23587695 -0.37616327 -0.23123008 -0.32360405 -0.16380787 0.32133126 -0.40119907
0.010954548 0.26913166 0.26713407 -0.46048957 -0.29543087 0.23961371 0.014298965 -0.1720448
0.0913796 -0.30715734 0.15006782 0.056162983 -0.2498663 -0.07629959 -0.24604653 -0.2332373
-0.22827537 0.32106915 0.33170262 -0.38192 0.06771917 0.30032384 -0.19027923 0.32868877
0.011971867 -0.425196 0.34585142 0.3124251 -0.4064999 0.35879797 0.018798992 0.24812631
-0.2476918 0.33388865 0.3230048 -0.4038626 0.032562524 0.042284522 0.07350271 0.032377858
-0.1589933 -0.19614789 0.23506743 -0.24164706 -0.36233786 -0.17879832 0.33561736 -0.3341438
0.31852713 0.002003976 -0.33594808 0.33144733 0.21650076 -0.06610766 -0.34907925 0.32582867
-0.15011416 0.27715677 0.33436555 0.35617152 -0.07569456 0.07809248 0.2938816 -0.06119618
-0.00069452665 0.0068083988 0.014569034 -4.0994193e-05 0.32199466 -0.039244942 0.0056254053 -0.0034754628
0.049628552 0.04720494 0.064982586 0.11847809 -0.017910989 -0.12917092 0.08029999 0.0008469402
-0.0071937796 -0.007651691 0.0032413192 0.036634568 0.009275769 -0.13232057 -0.013046456 0.01577021
-0.08307085 -0.116167516 0.009894012 -0.003010615 -0.012516563 -0.0032796303 0.001048403 0.04505112
0.08900517 0.010207435 -0.13012707 0.0045375344 0.0041731806 0.019954132 0.0054622428 0.107024275
-0.008664219 -0.010250476 -0.012147092 0.01071606 -0.004993229 0.007981378 0.08071121 0.041546583
0.14661965 -0.049726807 0.006232824 0.001522583 0.11306257 -0.0045690145 0.0051455917 -0.0016574092
0.010379301 -0.007959573 -0.0031058306 -0.1485433 -0.012948926 0.0081120655 -0.0074795904 0.004039792
0.012385392 -0.11848366 -0.014068887 0.23592599 -0.056161404 0.0025564164 0.0074830037 -0.014469093
0.39021996 0.093840934 0.1490488 0.023971524 -0.21673171 0.0117540425 -0.06948457 -0.17116258
0.09129577 -0.15704936 -0.12734996 0.021436356 0.08816085 -0.051604 0.014927917 0.17599784
0.07446762 -0.19152717 0.07287113 -0.017654316 0.09112344 0.080844134 -0.1809246 0.08675263
-0.1833325 0.004571819 0.0105830645 0.18252788 0.027130952 -0.19879735 -0.13703063 0.18309028
0.044952884 0.07468223 0.040198065 -0.12488113 0.17681213 0.14553437 -0.11950538 0.05468755
0.03951565 0.0077222963 -0.010339449 0.07467272 -0.02435688 -0.18450683 -0.10285668 0.10653579
0.13024904 -0.17103066 -0.16537258 -0.2086931 0.053688984 0.051273618 -0.05016303 -0.172339
0.032288875 -0.084135614 0.049048174 -0.026981732 -0.012720448 0.05758673 -0.058342807 -0.0076895705
-0.059830353 0.17806841 -0.1351853 0.19237266 0.1768829 0.06779873 0.08204543 0.09724589
0.018735344 -0.14073896 0.031508803 0.012307827 -0.011260532 0.020295173 0.017218133 0.032966685
0.00702534 -0.0020798317 -0.00590976 0.038053427 -0.02446703 -0.04830895 -0.032635234 -0.011380938
-0.100709155 0.006313103 -0.020592252 -0.006956664 -0.011240933 -0.13280764 -0.007819492 -0.004771999
-0.08818095 -0.006041079 0.034625895 -0.21764457 0.06759951 0.050974984 0.006730573 -0.057198197
0.0049584503 0.0005102963 0.11297838 -0.009217228 0.028697144 0.002316109 0.0036832916 -0.027481684

LGEBs.0.phi_h.0.bias f4 [72]
00000000: 6856 30bc cdb2 6fbb 932d 9fbb 6802 5fbc
00000010: 7c71 a63a f634 3a3b 23b4 103c a50a 0e3a
00000020: e3e7 9b3a c505 e8ba 78bb 0d3c 6aee 8cbb
00000030: fbd8 00bb 6199 87ba 257e 26bc 6ef7 c4bb
00000040: 015d 27bc 05f0 f7bb 11f0 fdba 9a99 1d3c
00000050: 0004 ac3b c32a f8bb 4ab8 ea3b 2942 43bc
00000060: 6a6b d4bb 493b 223c 5772 96bb 5a03 3c3c
00000070: 0993 f83b e812 de3b 59bc ac3b c2b4 173c
00000080: 8b38 533c 20c7 06bb c419 0a3c fac7 173c
00000090: 512b 45bc 9347 20bc d80e c2b9 162b f3ba
000000a0: 6c21 3eba 50b5 e8bb d510 0c3c dbcb 063b
000000b0: ac10 493b 2c78 eb3b 9005 ad3b f3c2 083c
000000c0: d6b7 663b a2ff 00bc 80ba 553c 22b7 c73a
000000d0: ce78 893b 2d28 d93b 0397 ad39 babe debb
000000e0: 8200 0cbc 0ddf af39 07fd f43b 014a 153c
000000f0: 14a1 16bc 7e53 713c 2bf3 2abc 33a0 4e3c
00000100: baeb 173c c715 073a 4b9e 253b 548e 883b
00000110: 80eb dd3b eafb 2c3c d903 1c3b e045 38bc
-0.010762788 -0.003657508 -0.004857728 -0.013611414 0.0012698616 0.0028412915 0.00883201 0.0005418456
0.0011894669 -0.0017701915 0.008650653 -0.004300882 -0.001966058 -0.0010345393 -0.010161911 -0.006010941
-0.010215045 -0.0075664544 -0.0019373914 0.009619141 0.0052495003 -0.007573457 0.0071630822 -0.011917629
-0.0064825313 0.00990183 -0.004591267 0.011475408 0.0075858873 0.006777156 0.005271476 0.009259405
0.012891899 -0.0020565465 0.008428995 0.009263987 -0.012034253 -0.00978269 -0.00037013623 -0.0018552269
-0.0007252905 -0.0071016923 0.008548935 0.0020568285 0.0030680103 0.0071859565 0.005280204 0.008347261
0.003520479 -0.007873448 0.013044953 0.0015237073 0.0041953092 0.006627104 0.00033109644 -0.0067976387
-0.008545043 0.00033544787 0.0074764523 0.009111882 -0.009193677 0.014729379 -0.010433952 0.012611437
0.00927251 0.00051530864 0.0025271352 0.0041673575 0.0067724586 0.010558108 0.0023806004 -0.011247128

LGEBs.0.phi_h.1.weight f4 [72]
00000000: 3f00 1c3e f10f 173d 70f6 443d 262e a43e
00000010: bc15 123e f63e 443d 668f 9a3e 5094 0b3e
00000020: 1ab1 303e e917 903e ebcc f43d 9b1f 923c
00000030: ed3e 853d 1191 163e 1c27 583d b6d7 4b3d
00000040: 0e72 743d e494 593d 9397 073d 1b0d 91bb
00000050: 9514 353e b589 3f3e 1bcb 3d3d 26b3 453d
00000060: c631 3f3e a6ca 253d 7b89 ba3d 813e 163d
00000070: 035f 893d 23af dd3b ad70 213d f565 693c
00000080: 4fb9 883b dde4 743e de7f b33d 5f85 cb3e
00000090: 71d8 3b3d 27ec 083e f5f7 9b3e 39c9 a53b
000000a0: b737 af3c 97f2 873e e1d7 463e 5210 c13e
000000b0: 9ec4 ed3d a86e 1e3d 6939 5b3d 3a80 113c
000000c0: 6b39 f03d b8e3 f93a 819f 653e 80b8 613d
000000d0: 18c2 b53c 0729 053d eb4f b03d 9174 923e
000000e0: 774f 273e 3f16 3c3d 5c7f 81bb 3bb9 5c3e
000000f0: f43a 4a3c b088 a43e 4f7c 3c3e dd96 273d
00000100: 4765 173c 4773 1a3c b5b8 dc3c ac70 cb3c
00000110: b1f1 663c f49a e03d f9df 423c 1a46 7e3e
0.15234469 0.036880437 0.048086584 0.32066458 0.14266104 0.047911607 0.3018753 0.13630795
0.17255059 0.28143242 0.119531475 0.017837336 0.06506143 0.14703776 0.052771673 0.049766265
0.059679084 0.05312051 0.033103537 -0.004426611 0.17683633 0.18704875 0.046336275 0.048266552
0.18671331 0.040476464 0.091082536 0.036680702 0.06707575 0.0067652627 0.039414097 0.0142455
0.004172481 0.2391543 0.08764623 0.39750192 0.04586071 0.13371335 0.30462614 0.005059388
0.021388872 0.2655227 0.19418289 0.37707764 0.116097674 0.03867975 0.053521547 0.008880669
0.117297016 0.0019065058 0.22424127 0.055107594 0.022187278 0.03250983 0.08608993 0.28604558
0.16338907 0.045919653 -0.00395195 0.21555035 0.012343157 0.32135534 0.18406795 0.04091536
0.009240455 0.009426898 0.026943544 0.024834 0.01409571 0.10967055 0.01189422 0.24831429

LGEBs.0.phi_h.1.bias f4 [72]
00000000: 8a87 45bd 7d07 8fbd 0e8a a3bd 8eae bfbc
00000010: cbdd 1abd 7bb4 65bd ba30 a43d 7d72 16be
00000020: d97d b8bd 626d 57bd f2e7 debd f8fc e0bc
00000030: 9572 81bd 7dc2 88bc 9395 73bd c114 a5bd
00000040: fb12 a7bd 7b9a e8bd 55ba 82bd 6b71 a9bd
00000050: 87eb 4cbd 0484 133d 26ee 3ebd 4d67 bdbd
00000060: fc3a b9bd 7cae c3bd 36d8 acbd 142d a1bd
00000070: ab1c d6bd 4f68 69bd de8d a1bd 3bbe 04bd
00000080: 0201 edbc e5a4 b8bc 157f 14be cb6d 143e
00000090: 9e02 76bd 80a6 eabd 6e7e 19be a5be d3bc
000000a0: 8f9c c4bd 7568 fabd ee87 9dbd f35a cb3d
000000b0: 8d22 5cbe 510b 57bd d087 f8bd b9b8 91bd
000000c0: 36cc 23bc 15c3 abbd 2206 f63d 6180 d7bd
000000d0: fd38 9abd 36c6 9dbd f2bc c1bd 82df 12be
000000e0: ae24 44bd 9822 babd fe9e 1dbd 4b67 283d
000000f0: c88e 2cbd 9637 c7bd db70 03be c1f4 b6bd
00000100: c9d8 bbbd dd91 60bd 864f 8bbd 6971 75bd
00000110: 740c bfbd ecb2 8dbd e325 b9bd 3b04 c2bc
-0.048224963 -0.0698385 -0.07985316 -0.023398664 -0.037809175 -0.056080323 0.08017106 -0.14692111
-0.090083785 -0.05259455 -0.10884084 -0.027464375 -0.06320683 -0.016694302 -0.059468817 -0.08060599
-0.08157917 -0.1135759 -0.06383196 -0.08273586 -0.050029304 0.03601457 -0.046613835 -0.09248219
-0.090444535 -0.09554765 -0.084396765 -0.07869926 -0.10454687 -0.056984242 -0.07888387 -0.03240798
-0.028931145 -0.022539565 -0.14501603 0.14495008 -0.06006109 -0.114575386 -0.14989635 -0.025847742
-0.09600174 -0.12226955 -0.07691942 0.099294566 -0.21497555 -0.052501027 -0.12135279 -0.07115311
-0.009997418 -0.08386818 0.120128885 -0.10522533 -0.07530401 -0.07703821 -0.094598666 -0.14343074
-0.047886543 -0.090886295 -0.038481705 0.041114133 -0.042128354 -0.09727399 -0.1283602 -0.08933402
-0.09172208 -0.054826606 -0.06802277 -0.05992261 -0.09328547 -0.06918892 -0.090404294 -0.023683658

LGEBs.0.phi_h.1.running_mean f4 [72]
00000000: ba79 3040 c15b 0a3f 3450 1cbe f35f 37c0
00000010: b0a0 ebbf 79a2 22bd 9a0f 9cbf 327b 93bf
00000020: c419 4ebf 8fa2 a9bf d977 0340 4e00 d3bd
00000030: fd63 29be ce72 45c0 6bad 02be f5ca aabd
00000040: 48fa 20be 857b 043f aed5 a53e 3828 b1be
00000050: 8231 91bf ac05 84bf 0f0e 62bd 5100 f1bd
00000060: 0bc1 f3be c9ad b5bd b59c dfbf 62e3 553e
00000070: b03e acbe 7d1b a4bd 7e36 d83d 4054 a4bd
00000080: 6b37 86be d907 003f ac53 b0bd 71cf eabf
00000090: 2f7e e53d bbd4 bc3e f03b 293f 7971 0fbd
000000a0: dce1 76be a4d2 e7be a9d4 2540 dcbd 6040
000000b0: a68a 963d f552 0ebf 374c 33bf 1810 8b3f
000000c0: 8cb5 a93e a728 18bc 00fd 8c3d 91b8 133f
000000d0: edc9 e3be c30f de3f fadf e1be e6cf 94bf
000000e0: 0cb0 96be a1f8 8c3e dbb1 88bf f08e 7dbf
000000f0: 1156 20be 304c e63e e955 ed3e 7237 a538
00000100: 7d9c 3cbf 2eea df3a a100 f03d b5c7 453e
00000110: e8ce 7dbf b192 c3bf de8c ffbc 843d a63d
2.7574296 0.54046255 -0.1526497 -2.8652313 -1.8408413 -0.039705727 -1.2192261 -1.1521971
-0.80508065 -1.3252734 2.05419 -0.103027925 -0.16542049 -3.0851321 -0.12761466 -0.08339492
-0.15720475 0.51750976 0.32389587 -0.34600997 -1.1343234 -1.0314231 -0.05518919 -0.117676385
-0.47608218 -0.088710375 -1.7469698 0.20887521 -0.33641577 -0.080130555 0.105572686 -0.08023882
-0.26214156 0.50011975 -0.08609709 -1.8344556 0.11205708 0.3688105 0.6610708 -0.035020325
-0.24109596 -0.45277894 2.5911047 3.511588 0.07350664 -0.5559533 -0.7003817 1.0864286
0.33146322 -0.009287036 0.068841934 0.577035 -0.44489995 1.734856 -0.44116193 -1.1625946
-0.29431188 0.2753344 -1.0679277 -0.9904623 -0.15657832 0.4498 0.46354607 7.8781406e-05
-0.7367628 0.0017083341 0.1171887 0.19314463 -0.9914384 -1.5279142 -0.0311951 0.08117202

LGEBs.0.phi_h.1.running_var f4 [72]
00000000: ee20 0f3f 4c26 913e e727 0f3e c7fc 843f
00000010: 9d53 3b3f 3fd0 da3c 7100 da3f 0967 283f
00000020: 6f09 ef3f 1b95 1040 e9b1 af3e 880a 8d3e
00000030: 1aa1 683d 454e b33f d0ed a83e 263c ee3c
00000040: b6f9 803e 64b3 d23e 9dbd c83d 31c7 f13e
00000050: 6da1 133f a836 713f afbc 7d3e 28da e63d
00000060: dd0f 8c3f 0313 273e 356e e63e 276b 293e
00000070: c9cc 4b3e edcc f53c c5c1 b73d 609d a23e
00000080: 5f0a 733e 7ce9 863f a3bb f03e b5b2 3840
00000090: afed 413d 01d0 903f 390e 1640 d83e 603e
000000a0: 7322 f73d e405 0740 36d1 ec3e 39b6 933f
000000b0: 91fd 863e 363a 8d3e 54b0 503f f795 353e
000000c0: 9bb5 073f d908 d73d ad3e 7c3f 8505 ef3e
000000d0: f91f 143e 9db2 7b3f d2f9 cf3e 003b 1a40
000000e0: ec56 283f 747b d93e 6d41 e23f b465 5d3f
000000f0: 6e23 e63e b225 513f cb57 2a3f 6163 9b3e
00000100: 2156 393e b598 b13d e79b f53d ca2f d83d
00000110: 3947 943e 8a97 a83e ef24 ad3d 5ab7 e43f
0.5590962 0.2834953 0.13980065 1.0389642 0.7317446 0.026710628 1.7031385 0.6578222
1.8674754 2.2591007 0.34315422 0.27547097 0.056794263 1.4008261 0.32993937 0.029081415
0.25190514 0.4115249 0.09801791 0.47222283 0.5766819 0.94224024 0.24779008 0.11272079
1.0942341 0.16315846 0.45005956 0.16544782 0.19902338 0.030004943 0.089725055 0.31760693
0.23734425 1.0540004 0.47018155 2.8859074 0.047345813 1.1313478 2.344618 0.21898973
0.120671175 2.1097345 0.46253365 1.1539985 0.2636533 0.27583474 0.81519055 0.17732988
0.5301148 0.104997344 0.98533136 0.466839 0.14465322 0.9831942 0.40620285 2.409851
0.6575763 0.42477 1.7676216 0.8648331 0.44948906 0.81698143 0.6654021 0.30349258
0.18099262 0.08671705 0.11992627 0.1055599 0.2896059 0.32928115 0.0845431 1.7868454

LGEBs.0.phi_h.3.weight f4 [72, 72]
00000000: 63d5 99bc ca33 273d a66a 713c 5f48 8a3d
00000010: 3847 bebd e78e 6d3b 7655 4c3c 754e ea3d
00000020: d5b5 34be 5352 6fbe e414 293e d018 dc3c
00000030: eb09 16bb 5931 61be 6d69 033c 9dc5 723c
00000040: f5c2 86bc 81ae 30bd fedc 56bc 2f12 62bc
00000050: ce96 40bc bb6b 22bc 72e5 2b3d c495 803c
00000060: 78ab da3a e932 72bc a70c e7bd 994d fc3b
00000070: 469f 0fbd 1cd7 223c e0f6 e43b 1c8d 80bd
00000080: 5564 9f3d 9e98 f1ba 5068 53bd 8000 fd3d
00000090: dee7 e1bc fcfb 1a3c d5ea 5b3c f5f4 043c
000000a0: fdaf c63c 9ac4 53be 1af8 2cbd 875a d13d
000000b0: 8b06 1cbe df34 af3b ad7d 593d fa12 a83c
000000c0: e25b a63c f0d0 353c 2912 973d 1e01 8fbd
000000d0: fd8e 0d3d 2560 98bd 09a8 2dbe 9437 58be
000000e0: de1e 7dbd 6251 52bd 8f3e 42bd f31c 10be
000000f0: a98c 313d d771 a93e 6d69 0e3e 7c16 30bd
00000100: b71b 0e3d 0460 14bc f37b 03bd a278 583a
00000110: c805 c53c 7ab3 efbd 1f7d fa3b 8fac 4abe
00000120: 8c64 f1bb 93f4 323c 96d6 6c3c 5989 8bbc
00000130: 74f4 9bbd 9dfb e0bb 2199 92bc 035e 273e
00000140: 139b 0bbd 56e5 51be 72b2 573e d4de 953c
00000150: e754 543b ee30 67bc 4a1e 14bd e547 5bbb
00000160: c947 c53c 59e6 18bd 697b 6fbc 8aaf 073d
00000170: 2d27 e8ba ece4 423d 527e 88bc df31 4d3b
00000180: f03a 803b de05 23bb 10c5 013e c4e7 b8ba
00000190: 3e35 2fbd fb84 eeba 286f 8e3c f185 043d
000001a0: e4a7 12bd da0d 4f3e cf61 22bc 9c5d d8bb
000001b0: acf8 6ebc 60ba e63d 2ea6 c4bd cef2 a8bc
000001c0: fc12 e9bc 7e0d 70be 85a8 03bd cb9b 643d
000001d0: f067 9abe 20d0 9ebc 0c34 6abc 7611 37bc
000001e0: ba84 89bd 5879 b23c 3fd0 a7bd 57af 88bd
000001f0: 8aa4 a8bc e1a6 c53c 8f58 2cbd cd3b 38bc
00000200: ce41 273d e9f2 0f3d 1ab8 96bc f432 fc3d
00000210: c5d3 093c c996 c9bd c1a2 743c 9ebc da3c
00000220: 0257 3f3c d741 123d cdeb 973b 6524 353c
00000230: e840 dbbc 566c 133e 2b9a 71bc 1270 e3bc
00000240: fa41 febd 9922 cb3b 1107 a13d 2b47 dcbd
00000250: b8ef bf3d 4792 083c 6934 953d c782 563e
00000260: ea51 d43d 658e f0bc c118 b8bd 2319 8abb
00000270: 70e2 b2bc 864e 733c 60a5 0ebd 9ab3 673b
00000280: cc33 ffbb 7b70 973c 5065 a6bc 7d8f 673e
00000290: 6f79 103e b995 6a3e e164 823c 8452 9b3c
000002a0: f468 0a3e cb6f 473d b78b 993e d243 253d
000002b0: 3fc2 973d 32a0 9a3c 5aa3 a03c e6f9 c9bc
000002c0: 90bf 1d3c 804c 7fbe a36c cabc 4b9d 9fbe
000002d0: 7bf7 94bb 6115 bd3e a3e9 b0bd 7281 d3b9
000002e0: 83d8 f8bb 1670 50be 7caf 6abe 0e29 c8bd
000002f0: 3c2d 853e 0e5f 093c 82a7 3a3d c06f 48bd
00000300: b3d4 4fbe 1b2a aa3c dc2f 86bd 1c2e 6b3d
00000310: 2022 d43c f138 863c 7f8d da3c 5490 303e
00000320: e04c cebc fdde 113d c468 c6bd 867a 983e
00000330: 064f 273d 4969 93bd 6f0f 103e e4e8 a53d
00000340: 8299 29bd 2068 543a 308d c33c 9a88 593d
00000350: 6e05 483d 62ec a43e e789 5d3c 58c4 c3bd
00000360: 315d 95bd 854b ed3c 1752 8e3d 8c18 523c
00000370: cd9f 9dbc 5802 713c b544 17bd 6d09 09be
00000380: 3bdc 4b3e 2096 3fbe 15bb 0f3d c6fb 713c
00000390: 636d c63b 5ea5 bebd fb71 a6bb a317 c23b
000003a0: 3668 a1bc 8051 423d 8b5b b2bc 2c6d a83d
000003b0: ea63 193e a5db d0bd d396 943c 37d4 d33c
000003c0: 7ef7 493e 2102 54bc c93d 2f3e 947a 4abc
000003d0: 2ae6 c93d 1efb 483a a06f 45bc fbc0 f4bc
000003e0: 11ec 8abc 077c 963d 263e b3bc da9a b4ba
000003f0: c650 a53c 6fff 133e b4bb 0abe ef99 abbc
-0.018778509 0.040820874 0.0147349 0.06752085 -0.09290928 0.0036248507 0.012471547 0.11440746
-0.17647488 -0.23371248 0.16511875 0.0268673 -0.0022894095 -0.21991481 0.008020741 0.0148176225
-0.016450385 -0.04313517 -0.013114212 -0.013798281 -0.011754705 -0.00991338 0.041966863 0.015696414
0.0016683182 -0.014782646 -0.1128171 0.00769968 -0.035064004 0.009938981 0.0069874376 -0.062769145
0.07782809 -0.0018432324 -0.051613152 0.12353611 -0.027576383 0.009459492 0.013422688 0.008115043
0.02425384 -0.20680466 -0.042228796 0.10222345 -0.15236871 0.005346879 0.05309837 0.020516861
0.020307485 0.011097178 0.07376511 -0.06982635 0.034560192 -0.07440213 -0.16958632 -0.21114951
-0.061797015 -0.051347144 -0.04742294 -0.14073543 0.043347035 0.33094665 0.13907404 -0.042990193
0.0346944 -0.009056095 -0.03210063 0.0008257722 0.024050608 -0.11704154 0.00764431 -0.19792388
-0.0073667224 0.010922569 0.014455458 -0.017033266 -0.07614985 -0.006865932 -0.017895283 0.16344456
-0.034083437 -0.20497641 0.21064165 0.01829473 0.0032399239 -0.014110787 -0.0361617 -0.00334596
0.024082081 -0.03732905 -0.014616826 0.03312639 -0.0017711871 0.0475816 -0.016661797 0.0031310243
0.003913276 -0.0024875323 0.1267283 -0.0014107157 -0.042775385 -0.001819759 0.017386988 0.0323543
-0.035804644 0.20220128 -0.009911015 -0.006602956 -0.014585655 0.11266017 -0.09602009 -0.02062359
-0.028451435 -0.23442647 -0.032143135 0.05581264 -0.30157423 -0.019386351 -0.0142946355 -0.011173597
-0.06714769 0.021786377 -0.08194017 -0.066740684 -0.02058627 0.024127426 -0.042076644 -0.011244726
0.04083424 0.035143767 -0.018398333 0.12314406 0.008412306 -0.09843213 0.014931382 0.026701268
0.011678459 0.03570732 0.004636264 0.01105604 -0.026764348 0.14396796 -0.014746229 -0.0277634
-0.12414928 0.0061991927 0.07862676 -0.10755762 0.093718946 0.0083356565 0.07285387 0.20948325
0.10367186 -0.029364774 -0.089890964 -0.0042144223 -0.02183649 0.014850264 -0.034825683 0.0035354854
-0.007788157 0.018486252 -0.020311981 0.2261333 0.14108823 0.22908677 0.015917243 0.018960245
0.13516599 0.0486906 0.29989406 0.04034788 0.074100964 0.018875215 0.019609142 -0.024655294
0.009628192 -0.24931526 -0.024710005 -0.31174693 -0.0045461035 0.36930373 -0.08638313 -0.000403415
-0.0075941696 -0.20355257 -0.22918504 -0.097734556 0.26011074 0.008384479 0.045569904 -0.048934698
-0.20295982 0.02077203 -0.06552097 0.05741702 0.025895178 0.016384574 0.026678799 0.17242557
-0.025183141 0.03561305 -0.09687951 0.29780978 0.040846847 -0.07197816 0.14068387 0.08101061
-0.041406162 0.0008102674 0.023871034 0.05310879 0.048833303 0.32211596 0.013521648 -0.09558934
-0.072931655 0.028966675 0.06949251 0.012823235 -0.019241238 0.014710031 -0.03693076 -0.13382502
0.1990823 -0.18709612 0.035090525 0.0147695 0.0060555204 -0.09308885 -0.0050795055 0.005923228
-0.019703012 0.047441006 -0.021772167 0.08223948 0.1497952 -0.10198144 0.018138325 0.025858028
0.19723317 -0.012939961 0.17113413 -0.012358326 0.098583534 0.0007666814 -0.012050539 -0.029877177
-0.016958268 0.07347875 -0.02188022 -0.001377906 0.020180117 0.14452909 -0.13548166 -0.020947425

LGEBs.0.phi_h.3.bias f4 [72]
00000000: a419 fbbb 4bb4 f4bc 5ce5 553c f27d e2bb
00000010: b5c4 ab3c a37a c0bc 1e1c 6b3d c861 4dbd
00000020: 396a 89bb 3774 44bd ae80 d93c 72f0 06bd
00000030: 2342 c63c bf83 b2bc 1f1d 40bd 410d 2f3b
00000040: eaa2 673c 8c0d f73b 2b93 ff3c 7a75 a53c
00000050: b6c2 e93c 5856 a8bc 0e79 8fbc 2ba4 53bb
00000060: 2292 f93c 7687 93bc 2a05 f43c bd72 973c
00000070: 913a 0a3c 0ccb 86bc 8023 37bd 4876 1b3c
00000080: 1fda 3f3c 3005 253d 4f5f 2a3b d6a2 143d
00000090: 1dbc 19bd 3e89 2e3d dd0a 48bc ac65 163d
000000a0: b8e6 e7bb e2b2 fe3b 2ef9 f93c 8027 6cbd
000000b0: 1c09 133c b961 473d 6917 8abc 6c1b 573d
000000c0: 24e2 103d 7da8 8d3b 34c9 67bd 1388 33bc
000000d0: 4c3e 173d aed0 203b 1665 0dbc 9821 eb3b
000000e0: 8328 493d da5f 9fba bddf 96bc 00dd 2bbb
000000f0: 6314 2e3b 2069 a93c 8100 673c a3e2 a83c
00000100: 663b e9bb 3e83 7739 f674 853d a550 a03b
00000110: 3ea8 44bc 150f 173c f192 8ebb 2f19 c8bc
-0.0076629687 -0.029871127 0.013055172 -0.0069119865 0.02096782 -0.023495978 0.05739986 -0.05014208
-0.004193571 -0.047962394 0.026550617 -0.03294415 0.024201458 -0.021791337 -0.046902772 0.002671078
0.014137963 0.0075394567 0.031198105 0.020197619 0.028535228 -0.020548984 -0.017513778 -0.0032293897
0.03046519 -0.018008929 0.029787619 0.018487329 0.008436815 -0.016454242 -0.04471159 0.00948865
0.011709719 0.04028815 0.002599675 0.036288105 -0.037532914 0.042611353 -0.012209621 0.036718056
-0.0070770644 0.0077727893 0.030514326 -0.057654858 0.00897434 0.04867718 -0.016856866 0.052516386
0.035371915 0.004323064 -0.056588367 -0.010957736 0.036924645 0.0024538445 -0.008630058 0.0071756355
0.0491109 -0.0012159303 -0.018417234 -0.0026224256 0.0026562444 0.02068001 0.014099241 0.020615881
-0.0071176765 0.00023604647 0.06516449 0.004892426 -0.012003003 0.009219904 -0.004351013 -0.024426071
