data/LorentzNet_model_wReweighting_2023Mar02.pt (torch, 947588 bytes, 117 tensors)

embedding.weight f4 [72, 2]
-0.06830926 0.05458202 0.14431943 -0.2950778 -0.032492995 0.073786 -0.012857371 -0.00070903386
-0.05749503 -0.24049915 0.33952525 0.37194034 -0.23113096 -0.19951521 0.056835998 0.027225792
0.2999289 0.27881363 0.06302451 0.1592267 0.341897 -0.3522471 0.052620396 -0.23441114
-0.35680234 -0.37768117 -0.2973622 0.17645413 -0.00036189693 0.005594366 -0.13068937 0.19792627
0.27068412 0.11041842 -0.26713872 -0.2628316 0.33346254 0.41111565 -0.38023633 -0.3158325
-0.34468785 -0.33363402 0.028188964 -0.054154303 -0.05711288 -0.13043945 0.005048963 -0.013231007
0.39718375 0.15149258 0.35291415 -0.26381797 0.31165242 0.28737333 -0.38157487 -0.18464512
0.00094139396 6.334736e-05 -0.38417977 0.11274634 0.28383234 0.37227425 -0.45021373 0.107467465
0.063969724 0.2548858 0.015469407 0.0064778132 0.15386513 0.0074233743 -0.27502784 0.1817541
0.005285333 -0.007167139 -0.24175823 -0.02964191 0.095407926 -0.20029499 -0.012310809 0.0069941673
0.2891868 0.3955317 -0.045088805 0.2001941 0.04762811 -0.21124741 0.30592376 -0.31560358
0.05212327 0.024544844 -0.054005284 0.06766232 0.16281877 0.0071999696 0.014151998 -0.0071828854
0.011696966 -0.010190281 0.010484059 -0.01911481 0.1790419 0.2036596 0.11007158 -0.13148415
-0.3423041 -0.40942052 0.30311894 0.19412792 0.42192885 -0.28552714 -0.09088153 0.1599697
0.32802206 0.095320955 0.06780613 -0.021730416 -0.34884807 -0.37021562 -0.023247773 -0.09716602
0.005875019 0.00014300089 0.2548596 0.21728317 0.0064541213 0.0069649676 0.22260056 0.35257617
0.35900313 -0.03549187 -0.0049346373 0.012842518 -0.21997797 -0.08019303 0.33918417 0.3390382
-0.039919965 0.058630005 0.010050726 0.00016713979 -0.3498314 -0.2872634 -0.25990602 -0.04218453
00000000: bae5 8bbd 6591 5f3d 79c8 133e 7014 97be
00000010: 6017 05bd 1d1d 973d b9a7 52bc 75de 39ba
00000020: e97f 6bbd 6945 76be 41d6 ad3e f76e be3e
00000030: 98ad 6cbe b74d 4cbe ddcc 683d a008 df3c
00000040: 4890 993e a9c0 8e3e ff12 813d 530c 233e
00000050: 200d af3e bb59 b4be 7c88 573d 7909 70be
00000060: ccae b6be 6d5f c1be dc3f 98be 64b0 343e
00000070: fcbc bdb9 f250 b73b 6fd3 05be 2fad 4a3e
00000080: 1c97 8a3e 0d23 e23d 68c6 88be dd91 86be
00000090: 9abb aa3e c07d d23e 56ae c2be ccb4 a1be
000000a0: ed7a b0be 14d2 aabe 8bec e63c e7d0 5dbd
000000b0: 32ef 69bd eb91 05be c571 a53b dec6 58bc
000000c0: ab5b cb3e df20 1b3e 2ab1 b43e 2613 87be
000000d0: e890 9f3e 9922 933e c85d c3be 9c13 3dbe
000000e0: e1c7 763a 5bd9 8438 36b3 c4be 8ee7 e63d
000000f0: 7952 913e bb9a be3e 6a82 e6be e717 dc3d
00000100: 8f02 833d 6480 823e 6573 7d3c d643 d43b
00000110: d28e 1d3e c73f f33b 73d0 8cbe bf1d 3a3e
00000120: 9630 ad3b 52da eabb 788f 77be 97d3 f2bc
00000130: 3b65 c33d 211a 4dbe 47b3 49bc 542f e53b
00000140: 4b10 943e 2283 ca3e 0aaf 38bd afff 4c3e
00000150: b115 433d 3e51 58be 0aa2 9c3e cb96 a1be
00000160: 367f 553d 4512 c93c a534 5dbd 8b92 8a3d
00000170: f7b9 263e b9ed eb3b c8dd 673c 695e ebbb
00000180: a2a4 3f3c 23f5 26bc 55c5 2b3c a996 9cbc
00000190: c356 373e 248c 503e 356d e13d c8a3 06be
000001a0: 7c42 afbe 919f d1be 6832 9b3e 78c9 463e
000001b0: 0f07 d83e 9d30 92be 1820 babd 19cf 233e
000001c0: 82f2 a73e a237 c33d f1dd 8a3d fc03 b2bc
000001d0: 379c b2be e78c bdbe 1d72 bebc fafe c6bd
000001e0: 3b83 c03b 82f2 1539 f57c 823e 7b7f 5e3e
000001f0: 187d d33b 623a e43b 67f1 633e dd84 b43e
00000200: 42cf b73e ec5f 11bd bdb2 a1bb 6d69 523c
00000210: e841 61be 3e3c a4bd 8ca9 ad3e 6a96 ad3e
00000220: 1e83 23bd 0426 703d cdab 243c 3f42 2f39
00000230: 1a1d b3be 3014 93be 6712 85be b0c9 2cbd

embedding.bias f4 [72]
0.15232696 -0.025012393 -0.10123959 0.3035042 -0.0472721 0.07302077 0.25562328 -0.20662263
0.15354498 -0.08731432 -0.34261227 0.24544929 -0.26261348 -0.004765836 0.04057549 -0.16676478
0.17110002 0.23941517 -0.30684492 0.25734204 -0.1496998 0.081804015 0.30167776 0.32386065
-0.38558432 0.30102503 0.032127973 -0.12937824 0.090724446 0.10419217 -0.059512205 -0.11980697
0.14970165 -0.23578699 -0.20050971 0.23957793 0.27536142 0.3245562 0.16547847 -0.21140712
0.30131343 0.13081583 0.03488174 0.22364852 -0.26811972 -0.14421903 0.14549938 0.06883361
-0.2841892 0.10554367 0.24768287 -0.110880114 -0.13998364 0.07138152 0.1837414 -0.24857211
-0.20837526 0.14511666 0.21028416 -0.33377928 -0.053488653 0.07253362 0.11004493 0.114579886
0.16165039 0.23369823 0.23464257 -0.30705956 -0.10760823 0.06279612 -0.018936943 0.018323155
00000000: 99fb 1b3e cae6 ccbc b456 cfbd e764 9b3e
00000010: 64a0 41bd ea8b 953d 0ee1 823e e294 53be
00000020: e53a 1d3e dad1 b2bd e06a afbe 0f57 7b3e
00000030: 4675 86be bb2a 9cbb 7c32 263d 63c4 2abe
00000040: d834 2f3e 4029 753e c71a 9dbe 56c2 833e
00000050: e84a 19be dd88 a73d 8275 9a3e 10d1 a53e
00000060: 4f6b c5be f41f 9a3e 9f98 033d bb7b 04be
00000070: bdcd b93d b462 d53d 12c3 73bd 5b5d f5bd
00000080: 644b 193e 2572 71be 6b52 4dbe eb53 753e
00000090: 2cfc 8c3e 3b2c a63e 3073 293e 1c7b 58be
000000a0: c145 9a3e 96f4 053e 28e0 0e3d 1e04 653e
000000b0: fd46 89be 27ae 13be cafd 143e a3f8 8c3d
000000c0: 3f81 91be 4827 d83d 94a0 7d3e 1d15 e3bd
000000d0: df57 0fbe 7930 923d b526 3c3e b089 7ebe
000000e0: 5360 55be 7699 143e bb54 573e 1ee5 aabe
000000f0: eb16 5bbd 828c 943d 3c5f e13d dca8 ea3d
00000100: ae87 253e 974e 6f3e 2446 703e e936 9dbe
00000110: b461 dcbd 419b 803d a621 9bbc 711a 963c

LGEBs.0.phi_e.0.weight f4 [72, 146]
-0.09857453 0.115116194 -0.13019074 -0.04795355 0.11412754 -0.14306743 0.11140983 0.01878909
-0.07373191 -0.10099389 0.042255417 0.15423714 0.17105141 -0.074020796 0.013744868 -0.16344307
-0.077070154 0.089835346 -0.1584003 0.13982184 0.08135289 0.11325634 0.099257894 -0.028756622
-0.033655558 0.076448545 -0.10759012 0.06979924 -0.002912017 -0.043873046 -0.17112768 -0.035390954
-0.16335627 0.023816975 0.051337563 -0.035310898 0.0051746923 0.034097508 0.16580303 -0.09062131
-0.17602246 -0.16578639 0.16624 0.07186184 0.041998878 -0.11555782 0.03846599 -0.026289238
0.036353692 0.053949192 -0.05850098 0.10103575 0.18199885 -0.07351162 0.076582156 -0.12731801
-0.05564934 0.110299036 0.13531452 0.052388377 0.010566298 -0.06646983 0.07707013 -0.1861298
-0.023807624 -0.0072401506 0.07159939 -0.101717755 -0.12291067 -0.047699407 0.072685234 0.00895749
-0.23847742 0.24583638 -0.2412505 0.05839228 0.2286389 -0.22896188 0.20953926 -0.050599493
-0.17046295 -0.21546245 0.2551403 0.2835692 0.20480423 -0.20545565 -0.034978952 -0.25971398
-0.08466401 0.22890128 -0.23332934 0.2107501 0.20107594 0.22148691 0.24020666 0.010949597
-0.13170046 0.21323058 -0.23377758 0.12905295 0.09907553 -0.12666757 -0.2576721 -0.19197159
-0.27288255 -0.062227983 0.021359947 -0.25988638 0.014826116 -0.0320427 0.28808007 -0.057115365
-0.24893437 -0.2584019 0.2791883 0.2957822 -0.040873908 -0.24950078 0.040454254 -0.012474434
0.021777915 0.09149398 -0.2031044 0.23185813 0.22968534 -0.176707 0.2283428 -0.25928584
-0.03247235 0.15953997 0.23548748 0.19845913 -0.026470976 -0.19981517 -0.09299245 -0.22400506
0.11470135 -0.0583309 0.07082956 -0.24198338 -0.23691618 -0.0072012027 0.17591752 0.053384766
-0.31428885 0.19245447 -0.14630121 0.22784969 -0.19923523 -0.16513087 0.1347427 -0.025203628
-0.045846533 0.11048334 0.007175023 -0.08740493 0.22134204 0.28387728 0.017339867 -0.18490775
0.018550992 -0.24555197 0.068146996 -0.010953637 -0.058531724 -0.018377637 -0.024298478 0.13555542
0.05998754 0.03657167 0.04941703 0.20425944 -0.019884806 -0.04908351 -0.0026295919 -0.11432583
-0.034152012 -0.13395253 -0.21660037 0.03888801 0.11963673 -0.17272218 -0.03479174 -0.09562987
0.20729965 -0.055770207 -0.037301216 -0.2757462 0.2880929 0.23158345 0.06991773 -0.22901385
0.077786654 0.048426494 0.12332894 0.03884921 0.013885003 0.16079167 0.0075754453 0.06486765
0.21335846 -0.23325047 0.10217972 0.13466173 0.029356638 0.08133383 0.0009484153 -0.020742446
-0.009318418 -0.092198215 0.08898729 -0.09591261 -0.061217643 -0.0074845557 -0.17547247 0.012757021
0.016812673 -0.042136494 0.11358932 0.16725086 -0.20836613 0.3376642 0.4301241 -0.51716244
0.57435346 -0.5404972 -0.50586903 -0.4973534 -0.030023701 0.23230462 0.56005746 0.18897188
-0.19800098 -0.15555494 -0.5595742 0.5814793 -0.5519702 0.5855857 0.57038105 0.06671713
0.4635281 -0.07042692 -0.5076307 -0.08794409 -0.5635378 0.5745423 0.37388003 0.35198167
-0.51356596 0.34872356 -0.37321082 -0.3205439 -0.46796745 0.18081872 0.24426848 0.51170087
00000000: 71e1 c9bd 0ac2 eb3d b950 05be f16a 44bd
00000010: b3bb e93d 4580 12be d62a e43d 94eb 993c
00000020: c100 97bd e2d5 cebd 0414 2d3d 57f0 1d3e
00000030: 1a28 2f3e 3798 97bd 2832 613c 9f5d 27be
00000040: f5d6 9dbd 98fb b73d b033 22be 752d 0f3e
00000050: 589c a63d f1f2 e73d b947 cb3d 0293 ebbc
00000060: 69da 09bd 0e91 9c3d 3558 dcbd e7f2 8e3d
00000070: 8ad7 3ebb 39b4 33bd 183c 2fbe 1bf6 10bd
00000080: de46 27be d11b c33c 5647 523d 29a2 10bd
00000090: 7790 a93b d4a9 0b3d 45c8 293e aa97 b9bd
000000a0: 3b3f 34be e8c3 29be d23a 2a3e 4d2c 933d
000000b0: 0407 2c3d 94a9 ecbd 848e 1d3d 875c d7bc
000000c0: 9ce7 143d d4f9 5c3d b99e 6fbd d5eb ce3d
000000d0: e85d 3a3e 438d 96bd 1bd7 9c3d a75f 02be
000000e0: 90f0 63bd 76e4 e13d e48f 0a3e 3295 563d
000000f0: 441e 2d3c 5621 88bd f2d6 9d3d cf98 3ebe
00000100: 3508 c3bc c93e edbb b3a2 923d 6651 d0bd
00000110: 97b8 fbbd 7460 43bd ffdb 943d 70c2 123c
00000120: 6d33 74be 88bc 7b3e 5f0a 77be be2c 6f3d
00000130: 5120 6a3e fc74 6abe 7691 563e 6a41 4fbd
00000140: d78d 2ebe 30a2 5cbe c0a1 823e fb2f 913e
00000150: 33b8 513e f762 52be 1746 0fbd 3bf9 84be
00000160: 5364 adbd 1965 6a3e e3ed 6ebe e0ce 573e
00000170: dae6 4d3e 77cd 623e bcf8 753e f065 333c
00000180: 7cdc 06be 1e59 5a3e 6463 6fbe 7526 043e
00000190: 1de8 ca3d 25b5 01be 99ed 83be 3394 44be
000001a0: 43b7 8bbe c5e2 7ebd 0efb ae3c d40f 85be
000001b0: 3de9 723c 353f 03bd 3b7f 933e cdf1 69bd
000001c0: a7e8 7ebe 414d 84be c5f1 8e3e c470 973e
000001d0: 666b 27bd 227d 7fbe 5cb3 253d 9261 4cbc
000001e0: 9967 b23c 3261 bb3d 9afa 4fbe 386c 6d3e
000001f0: a232 6b3e aef2 34be b2d2 693e 1dc1 84be
00000200: ba01 05bd 725e 233e a123 713e df38 4b3e
00000210: a9d9 d8bc 599c 4cbe d372 bebd 9561 65be
00000220: 8be8 ea3d 62ec 6ebd 170f 913d 7eca 77be
00000230: 289a 72be 11f8 ebbb b923 343e fca9 5a3d
00000240: 78ea a0be c912 453e fccf 15be 6e51 693e
00000250: 5204 4cbe 1118 29be fef9 093e d777 cebc
00000260: 93c9 3bbd 1745 e23d 751c eb3b 5b01 b3bd
00000270: 7da7 623e 5d58 913e 560c 8e3c 7558 3dbe
00000280: 40f8 973c fa71 7bbe a790 8b3d e276 33bc
00000290: f6be 6fbd b38c 96bc 9a0d c7bc 0acf 0a3e
000002a0: 7fb5 753d 2dcc 153d 8369 4a3d 6329 513e
000002b0: 76e5 a2bc ca0b 49bd 3b55 2cbb a923 eabd
000002c0: fbe2 0bbd da2a 09be 7dcc 5dbe 0949 1f3d
000002d0: 1a04 f53d 15de 30be c981 0ebd 98d9 c3bd
000002e0: 5c46 543e 4d6f 64bd 29c9 18bd 9b2e 8dbe
000002f0: ea80 933e 3624 6d3e 0731 8f3d 9b82 6abe
00000300: 9c4e 9f3d dc5a 463d e293 fc3d 5920 1f3d
00000310: ec7d 633c 92a6 243e 713b f83b 55d9 843d
00000320: a47a 5a3e 36d9 6ebe 9a43 d13d c4e4 093e
00000330: 557d f03c 5a92 a63d 139f 783a 10ec a9bc
00000340: 47ac 18bc 6bd2 bcbd f83e b63d d56d c4bd
00000350: 5abf 7abd 0141 f5bb 0eaf 33be d302 513c
00000360: bbba 893c 5197 2cbd 84a1 e83d cf43 2b3e
00000370: ee5d 55be 52e2 ac3e 3a39 dc3e c264 04bf
00000380: d408 133f 065e 0abf a280 01bf 1ba5 febe
00000390: 44f4 f5bc 43e1 6d3e ed5f 0f3f d881 413e
000003a0: c5c0 4abe cb49 1fbe 4140 0fbf d4db 143f
000003b0: eb4d 0dbf f2e8 153f 7e04 123f fea2 883d
000003c0: 8e53 ed3e fd3b 90bd 16f4 01bf 081c b4bd
000003d0: 0344 10bf 3415 133f 346d bf3e f136 b43e
000003e0: 0f79 03bf e58b b23e 7d15 bfbe 541e a4be
000003f0: 6e99 efbe 8b28 393e 8421 7a3e d4fe 023f

LGEBs.0.phi_e.1.weight f4 [72]
0.5162426 0.3995639 0.40539914 0.15555277 0.37701833 0.25331372 0.6475132 0.67235184
0.58819854 0.53960663 0.41575292 0.6189739 0.4734422 0.5752946 0.51642215 0.5867841
0.6591135 0.72554564 0.661003 0.6362845 0.67177844 0.46416232 0.5092221 0.5004745
0.30539465 0.6749578 0.40246588 0.3649452 0.38736615 0.6265217 0.3780347 0.58236957
0.5996991 0.6924258 0.6157443 0.038452215 0.5609411 0.4047708 0.39625576 0.2615371
0.49587357 0.35341132 0.5801641 0.5803747 0.33432305 0.74361825 0.5883837 0.6858529
0.5384447 0.6656782 0.673593 0.70219284 0.2967881 0.61645633 0.5416638 0.66680586
0.55855024 0.8221871 0.4198641 0.40846717 0.3851703 0.71179336 0.3671071 0.48021257
0.46544793 0.47700503 0.55979 0.52735144 0.5385899 0.26716942 0.4798616 0.09819383
00000000: 7a28 043f a493 cc3e 7a90 cf3e 3a49 1f3e
00000010: 8c08 c13e 56b2 813e 6dc3 253f 401f 2c3f
00000020: 2e94 163f a923 0a3f 91dd d43e 1375 1e3f
00000030: 0467 f23e 8246 133f 3e34 043f 7c37 163f
00000040: aabb 283f 5cbd 393f 7e37 293f 8ae3 223f
00000050: acf9 2b3f afa6 ed3e 615c 023f 191f 003f
00000060: b05c 9c3e 09ca 2c3f 0210 ce3e 19da ba3e
00000070: db54 c63e ba63 203f c48d c13e 2c16 153f
00000080: e185 193f d142 313f 6ba1 1d3f 1280 1d3d
00000090: d699 0f3f 1e3e cf3e 09e2 ca3e 31e8 853e
000000a0: 24e3 fd3e 54f2 b43e a285 143f 7093 143f
000000b0: 642c ab3e c45d 3e3f 50a0 163f 0e94 2f3f
000000c0: 83d7 093f e369 2a3f 9770 2c3f e9c2 333f
000000d0: 9cf4 973e 15d0 1d3f 7baa 0a3f cab3 2a3f
000000e0: 26fd 0e3f db7a 523f 6df8 d63e 9c22 d13e
000000f0: 0b35 c53e 1738 363f 76f5 bb3e 6cde f53e
00000100: 314f ee3e 013a f43e 664e 0f3f 8100 073f
00000110: 07e1 093f 6eca 883e 6bb0 f53e d919 c93d

LGEBs.0.phi_e.1.bias f4 [72]
0.02987056 0.11599841 -0.4728574 -0.03150356 0.05294532 -0.2454876 -0.017690087 0.039028127
0.11362172 -0.10265871 -0.1268185 0.115756154 0.0018364287 -0.19488773 -0.27438268 0.051723737
-0.14490435 -0.0005241459 -0.2575703 -0.13995388 0.029433448 -0.10174792 -0.23367114 -0.29841292
-0.05783725 -0.09578701 -0.07000857 -0.12299376 -0.36039525 -0.15028547 0.024715327 0.12067978
-0.041272417 -0.15882467 -0.13832815 -0.17939207 -0.2237278 -0.015439858 -0.07417285 -0.09008421
-0.040894747 -0.103779234 -0.03797471 -0.31023628 -0.12851307 0.026535815 -0.01443904 0.12569104
-0.4706074 -0.7466599 0.07963098 -0.47467017 -0.07706845 -0.07716042 -0.10041821 0.026865011
-0.007905917 0.051820606 -0.09209836 0.04302606 0.11985434 -0.22115624 -0.48368812 -0.09838255
0.088389635 -0.098905854 -0.3281462 -0.11859479 -0.115793474 -0.018215526 -0.3227878 -0.057955537
00000000: 1bb3 f43c 9390 ed3d 5d1a f2be e009 01bd
00000010: 31dd 583d 1a61 7bbe cdea 90bc f5db 1f3d
00000020: 81b2 e83d bb3e d2bd b5dc 01be 9011 ed3d
00000030: 52b4 f03a a690 47be e37b 8cbe 45dc 533d
00000040: ce61 14be d666 09ba 41e0 83be 1250 0fbe
00000050: 6a1e f13c 3761 d0bd 7d47 6fbe 94c9 98be
00000060: c1e6 6cbd fb2b c4bd a760 8fbd 27e4 fbbd
00000070: ba85 b8be 6fe4 19be cc77 ca3c f626 f73d
00000080: 440d 29bd efa2 22be e5a5 0dbe 8eb2 37be
00000090: e718 65be 75f7 7cbc efe7 97bd 127e b8bd
000000a0: 4081 27bd 358a d4bd 5f8b 1bbd 4ad7 9ebe
000000b0: ee98 03be a361 d93c b991 6cbc 27b5 003e
000000c0: 74f3 f0be 1a25 3fbf 9115 a33d f807 f3be
000000d0: 10d6 9dbd 4806 9ebd 10a8 cdbd 0314 dc3c
000000e0: d287 01bc d841 543d 119e bcbd 183c 303d
000000f0: 3176 f53d c876 62be f8a5 f7be ca7c c9bd
00000100: a005 b53d 278f cabd c702 a8be d3e1 f2bd
00000110: 2125 edbd ba38 95bc 7144 a5be c962 6dbd

LGEBs.0.phi_e.1.running_mean f4 [72]
0.44381043 0.63402945 -0.14689997 0.26908496 0.31037113 -0.6681103 0.36095577 0.37877756
0.12358275 0.45786682 0.17126906 0.008015392 0.25525823 -0.19619988 0.08144959 0.25197732
0.09126055 0.15232715 -0.22726122 -0.09994514 0.13462107 -0.063152336 0.004552069 0.025443673
-0.1648679 0.0018690994 -0.018494606 0.29778758 -0.27298835 -0.0140803475 -0.44785985 0.2473249
-0.0069881836 0.030522823 0.032051783 -0.11309716 0.27625284 -0.10081585 0.20114973 -0.09428294
0.33072066 0.13842072 -0.208775 0.1576369 0.09255719 -0.0868023 -0.31528968 -0.4658143
-0.2599684 -0.1540945 0.21215148 -0.14475784 0.17694232 -0.02320845 -0.17400032 -0.014858182
0.17359269 0.2318622 -0.17496388 -0.15357299 0.4099696 0.16179956 -0.2988436 -0.14650516
-0.5552263 0.21562263 0.048799366 0.0350961 0.11483311 -0.2167553 -0.20002757 -0.41836086
00000000: 1f3b e33e c14f 223f f26c 16be 81c5 893e
00000010: f7e8 9e3e 4709 2bbf 32cf b83e 22ef c13e
00000020: f418 fd3d 856d ea3e 2861 2f3e fe52 033c
00000030: 35b1 823e 9fe8 48be 0bcf a63d 2c03 813e
00000040: d0e6 ba3d a6fb 1b3e 2ab7 68be 0ab0 ccbd
00000050: 1bda 093e 0356 81bd 8629 953b 406f d03c
00000060: 21d3 28be 92fc f43a 0082 97bc 9d77 983e
00000070: 21c5 8bbe 42b1 66bc e34d e5be bd42 7d3e
00000080: 22fd e4bb 000b fa3c bb48 033d 7c9f e7bd
00000090: 0371 8d3e 8a78 cebd 32fa 4d3e 6a17 c1bd
000000a0: 3854 a93e 29be 0d3e 1dc9 55be 916b 213e
000000b0: a08e bd3d 67c5 b1bd a66d a1be 367f eebe
000000c0: 941a 85be f3ca 1dbe 3d3e 593e 663b 14be
000000d0: 5e30 353e a61f bebc 242d 32be bb6f 73bc
000000e0: 48c2 313e 496d 6d3e bb29 33be 3d42 1dbe
000000f0: 89e7 d13e c9ae 253e 0702 99be 7305 16be
00000100: 5023 0ebf 2ecc 5c3e d8e1 473d eec0 0f3d
00000110: 9f2d eb3d 1af5 5dbe 07d4 4cbe 6533 d6be

LGEBs.0.phi_e.1.running_var f4 [72]
0.16575842 0.62523586 0.16678207 0.18952031 0.2512455 0.77054244 0.20568205 0.18491489
0.3715904 0.23071952 0.1997965 0.24132477 0.25631797 0.7982223 0.11440888 0.19490738
0.1607193 0.30544013 0.1560623 0.25792038 0.17058155 0.33589345 0.11561742 0.11683951
0.2545454 0.32375097 0.3358021 0.20341724 0.17545274 0.17066826 0.3342889 0.29693088
0.17557138 0.15292303 0.18907084 0.12207953 0.15597542 0.18545745 0.22106887 0.2419012
0.17448345 0.19158468 0.11645547 0.10660889 0.013941828 0.7003295 0.27306345 0.75257605
0.18518138 0.4093258 0.19384333 1.1288315 0.35956445 0.31065527 0.33752316 0.2697081
0.21956521 0.17809485 0.27387866 0.21384174 0.68505293 0.16407382 0.20279114 0.32623553
0.4535819 0.21212003 0.09441297 0.14761783 0.15212409 0.32558107 0.21477437 0.31865484
00000000: 93bc 293e 750f 203f ebc8 2a3e 9d11 423e
00000010: 40a3 803e 4542 453f 519e 523e 545a 3d3e
00000020: 1941 be3e bd41 6c3e 7497 4c3e d71d 773e
00000030: 1c3c 833e 4c58 4c3f 344f ea3d cd95 473e
00000040: 9a93 243e a662 9c3e ccce 1f3e 240e 843e
00000050: eeac 2e3e 3afa ab3e d3c8 ec3d 8e49 ef3d
00000060: c653 823e b0c2 a53e 41ee ab3e 9c4c 503e
00000070: e2a9 333e a9c3 2e3e ea27 ab3e 5307 983e
00000080: fcc8 333e db97 1c3e c99b 413e d504 fa3d
00000090: 05b8 1f3e 8fe8 3d3e e15f 623e f3b4 773e
000000a0: caab 323e c62e 443e 3580 ee3d c355 da3d
000000b0: 446c 643c cb48 333f f9ce 8b3e d3a8 403f
000000c0: 30a0 3d3e 2793 d13e de7e 463e 8d7d 903f
000000d0: d518 b83e 350e 9f3e d6cf ac3e 2e17 8a3e
000000e0: b4d5 603e 7f5e 363e d339 8c3e 54f9 5a3e
000000f0: a15f 2f3f f802 283e 7ba8 4f3e 5808 a73e
00000100: e33b e83e fe35 593e 965b c13d 2129 173e
00000110: 6bc6 1b3e 90b2 a63e d0ed 5b3e ba26 a33e

LGEBs.0.phi_e.3.weight f4 [72, 72]
-0.14952615 -0.21953353 -0.059300233 0.14553507 -0.258726 0.040687345 0.019583492 0.15960768
0.1771064 -0.10842821 -0.3580808 0.031380463 -0.40500778 -0.011766897 -0.17122532 0.16813453
0.09485518 -0.59318995 0.09977483 0.16566874 0.21732105 0.20463328 -0.19583435 -0.105747476
-0.0029387316 0.058047935 0.14851674 0.012286863 -0.14439918 -0.048272 0.013920243 0.20660812
-0.078523204 0.035493713 0.1260095 -7.532105e-05 0.17919995 0.13925785 -0.15004764 0.124981314
0.044210847 -0.06950806 0.062578 -0.23624851 -0.020966487 -0.33427134 -0.0035997496 0.012386031
-0.08918949 0.21729985 0.2645349 0.10049533 0.038949065 0.13574892 -0.05068369 0.023073979
-0.002332086 0.2048161 0.09680262 -0.15989146 -0.361195 0.11508853 0.0024701213 0.08181047
-0.056547936 -0.1981924 -0.2348267 0.031542957 -0.27165195 -0.092997946 -0.013383222 0.042146143
-0.06496434 0.046161834 0.16170833 -0.15116037 0.25980365 0.19835941 -0.010187471 -0.21899742
-0.36936417 -0.68364096 0.12545948 0.34175235 -0.24112354 -0.23040213 -0.05714074 -0.27176535
0.12282334 -0.17521535 0.2719351 -0.0077337176 -0.2518317 -0.123524055 -0.02927989 -0.03138452
-0.2165064 -0.049447663 0.040140793 -0.039797764 0.30696866 0.27784216 -0.16082537 -0.3126351
-0.24262793 0.3105774 0.08781272 -0.21243218 0.02968344 0.087391354 -0.14187717 0.10412463
0.16255718 -0.03564743 0.14912264 0.006500377 0.021887576 -0.10543919 0.011815958 0.348217
0.09592747 0.14234766 -0.13540445 0.25247183 -0.012391379 0.0023741606 -0.27091056 0.31369886
-0.6439237 -0.24324039 -0.23786032 -0.09407242 -0.5023759 0.05683498 0.2038087 0.020172168
0.2303326 -0.13586137 0.056428257 0.03896945 -0.09965681 -0.021696636 0.24971461 0.088565834
-0.17446394 0.0050322474 -0.052927475 0.13606958 -0.015628984 -0.008107554 -0.18611902 0.22922975
-0.00835482 0.20065013 0.12539876 -0.08869815 -0.012354542 0.08112272 -0.25532222 0.26452625
0.07080141 -0.20747663 -0.054029226 0.17888418 0.20538662 0.1713603 -0.01217635 -0.21856508
0.1264972 0.20246652 0.13953309 -0.2209601 0.188984 -0.00926985 0.02546584 -0.01810025
0.32690823 0.061591532 0.20548052 0.034904435 -0.2307787 -0.022523614 -0.10849078 0.13339728
0.0006813316 -0.14879908 0.08248051 -0.10372025 0.037859067 -0.34145734 0.0974413 -0.36328363
-0.033695918 0.048590135 0.21213426 0.0064601875 0.10610456 0.19626397 0.041952424 -0.21928237
0.16646409 0.24331002 0.051084843 -0.19827814 0.024366604 -0.18212342 -0.06778854 0.1656103
-0.16194724 -0.07513848 -0.120225675 0.17903332 -0.049014013 -0.044564348 0.010217455 -0.04753158
-0.028694151 0.027981387 -0.036176205 -0.046811398 0.05903109 -0.057794213 -0.039585173 0.00062391243
-0.019251667 -0.016367722 -0.016712055 -0.0630366 -0.011893796 -0.0389752 0.018188836 0.021198448
-0.009544578 -0.0046881507 0.01753471 0.004105696 0.05931634 0.0261525 0.050354335 0.01507618
-0.054873567 0.034090754 -0.012665265 -0.04299516 0.026468454 0.04967581 0.0012000825 0.0042342176
-0.04667708 0.046194237 -0.065728255 0.0142831225 0.020342601 -0.03797524 -0.044664823 0.04061281
00000000: 621d 19be 66cd 60be cde4 72bd 2507 153e
00000010: bc77 84be c6a7 263d 8f6d a03c 3270 233e
00000020: 615b 353e 9c0f debd 5e56 b7be cd88 003d
00000030: 2e5d cfbe f1c9 40bc b155 2fbe 752b 2c3e
00000040: 6f43 c23d 4cdb 17bf bf56 cc3d 11a5 293e
00000050: 6989 5e3e 638b 513e cd88 48be 2292 d8bd
00000060: bc97 40bb acc3 6d3d c614 183e d74e 493c
00000070: 61dd 13be dcb8 45bd bb11 643c 1491 533e
00000080: c6d0 a0bd db61 113d a208 013e aef5 9db8
00000090: 3180 373e 9c99 0e3e 17a6 19be 34f6 ff3d
000000a0: 6f16 353d 3e5a 8ebd e528 803d 21eb 71be
000000b0: e9c1 abbc 9d25 abbe c7e9 6bbb c8ee 4a3c
000000c0: fba8 b6bd da83 5e3e 1e71 873e 7fd0 cd3d
000000d0: 0e89 1f3d c401 0b3e b399 4fbd a405 bd3c
000000e0: e9d5 18bb 50bb 513e 7440 c63d 96ba 23be
000000f0: 8dee b8be 89b3 eb3d c2e1 213b 3f8c a73d
00000100: cf9e 67bd f3f2 4abe 6976 70be 3033 013d
00000110: f715 8bbe b575 bebd 4d45 5bbc 6fa1 2c3d
00000120: 060c 85bd 3114 3d3d de96 253e c9c9 1abe
00000130: fc04 853e bb1e 4b3e 5ae9 26bc dc40 60be
00000140: 4d1d bdbe 1803 2fbf 7378 003e 2afa ae3e
00000150: 17e9 76be 89ee 6bbe 690c 6abd d424 8bbe
00000160: ce8a fb3d a76b 33be 143b 8b3e 206b fdbb
00000170: 16f0 80be 2efa fcbd 61dc efbc 0e8d 00bd
00000180: dbb3 5dbe a289 4abd ac6a 243d fb02 23bd
00000190: ff2a 9d3e 5441 8e3e 68af 24be b511 a0be
000001a0: 7573 78be 0004 9f3e 28d7 b33d d287 59be
000001b0: b02a f33c 3dfa b23d 4048 11be 4b3f d53d
000001c0: 6475 263e 0a03 12bd 9bb3 183e 1d01 d53b
000001d0: 934d b33c 81f0 d7bd b897 413c 8049 b23e
000001e0: 9f75 c43d 96c3 113e 77a7 0abe fd43 813e
000001f0: 3605 4bbc ce97 1b3b cab4 8abe 239d a03e
00000200: 2fd8 24bf 0214 79be a891 73be 0aa9 c0bd
00000210: b59b 00bf cccb 683d 3ab3 503e 1a40 a53c
00000220: 4fdc 6b3e 3e1f 0bbe 5121 673d 6e9e 1f3d
00000230: df18 ccbd 25bd b1bc 30b5 7f3e 0162 b53d
00000240: ada6 32be 8de5 a43b 7bca 58bd d355 0b3e
00000250: 5b08 80bc 8cd5 04bc fc95 3ebe 34bb 6a3e
00000260: a8e2 08bc 3a77 4d3e 8868 003e 60a7 b5bd
00000270: b46a 4abc ab23 a63d 98b9 82be fc6f 873e
00000280: 5400 913d c174 54be c04d 5dbd 6a2d 373e
00000290: df50 523e 1379 2f3e 507f 47bc 86cf 5fbe
000002a0: 7b88 013e 6253 4f3e c3e1 0e3e 5d43 62be
000002b0: 0685 413e 92e0 17bc bd9d d03c fa46 94bc
000002c0: 8460 a73e 6747 7c3d 7c69 523e f4f7 0e3d
000002d0: 4051 6cbe 7183 b8bc 6a30 debd 4c99 083e
000002e0: 649b 323a c95e 18be 8beb a83d 486b d4bd
000002f0: 1c12 1b3d 7fd3 aebe 4e8f c73d 5000 babe
00000300: bb04 0abd 7306 473d b939 593e fbaf d33b
00000310: 594d d93d 6cf9 483e 4ed6 2b3d 8f8b 60be
00000320: 9075 2a3e 4326 793e 573e 513d 6d09 4bbe
00000330: 799c c73c 907e 3abe b8d4 8abd bf95 293e
00000340: 7fd5 25be 34e2 99bd e138 f6bd 8354 373e
00000350: ebc2 48bd 1b89 36bd 1d67 273c 79b0 42bd
00000360: ff0f ebbc 3939 e53c 802d 14bd 4fbd 3fbd
00000370: 96ca 713d a0b9 6cbd 1024 22bd 0e8e 233a
00000380: acb5 9dbc 9a15 86bc b8e7 88bc 5519 81bd
00000390: 32de 42bc 76a4 1fbd c100 953c 5ea8 ad3c
000003a0: dd60 1cbc 0f9f 99bb f4a4 8f3c 1389 863b
000003b0: b1f5 723d c53d d63c 5940 4e3d 1502 773c
000003c0: 1bc3 60bd bfa2 0b3d f981 4fbc b11b 30bd
000003d0: 5fd4 d83c dd78 4b3d 164c 9d3a 31bf 8a3b
000003e0: 7730 3fbd 2b36 3d3d 899c 86bd c203 6a3c
000003f0: 87a5 a63c ed8b 1bbd 76f2 36bd 9e59 263d

LGEBs.0.phi_e.3.bias f4 [72]
-0.18512638 -0.12913091 -0.06193337 -0.03490451 -0.009719357 -0.05502772 0.33357677 -0.44871685
-0.16622017 -0.08623657 -0.21587819 -0.17712753 -0.0023603223 -0.029425714 -0.12589133 -0.011260386
0.118035585 -0.01429532 -0.106127195 -0.029132236 -0.011327009 -0.050017886 -0.03256141 -0.060874548
-0.25882474 0.08190732 -0.15073071 0.31648222 -0.01749568 -0.075799994 0.35371307 -0.057914168
-0.078196 -0.3394552 -0.089380205 -0.0104185045 -0.20114689 -0.026836919 0.0038318427 -0.02075852
0.03508953 -0.28778365 -0.028420432 -0.12089621 -0.1962061 0.18002401 0.2410529 -0.1300763
-0.29347077 -0.22329499 -0.27715334 0.18655825 0.18111123 0.073044166 0.06359264 -0.088074505
0.04776633 0.063582994 0.0011692422 -0.04451142 0.055309117 -0.07702531 0.11046158 0.011475491
-0.2606872 -0.10659249 0.003979661 -0.0128885545 -0.040903457 -0.06630526 0.25993782 -0.090961106
00000000: c591 3dbe e53a 04be d8ad 7dbd 08f8 0ebd
00000010: f03d 1fbc bf64 61bd 93ca aa3e 37be e5be
00000020: 9f35 2abe cc9c b0bd 2c0f 5dbe eb60 35be
00000030: a3af 1abb 320e f1bc a8e9 00be 7b7d 38bc
00000040: a4bc f13d eb36 6abc 3759 d9bd baa6 eebc
00000050: eb94 39bc 8edf 4cbd 1d5f 05bd 9757 79bd
00000060: ad84 84be 06bf a73d 2759 1abe f509 a23e
00000070: 1a53 8fbc 073d 9bbd e119 b53e 6837 6dbd
00000080: 3925 a0bd 12cd adbe f80c b7bd 60b2 2abc
00000090: 73f9 4dbe 19d9 dbbc a71f 7b3b c60d aabc
000000a0: 0aba 0f3d 6158 93be f7d1 e8bc 6f98 f7bd
000000b0: 40ea 48be 3758 383e 92d6 763e b932 05be
000000c0: cd41 96be 71a7 64be 0be7 8dbe 2009 3f3e
000000d0: 3975 393e 2e98 953d dc3c 823d 6860 b4bd
000000e0: a1a6 433d cd37 823d 4241 993a 9b51 36bd
000000f0: d08b 623d 72bf 9dbd ae39 e23d b303 3c3c
00000100: cb78 85be 2a4d dabd d167 823b 842a 53bc
00000110: 628a 27bd 0dcb 87bd 9216 853e d149 babd

LGEBs.0.phi_h.0.weight f4 [72, 146]
0.10460171 0.0067050178 -0.10292318 0.13178353 0.42525482 -0.27204335 0.24920167 -0.19427279
-0.2826039 -0.40130132 -0.08226014 0.061396662 0.3027424 0.10479118 -0.13266169 0.03277732
-0.2237803 0.26642054 -0.32707995 0.26271617 0.30732906 -0.03713048 0.38335478 0.15324134
-0.27798602 -0.10471409 -0.27348715 0.2643965 0.14748788 0.14719225 -0.34912217 0.17991066
-0.4888287 -0.18322136 -0.18520816 0.14954463 0.13293456 0.1958255 -0.037680138 -0.11413711
-0.3221217 -0.090171926 0.14066868 -0.06168274 -0.22499913 0.06993598 -0.2233877 -0.19869661
0.031348005 0.07026393 -0.34268734 -0.069951765 0.28479084 -0.2588597 -0.11891415 0.028428322
-0.19269206 -0.16536853 0.27934974 0.36599228 -0.15694763 -0.26698583 -0.12103143 -0.36653316
-0.16452421 -0.16938657 0.22325052 -0.31914568 0.045971677 -0.027348116 0.26139313 0.23745446
0.23020332 0.030071001 0.11798261 -0.020919297 -0.024971291 0.01218422 0.049328987 0.09124399
0.033976514 0.045375057 0.17733486 -0.047486447 -0.07763927 -0.025619587 0.05289106 0.022109667
0.11861536 -0.01506643 0.0016838247 0.038428377 0.120709926 0.01471678 -0.0242464 0.028069424
0.24222977 0.22018276 -0.008970273 0.062220145 -0.028495794 0.053021137 0.074784584 0.003909405
0.09952085 0.16170773 -0.014370461 -0.26062855 0.067934416 0.011606281 0.0022965018 -0.010193584
0.0729274 0.23090407 0.024955565 0.29523045 0.03299219 -0.0058631836 -0.93864965 -0.002502819
-0.03196955 0.19288425 0.07834238 -0.46566927 0.0050895307 0.11532038 0.124828056 -0.025664523
-0.4128319 0.41718176 -0.00790358 -0.031784 0.075931676 -0.010518472 -0.50932205 0.0075757005
0.09749865 -0.04214089 0.10048233 0.097205766 0.025348976 0.027601164 0.01737647 0.4323408
-0.15992527 -0.437127 -0.24306118 0.20224048 -0.17034939 -0.16426918 0.07184494 0.019165758
-0.047556266 0.09247331 -0.006044788 -0.079861216 0.29564768 0.23362815 0.02087297 -0.273567
-0.0109274695 -0.25030026 0.13955279 0.010152628 0.027509037 -0.035998553 -0.0021438708 0.2374982
0.055560037 -0.17898211 0.15202446 0.29799572 -0.00047540883 -0.11240278 0.08760579 -0.24791068
-0.01385363 -0.26861683 -0.13988784 -0.088846356 0.18886213 -0.24307594 -0.19746017 -0.18054171
0.27454835 -0.11939779 -0.04588877 -0.19536616 0.16219415 0.28280437 0.14578669 -0.21768674
0.17661174 -0.060473766 0.2706213 -0.060247447 -0.0016956251 0.22388205 0.029728934 0.092822224
0.25080383 -0.2656004 0.13295043 0.2325143 0.020456063 0.0907447 -0.33463067 0.023970958
-0.05217259 -0.08312112 0.2051281 -0.1065767 -0.097403355 0.019930724 -0.25594065 0.21926075
-0.045454234 -0.129924 -0.15622665 0.10914909 -0.016398018 0.0039664996 0.006974392 -0.031747837
-0.0871071 -0.14817889 0.02935022 0.0064862627 -0.0060551586 0.045641623 0.06310436 -0.03337963
0.37940228 -0.00081106485 0.15411113 0.0032921773 -0.023380224 -0.010487408 -0.23406078 0.123156615
0.06530479 0.012317687 -0.17261402 0.1737693 -0.0014204064 0.12703553 -0.0036648833 -0.15438822
-0.06958178 -0.0025404918 -0.050275184 -0.023385406 -0.025055869 0.25155237 -0.056142215 -0.0022287553
00000000: 6c39 d63d c4b5 db3b 63c9 d2bd 43f2 063e
00000010: 00bb d93e 4449 8bbe b92e 7f3e 72ef 46be
00000020: 75b1 90be 5e77 cdbe 0178 a8bd 117b 7b3d
00000030: 0d01 9b3e c29c d63d 77d8 07be 8341 063d
00000040: aa26 65be 4668 883e 0677 a7be bc82 863e
00000050: 3c5a 9d3e 2116 18bd 1447 c43e 4ceb 1c3e
00000060: 2f54 8ebe 5774 d6bd 8206 8cbe fa5e 873e
00000070: 1007 173e 91b9 163e 24c0 b2be 803a 383e
00000080: c147 fabe 619e 3bbe 35a7 3dbe 3a22 193e
00000090: ff1f 083e 7b86 483e 7d56 1abd b8c0 e9bd
000000a0: 23ed a4be 0fac b8bd 730b 103e 0aa7 7cbd
000000b0: 2c66 66be 983a 8f3d bfbf 64be 2077 4bbe
000000c0: c466 003d 89e6 8f3d b774 afbe df42 8fbd
000000d0: 1bd0 913e 4289 84be 4389 f3bd 83e2 e83c
000000e0: 1151 45be 5e56 29be ee06 8f3e 5763 bb3e
000000f0: e1b6 20be 5eb2 88be 54df f7bd 3caa bbbe
00000100: 0979 28be ac73 2dbe c99b 643e 1067 a3be
00000110: cc4c 3c3d 2809 e0bc 52d5 853e 4327 733e
00000120: 6bba 6b3e 7657 f63c dea0 f13d f25e abbc
00000130: 9890 ccbc 53a0 473c 310d 4a3d 21de ba3d
00000140: f52a 0b3d 32db 393d 4597 353e 2681 42bd
00000150: 5601 9fbd 2be0 d1bc 4ca4 583d 551f b53c
00000160: 9cec f23d 30d9 76bc c8b3 dc3a 1367 1d3d
00000170: c436 f73d a61e 713c 63a0 c6bc d9f1 e53c
00000180: 150b 783e 9777 613e 0df8 12bc 8dda 7e3d
00000190: 0370 e9bc b12c 593d a928 993d 771a 803b
000001a0: 96d1 cb3d b696 253e 1572 6bbc 1b71 85be
000001b0: 3321 8b3d 4528 3e3c e880 163b fd02 27bc
000001c0: f65a 953d 1e72 6c3e 9d6f cc3c 7228 973e
000001d0: d222 073d f31f c0bb 584b 70bf 5606 24bb
000001e0: 81f2 02bd 7383 453e f871 a03d 346c eebe
000001f0: 14c6 a63b 172d ec3d daa5 ff3d 683e d2bc
00000200: b45e d3be d998 d53e 047e 01bc f12f 02bd
00000210: 1182 9b3d ab55 2cbc ee62 02bf 953d f83b
00000220: 5fad c73d ed9b 2cbd aec9 cd3d d113 c73d
00000230: a8a8 cf3c d61b e23c 1959 8e3c c65b dd3e
00000240: 73c3 23be 1ccf dfbe 08e5 78be 2118 4f3e
00000250: 1270 2ebe 2e36 28be 7123 933d 8201 9d3c
00000260: 5cca 42bd a662 bd3d 5b13 c6bb 478e a3bd
00000270: 225f 973e 383c 6f3e cafd aa3c f910 8cbe
00000280: 2109 33bc 5b27 80be ede6 0e3e 3557 263c
00000290: a25a e13c 3873 13bd 2f80 0cbb ba32 733e
000002a0: ec92 633d 1647 37be 4dac 1b3e e592 983e
000002b0: 4b40 f9b9 6e33 e6bd aa6a b33d 4cdc 7dbe
000002c0: 56fa 62bc 2588 89be c23e 0fbe 14f5 b5bd
000002d0: 1365 413e e6e8 78be 0033 4abe eddf 38be
000002e0: 9a91 8c3e d486 f4bd ddf5 3bbd 110e 48be
000002f0: 3916 263e bccb 903e 1b49 153e 46e9 5ebe
00000300: b5d9 343e 57b3 77bd e08e 8a3e 07c6 76bd
00000310: bd3f deba 5641 653e 188a f33c 9419 be3d
00000320: 5c69 803e c7fc 87be 2824 083e 3b18 6e3e
00000330: 7993 a73c 5bd8 b93d b654 abbe be5e c43c
00000340: edb2 55bd 683b aabd 1a0d 523e e344 dabd
00000350: 697b c7bd c245 a33c a70a 83be e485 603e
00000360: 382e 3abd cc0a 05be e1f9 1fbe 8f89 df3d
00000370: 2355 86bc 69f9 813b 7189 e43b 050a 02bd
00000380: 3565 b2bd 35bc 17be df6f f03c b78a d43b
00000390: 5a6a c6bb b6f2 3a3d dc3c 813d 14b9 08bd
000003a0: 0441 c23e a49d 54ba 4fcf 1d3e 92c1 573b
000003b0: e287 bfbc 61d3 2bbc a1ad 6fbe 8939 fc3d
000003c0: 85be 853d 20d0 493c bbc1 30be 94f0 313e
000003d0: ee2c baba 9a15 023e 8a2e 70bb f217 1ebe
000003e0: e480 8ebd 617e 26bb 5aed 4dbd c092 bfbc
000003f0: f741 cdbc 79cb 803e 61f5 65bd 4f10 12bb

LGEBs.0.phi_h.0.bias f4 [72]
0.027625183 0.023940247 0.023452386 -0.032120757 0.030911226 0.007852163 0.042322207 -0.00068236893
0.0032912935 0.0039043252 -0.008449197 -0.023827342 0.011935634 -0.03422441 -0.0055482523 0.038938787
-0.024485398 -0.030321032 0.006505058 -0.021111619 0.009950475 0.010773834 -0.039250653 0.00058302126
0.009179076 -0.0075849323 -0.010291225 0.0222801 0.0123884445 -0.0068943324 0.032553613 -0.021642666
-0.029804438 0.014822061 -0.024841936 0.020875372 -0.030290967 0.00091967196 0.028431058 -0.0062438385
0.018953804 -0.027527496 -0.035569698 0.0136621 0.032153863 -0.0021950377 0.036126707 -0.0068687056
-0.03099282 0.0017396553 -0.020166058 0.016595898 0.039544657 0.03395914 -0.008452441 0.00043226648
-0.029845238 -0.02203108 0.027454227 -0.0049963514 -0.0019334087 -0.016720181 -0.00010180258 -0.017934911
0.020927714 0.008198211 0.021929849 0.009794087 0.0010761006 -0.038370322 0.01628682 0.020724526
00000000: 354e e23c 561e c43c 381f c03c 0e91 03bd
00000010: 8a39 fd3c 5ca6 003c 0d5a 2d3d 01e1 32ba
00000020: beb2 573b b5df 7f3b 806e 0abc 8f31 c3bc
00000030: ad8d 433c e52e 0cbd 1dce b5bb 477e 1f3d
00000040: 9a95 c8bc d063 f8bc 6228 d53b 46f2 acbc
00000050: 5107 233c bc84 303c 4bc5 20bd e5d5 183a
00000060: d663 163c 068b f8bb 879c 28bc c284 b63c
00000070: e7f8 4a3c dae9 e1bb f056 053d f64b b1bc
00000080: 7028 f4bc 3bd8 723c 5181 cbbc d402 ab3c
00000090: c324 f8bc 2416 713a 40e8 e83c 1d99 ccbb
000000a0: 0245 9b3c 5881 e1bc 88b1 11bd 00d7 5f3c
000000b0: c5b3 033d 9fda 0fbb 99f9 133d e112 e1bb
000000c0: a8e4 fdbc 2505 e43a 4a33 a5bc 1ff4 873c
000000d0: 94f9 213d bd18 0b3d 1b7c 0abc d3a1 e239
000000e0: 007e f4bc 867a b4bc b0e7 e03c 6fb8 a3bb
000000f0: 6e6a fdba c3f8 88bc d87e d5b8 3cec 92bc
00000100: 9970 ab3c ca51 063c 3aa6 b33c 6177 203c
00000110: f20b 8d3a 332a 1dbd f06b 853c 7bc6 a93c

LGEBs.0.phi_h.1.weight f4 [72]
0.6500268 0.47176102 0.34003264 0.34432644 0.3977467 0.5835397 0.09964859 0.46363828
0.5463751 0.64305127 0.25479108 0.4142877 0.96719205 0.63029003 0.2938843 0.1470919
0.32262155 0.35659903 0.4444579 0.3696768 0.36479256 0.5841911 0.41135103 0.32526022
0.2719276 0.47564846 0.38218808 0.25624955 0.5681453 0.40677622 0.4479104 0.48843816
0.26172575 0.90269405 0.38670212 0.41474843 0.5436899 0.41323194 0.14530112 0.33807614
0.56232184 0.38658395 0.36638498 0.4664104 0.81838375 0.4583423 0.39245823 0.41705886
0.36715806 0.37119186 0.2815971 0.7207284 0.4097514 0.5240683 0.40903544 0.43903732
0.55626845 0.39731497 0.38840517 0.33799046 0.34366116 0.33545563 0.45483303 0.44519106
0.6141128 0.57642716 0.30421272 0.57761353 0.252939 0.33137965 0.4908459 0.52393496
00000000: 2868 263f a98a f13e c218 ae3e 8e4b b03e
00000010: 75a5 cb3e dc62 153f 8f14 cc3d ff61 ed3e
00000020: 3ddf 0b3f 029f 243f fa73 823e 841d d43e
00000030: e699 773f b05a 213f 0178 963e 429f 163e
00000040: a72e a53e 2694 b63e fc8f e33e 4746 bd3e
00000050: 17c6 ba3e 8c8d 153f 9a9c d23e 8288 a63e
00000060: 183a 8b3e 3288 f33e 28ae c33e 2433 833e
00000070: f871 113f f944 d03e 8354 e53e 9114 fa3e
00000080: eb00 863e f516 673f d2fd c53e e859 d43e
00000090: 432f 0b3f 2393 d33e d1c9 143e 5118 ad3e
000000a0: 53f4 0f3f 55ee c53e d096 bb3e 58cd ee3e
000000b0: 9981 513f d8ab ea3e 49f0 c83e bd88 d53e
000000c0: 24fc bb3e dc0c be3e 7f2d 903e a881 383f
000000d0: efca d13e 5729 063f 186d d13e 80c9 e03e
000000e0: 9c67 0e3f de6c cb3e 0bdd c63e 160d ad3e
000000f0: 5bf4 af3e d7c0 ab3e e0df e83e 15f0 e33e
00000100: 7f36 1d3f bb90 133f c5c1 9b3e 7bde 133f
00000110: 3881 813e 98aa a93e 2750 fb3e 9a20 063f

LGEBs.0.phi_h.1.bias f4 [72]
-0.018406384 0.054965183 -0.15326257 -0.24967562 -0.022594605 -0.11169161 -0.07644217 -0.10871481
-0.048055734 0.10525468 -0.20169921 -0.34933373 0.11108078 0.03271099 -0.10300867 -0.21085282
-0.23989187 -0.21529429 -0.2391661 -0.20985116 0.08443905 -0.05075963 -0.2718201 -0.17449433
-0.17837775 -0.14451168 -0.010181906 -0.17694664 0.09147222 -0.05023185 -0.1943931 -0.15956582
-0.24064428 0.032163925 -0.23992126 -0.24723627 -0.20725468 -0.066070735 -0.1770598 0.059109233
-0.07037194 -0.2514461 -0.23190548 -0.065332845 0.23921959 -0.15188932 0.034681633 0.023128808
-0.31894746 -0.08836608 -0.24843282 -0.24603555 -0.2471489 -0.21472915 -0.18789503 -0.4915453
-0.10394768 -0.2465607 -0.19459504 -0.2276832 -0.029754747 -0.30554795 -0.09615367 -0.15957789
-0.050628856 -0.06767678 -0.22557706 -0.11641981 -0.11046997 -0.18419233 -0.16636589 0.358666
00000000: fcc8 96bc 2c23 613d ddf0 1cbe f7aa 7fbe
00000010: 5218 b9bc 92be e4bd b68d 9cbd dfa5 debd
00000020: 17d6 44bd c48f d73d 3d8a 4ebe dfdb b2be
00000030: 527e e33d f6fb 053d 36f6 d2bd cde9 57be
00000040: 37a6 75be 1b76 5cbe f5e7 74be 39e3 56be
00000050: 61ee ac3d 54e9 4fbd 012c 8bbe a4ae 32be
00000060: a8a8 36be dffa 13be 02d2 26bc 8031 35be
00000070: ca55 bb3d eabf 4dbd fc0e 47be 3965 23be
00000080: 746b 76be 52be 033d ebad 75be 812b 7dbe
00000090: 923a 54be 1850 87bd 2a4f 35be 861c 723d
000000a0: 2a1f 90bd 8bbd 80be a178 6dbe 3acd 85bd
000000b0: fbf5 743e e088 1bbe 540e 0e3d a078 bd3c
000000c0: 154d a3be 46f9 b4bd 2c65 7ebe bef0 7bbe
000000d0: 9a14 7dbe f5e1 5bbe 8e67 40be d3ab fbbe
000000e0: 85e2 d4bd 687a 7cbe ec43 47be c925 69be
000000f0: 3ac0 f3bc c870 9cbe 37ec c4bd 6368 23be
00000100: 3460 4fbd 209a 8abd acfd 66be 826d eebd
00000110: 143e e2bd ea9c 3cbe d25b 2abe 12a3 b73e

LGEBs.0.phi_h.1.running_mean f4 [72]
0.86893237 0.17594154 1.7463611 -5.4410677 0.001466429 -9.869158 5.67228 -4.645321
-6.4997816 -1.7023579 7.104756 1.8728102 -4.1378155 -1.9582314 -3.1250808 5.6275897
-4.948852 -10.6266575 -1.5223786 -9.487456 3.4693913 -2.9099066 5.6161547 -1.8811868
-0.95634246 0.9516024 -1.5373347 8.23578 0.29831052 -2.4560583 3.0732994 1.3455793
2.1197143 -4.824877 -11.155596 -0.46668866 -1.4375668 -2.3993735 -2.9023001 -2.7330468
-1.3790748 -14.718447 1.2919571 3.497108 -2.6388776 -12.867486 -7.5101314 -7.047068
-2.4389708 2.1806211 3.1981854 2.6521726 -9.294841 1.851592 -11.791709 -1.0099053
-2.227559 -14.2569065 -8.491218 -3.9764295 0.13829659 -4.6054063 4.6993017 -8.68564
-10.348936 -3.299416 -4.426466 6.329295 0.23551084 -14.778271 -2.095329 -1.6179022
00000000: 5a72 5e3f 052a 343e c388 df3f 3a1d aec0
00000010: 3135 c03a 12e8 1dc1 5183 b540 78a6 94c0
00000020: 36fe cfc0 dde6 d9bf 295a e340 3fb8 ef3f
00000030: fc68 84c0 54a7 fabf 5301 48c0 3715 b440
00000040: ff5c 9ec0 ca06 2ac1 4ddd c2bf 9fcc 17c1
00000050: 820a 5e40 e93b 3ac0 8ab7 b340 bbca f0bf
00000060: dcd2 74bf 379c 733f 62c7 c4bf c1c5 0341
00000070: 28bc 983e 0f30 1dc0 f0b0 4440 f13b ac3f
00000080: 66a9 0740 6465 9ac0 527d 32c1 d1f1 eebe
00000090: 3002 b8bf 568f 19c0 49bf 39c0 3dea 2ec0
000000a0: 8685 b0bf c27e 6bc1 da5e a53f 9ed0 5f40
000000b0: 5fe3 28c0 39e1 4dc1 ff52 f0c0 9581 e1c0
000000c0: 1918 1cc0 4c8f 0b40 12af 4c40 32bd 2940
000000d0: abb7 14c1 f700 ed3f d7aa 3cc1 9444 81bf
000000e0: 5490 0ec0 4a1c 64c1 07dc 07c1 d27d 7ec0
000000f0: 9f9d 0d3e 7d5f 93c0 ae60 9640 62f8 0ac1
00000100: 3e95 25c1 a229 53c0 9ca5 8dc0 9689 ca40
00000110: c129 713e cc73 6cc1 df19 06c0 6b17 cfbf

LGEBs.0.phi_h.1.running_var f4 [72]
47.01685 29.363266 22.402592 12.695473 31.409641 26.142937 39.89546 50.28443
18.251377 15.395133 38.913998 14.236688 304.83527 41.994644 21.990026 37.865353
43.766613 27.676432 15.068682 50.537533 27.701483 14.384303 17.50378 27.806944
5.044194 76.98748 15.167208 47.36966 46.657932 16.292408 17.011013 25.284805
33.16613 117.68841 23.351736 12.167848 77.49022 9.245388 64.08221 16.615557
11.849895 36.21328 23.776932 30.636675 97.58433 24.507568 33.983807 23.278864
16.216093 31.34979 15.52567 56.518738 65.75593 18.627428 90.7126 6.8392177
35.842064 57.965977 15.749774 28.099867 9.721086 8.6921015 55.9493 24.0587
34.323322 36.476044 12.05424 23.520731 24.710869 49.31295 27.349777 46.743652
00000000: 4111 3c42 f8e7 ea41 8238 b341 a820 4b41
00000010: f246 fb41 bc24 d141 f394 1f42 4223 4942
00000020: d202 9241 7752 7641 efa7 1b42 79c9 6341
00000030: ea6a 9843 84fa 2742 93eb af41 1f76 1742
00000040: 0311 2f42 5569 dd41 5219 7141 6f26 4a42
00000050: a39c dd41 1b26 6641 be07 8c41 9f74 de41
00000060: 0a6a a140 97f9 9942 e2ac 7241 887a 3d42
00000070: b9a1 3a42 da56 8241 8e16 8841 4847 ca41
00000080: 1eaa 0442 7760 eb42 5bd0 ba41 81af 4241
00000090: fefa 9a42 1ced 1341 172a 8042 a9ec 8441
000000a0: 2b99 3d41 66da 1042 2837 be41 e917 f541
000000b0: 2d2b c342 800f c441 6bef 0742 1d3b ba41
000000c0: 8fba 8141 5fcc fa41 2569 7841 3013 6242
000000d0: 0983 8342 f904 9541 da6c b542 dfda da40
000000e0: 465e 0f42 29dd 6742 13ff 7b41 87cc e041
000000f0: 9189 1b41 d912 0b41 15cc 5f42 3878 c041
00000100: 154b 0942 78e7 1142 2bde 4041 752a bc41
00000110: dcaf c541 7640 4542 58cc da41 80f9 3a42

LGEBs.0.phi_h.3.weight f4 [72, 72]
-0.104907125 0.13130814 -0.11864339 -0.05117446 -0.11209604 0.106349245 0.02296221 -0.1936746
0.10995205 0.2803742 0.04169702 0.048121143 -0.36670965 0.1465131 0.036270447 0.01204398
-0.011505523 -0.18644963 0.034503225 -0.1641031 0.09195056 -0.055112228 0.15619925 0.019411834
-0.055603497 -0.12764148 -0.009801993 0.0051783775 0.20522748 -0.2640633 0.09465888 -0.164245
0.050675057 -0.43350205 -0.3154459 -0.15774778 -0.34720394 -0.04377325 -0.061874613 0.021073902
-0.44905776 -0.084650084 0.032665547 0.0128123695 -0.24338825 -0.16768293 -0.073306955 0.14005184
-0.23069744 0.09570459 -0.055171568 -0.38320062 -0.13239154 -0.10350216 -0.11762714 -0.09694477
-0.3551661 -0.23714632 -0.3118733 -0.08206005 -0.30874416 0.025649719 0.096192345 -0.2509253
-0.3957613 -0.035890598 -0.22775555 0.027989943 -0.02605338 0.013634372 -0.024929933 -0.10601177
-0.3237747 0.2541615 0.0523955 0.092860445 -0.15821642 -0.35487428 0.05458249 0.27579936
-0.40594473 -0.022961104 0.093843274 -0.0965485 -0.54006064 -0.094109364 0.34430727 0.013020645
-0.1338457 0.01805643 0.24424975 0.44170794 0.107354864 -0.3312226 -0.12940057 -0.057092693
-0.022492828 -0.33936435 0.22989936 0.1672202 -0.045541108 -0.0732051 -0.067083485 -0.12108588
0.0722128 -0.34321252 -0.06655814 -0.2578449 0.13110656 0.0502998 0.22748499 -0.020157564
0.19437489 0.40417945 0.38725534 -0.12506847 -0.32168093 -0.08905358 -0.04636494 -0.14190139
-0.07469269 0.2409486 -0.14928943 -0.0043065613 0.38630444 0.103339106 0.23220126 -0.32306567
-0.17755881 0.38538578 0.0077290065 -0.118170224 0.2264817 0.14005233 -0.11298822 -0.024004634
-0.14563365 -0.23785532 -0.09461739 -0.19534479 0.15309975 0.17551811 -0.2984376 -0.080315605
0.15507306 -0.20564762 0.15494984 -0.1453689 0.07534086 0.072784625 0.012124486 -0.22172344
0.11482173 0.2905076 0.06759387 0.17327386 0.24900798 0.20993847 0.086827144 0.028434314
0.06445388 -0.17834361 -0.17608209 -0.40900478 0.13462923 -0.02061381 0.18133132 -0.058575537
0.017170994 -0.016518634 -0.27023503 -0.14308345 0.2356815 -0.13672358 0.21041374 -0.038065758
-0.0050222296 0.060221527 -0.28936478 0.06613213 -0.36196196 -0.30910575 0.034952745 -0.049103048
-0.02239053 -0.31623796 -0.080590434 0.22712295 0.24543588 -0.27898452 -0.12208073 -0.040817156
-0.053449504 -0.16854116 -0.050749708 -0.23717606 -0.38034454 0.1888888 -0.33130035 0.033635583
-0.10148138 -0.48250085 -0.11045142 0.0617088 -0.1472749 0.09391306 0.17704481 -0.27246636
-0.1076405 0.30088773 -0.2284391 0.34424582 0.08881374 -0.18356915 0.0052261525 0.11207984
-0.089252226 -0.022512503 -0.121482 -0.13662067 -0.18347602 -0.13686712 -0.11122789 -0.045617737
-0.1976758 0.098586015 -0.13744545 -0.02210212 -0.17486031 -0.008164203 -0.18908735 -0.0061390754
0.019909324 0.012345078 0.052144032 -0.24757344 -0.10818566 -0.12207186 -0.18637463 -0.03933021
-0.07882485 0.02997262 -0.13450114 -0.08614215 -0.1864478 0.19469008 -0.18740064 0.09773299
-0.04070879 -0.28256637 0.12904859 -0.0030419435 -0.20520109 0.102394484 0.023930434 -0.20907407
00000000: 8cd9 d6bd a475 063e 4efb f2bd 509c 51bd
00000010: 9c92 e5bd a2cd d93d 3f1b bc3c a252 46be
00000020: 8a2e e13d 358d 8f3e 7fca 2a3d ad1a 453d
00000030: 5ec1 bbbe 8807 163e 5290 143d 1d54 453c
00000040: a981 3cbc a7ec 3ebe 4153 0d3d a50a 28be
00000050: 9350 bc3d 5cbd 61bd b2f2 1f3e 9105 9f3c
00000060: 7ec0 63bd 73b4 02be 8a98 20bc 61af a93b
00000070: 2727 523e 4e33 87be 84dc c13d d72f 28be
00000080: a690 4f3d fbf3 ddbe 2082 a1be a288 21be
00000090: b7c4 b1be 944b 33bd 3c70 7dbd 2da3 ac3c
000000a0: e6ea e5be 065d adbd 4fcc 053d f9ea 513c
000000b0: c53a 79be 13b5 2bbe f521 96bd c069 0f3e
000000c0: f33b 6cbe c500 c43d 95fb 61bd df32 c4be
000000d0: a691 07be f1f8 d3bd 7fe6 f0bd fb8a c6bd
000000e0: 55d8 b5be 7cd6 72be dbad 9fbe 190f a8bd
000000f0: b713 9ebe 5c1f d23c 7e00 c53d 4879 80be
00000100: 3aa1 cabe 0502 13bd c038 69be 2a4b e53c
00000110: e66d d5bc b362 5f3c dc39 ccbc b31c d9bd
00000120: ccc5 a5be 7521 823e aa9c 563d 9e2d be3d
00000130: 7c03 22be 15b2 b5be e491 5f3d 9335 8d3e
00000140: fdd7 cfbe ed18 bcbc e730 c03d 38bb c5bd
00000150: 6a41 0abf 69bc c0bd 0b49 b03e 8b54 553c
00000160: d90e 09be 14eb 933c 9b1c 7a3e 8b27 e23e
00000170: dedc db3d 0296 a9be 9581 04be 07da 69bd
00000180: e142 b8bc 2ac1 adbe bd6a 6b3e c63b 2b3e
00000190: 5089 3abd 8eec 95bd 1163 89bd e0fb f7bd
000001a0: 4ee4 933d 8db9 afbe a24f 88bd 3f04 84be
000001b0: cc40 063e 2a07 4e3d d3f1 683e 7a21 a5bc
000001c0: 360a 473e 9cf0 ce3e 5546 c63e f311 00be
000001d0: 5db3 a4be b961 b6bd 2ae9 3dbd 994e 11be
000001e0: 7bf8 98bd 3bbb 763e 54df 18be 0e1e 8dbb
000001f0: b2c9 c53e 74a3 d33d 2bc6 6d3e dd68 a5be
00000200: fad1 35be 4951 c53e 9b43 fd3b 3b03 f2bd
00000210: d2ea 673e e169 0f3e 5e66 e7bd 5ea5 c4bc
00000220: fd20 15be 5890 73be c3c6 c1bd 7708 48be
00000230: 2ec6 1c3e 05bb 333e d0cc 98be 827c a4bd
00000240: 79cb 1e3e 4a95 52be 2cab 1e3e 96db 14be
00000250: 4f4c 9a3d 1b10 953d c8a5 463c 780b 63be
00000260: a827 eb3d 6abd 943e a86e 8a3d b46e 313e
00000270: f3fb 7e3e 1cfa 563e 6ed2 b13d 14ef e83c
00000280: 6500 843d b59f 36be dd4e 34be 1369 d1be
00000290: 3fdc 093e 4bde a8bc ebae 393e e7ec 6fbd
000002a0: 2faa 8c3c 1652 87bc 3f5c 8abe 7884 12be
000002b0: 7e56 713e 4401 0cbe b376 573e d7ea 1bbd
000002c0: 8491 a4bb d9aa 763d 9f27 94be 4870 873d
000002d0: 1453 b9be 1c43 9ebe 9c2a 0f3d 4720 49bd
000002e0: 586c b7bc f1e9 a1be 990c a5bd eb92 683e
000002f0: 8b53 7b3e 0fd7 8ebe 7605 fabd e42f 27bd
00000300: deed 5abd 0e96 2cbe edde 4fbd 48de 72be
00000310: 85bc c2be 116c 413e 33a0 a9be 77c5 093d
00000320: 78d5 cfbd 5a0a f7be 5b34 e2bd 5ec2 7c3d
00000330: 3bcf 16be 7e55 c03d 3c4b 353e b680 8bbe
00000340: 9f72 dcbd f50d 9a3e f0eb 69be fd40 b03e
00000350: fae3 b53d 8df9 3bbe 2540 ab3b 1d8a e53d
00000360: dfc9 b6bd 246c b8bc 8ecb f8bd 4ae6 0bbe
00000370: 23e1 3bbe e526 0cbe 73cb e3bd aad9 3abd
00000380: 866b 4abe 77e7 c93d 80be 0cbe 810f b5bc
00000390: 950e 33be 26c3 05bc 1da0 41be 4c2a c9bb
000003a0: e118 a33c 0343 4a3c fb94 553d e483 7dbe
000003b0: 7190 ddbd d000 fabd fed8 3ebe b718 21bd
000003c0: ec6e a1bd 2489 f53c abba 09be 4c6b b0bd
000003d0: 2cec 3ebe d65c 473e f4e5 3fbe 3c28 c83d
000003e0: 43be 26bd 8aac 90be 5025 043e 585b 47bb
000003f0: 3c20 52be 33b4 d13d c209 c43c 8317 56be

LGEBs.0.phi_h.3.bias f4 [72]
-0.03195645 0.02393341 -0.056291673 0.060169835 0.12272014 -0.075374976 -0.053198915 -0.01876859
0.03177154 -0.032365534 -0.049225893 0.019272028 -0.039724104 0.06433268 0.07332846 0.06101606
-0.09310426 -0.023672128 -0.051596746 0.033314306 -0.14751156 -0.11159937 -0.010050553 0.0736632
-0.035690695 -0.019246453 0.009269727 -0.06304178 -0.011828215 -0.065923244 0.012441048 0.04148886
-0.013655725 -0.014836529 0.057296313 0.031739116 0.0005318584 0.11078296 -0.04975246 -0.027680084
0.025240503 -0.054394737 -0.07408238 0.013341078 -0.037635412 -0.026191399 -0.07039531 0.048843
-0.012339001 -0.019034063 -0.042437453 -0.021511614 -0.03943685 0.0885248 0.0061387913 -0.060431752
0.09715069 -0.08474026 -0.1537327 -0.025190841 0.051527195 -0.16116719 0.06393151 -0.030033728
-0.03402648 0.007480651 -0.018346373 -0.045214135 0.03692965 -0.15218885 -0.08651258 -0.03744098
00000000: c4e4 02bd 0010 c43c 1992 66bd a574 763d
00000010: b254 fb3d 325e 9abd 1be7 59bd 96c0 99bc
00000020: e022 023d b991 04bd 17a1 49bd 5fe0 9d3c
00000030: beb5 22bd dac0 833d 3b2d 963d faeb 793d
00000040: 72ad bebd 0dec c1bc 1c57 53bd 9574 083d
00000050: 450d 17be 368e e4bd 13ab 24bc bbdc 963d
00000060: 6830 12bd bdaa 9dbc 0ee0 173c 0c1c 81bd
00000070: 21cb 41bc c402 87bd 8ad5 4b3c 39f0 293d
00000080: 43bc 5fbc ea14 73bc 8aaf 6a3d e000 023d
00000090: 6a6c 0b3a 2de2 e23d 3cc9 4bbd 58c1 e2bc
000000a0: 2cc5 ce3c 04cd 5ebd 81b8 97bd 8994 5a3c
000000b0: 9727 1abd 588f d6bc 6b2b 90bd 990f 483d
000000c0: 8529 4abc 53ed 9bbc e5d2 2dbd 2039 b0bc
000000d0: 8988 21bd 7e4c b53d ea27 c93b 4987 77bd
000000e0: f1f6 c63d 4d8c adbd 1b6c 1dbe 065d cebc
000000f0: 2e0e 533d 0309 25be 86ee 823d 4b09 f6bc
00000100: 5a5f 0bbd 4020 f53b 224b 96bc 7532 39bd
00000110: 8b43 173d 65d7 1bbe 822d b1bd b75b 19bd
